memory/Agent1_Critic.pth (torch, 566209 bytes, 11 tensors)

weight f4 [32, 5]
00000000: e02a 11be fc9e 993e 901f 8dbe 7c60 d2be
00000010: 6c23 cabe e087 d2be 82bc 2bbe 504e ba3e
00000020: ba19 89be 5258 72be 7a85 d4be 64b3 8d3e
00000030: c40c 073e 6c9e 793e 0a9b 3dbe 6806 643e
00000040: 6bff 5fbe 99a5 bcbe 50a5 c1be 0d9f dbbe
00000050: c897 51bd 08a7 2d3e 7843 283e 7036 a1bc
00000060: 3089 ffbc 60d0 f3bd 7882 e2be 7813 cabe
00000070: 600e a93d 1ccc 003e 6cee 683e 006b ad3e
00000080: 6bef d1be 9c38 c7be 92a8 b6be 4044 633d
00000090: a01b c43d 8054 2e3d 9a6a 63be d833 843e
000000a0: 600e fe3d fde2 d9be 1c2e 51be aada a43e
000000b0: 94ee b5be a896 9dbe c21e 3fbe f078 f83d
000000c0: a0b6 b0bd a842 3dbe b40f 363e 8cfd 82be
000000d0: 4e46 b8be 2482 d23e 20b9 af3c 28bd 46bd
000000e0: 520a bc3e 8064 373c 7426 9e3e e00c 58bc
000000f0: 2072 38be f8f4 be3d 7a21 51be a076 78bd
00000100: 26ac db3e f695 cc3e 889d 533e 602d 3cbe
00000110: aa72 aa3e 2814 4c3d b8d4 92be 7919 dcbe
00000120: ef24 c1be b8f6 a33e e5b5 5fbe b042 833e
00000130: b045 c7be 9c76 2c3e 2f57 7fbe 78c4 20be
00000140: 50e6 b83e 37d4 7cbe 1eac a2be ec79 d7be
00000150: 80c0 8e3e 6872 833d 3c3c 1c3e 0e00 9b3e
00000160: b092 de3d 4cb8 283e ce7b b5be 9bbd 82be
00000170: 70cb 123e 6e1c c03e b85f a23e 8426 e43e
00000180: 7a4f 863e 2a53 c83e 50ca b43d 2651 34be
00000190: 8cbe 453e 8020 4fbc b845 d43d e078 f23d
000001a0: 0c66 9f3e 8044 bf3d e046 2e3c ce53 d13e
000001b0: ac8b adbe 987b a03e 6423 a7bd a06b d13d
000001c0: 5425 4fbe 3c0b ce3e 742c 73be 08b7 8a3d
000001d0: 325b db3e eef5 80be 50b2 28bd 90f9 0fbd
000001e0: f465 92bd 6649 b83e 4035 8d3e fe3f 74be
000001f0: c44b 453e 604f 0bbd 707b e9bd 1176 d4be
00000200: b627 34be 6c00 4d3e ac84 bb3e 80bf 2bbb
00000210: f656 a53e 54b9 fdbd bcb9 1b3e ccb1 643e
00000220: f0aa c4bd 9823 cebd dcee 1cbe f6af 8ebe
00000230: 4841 f73d b30a a9be ea00 b33e 210b abbe
00000240: 90d8 21be 4705 c4be 8a52 afbe d45f c53e
00000250: 7a06 8a3e ced2 cc3e 2cf5 6ebe 38fc a73d
00000260: 0c33 3f3e 20b2 a33d c4d1 a0be 72fc bbbe
00000270: e860 3f3e 3471 343e 857c 4dbe a0cf 733e
-0.14176512 0.30004108 -0.27563143 -0.41089237 -0.3948015 -0.4111929 -0.16771129 0.36387873
-0.2677744 -0.23666504 -0.41508085 0.27675927 0.13188463 0.2437684 -0.18516174 0.22268069
-0.21874778 -0.3684509 -0.37821436 -0.42894784 -0.05117014 0.16958249 0.16431987 -0.019679278
-0.031193346 -0.11904979 -0.44240165 -0.39467978 0.08254695 0.12577862 0.227472 0.33870697
-0.41002974 -0.38910377 -0.35675484 0.05548501 0.095755816 0.042561054 -0.22208634 0.25820804
0.124050856 -0.4255599 -0.20427746 0.32198077 -0.35533583 -0.30779004 -0.18664077 0.12132442
-0.08628583 -0.18482459 0.17779428 -0.25584066 -0.35991138 0.41114914 0.02145058 -0.048520237
0.36726624 0.011193395 0.30888712 -0.013186663 -0.18012285 0.09324068 -0.20422927 -0.060660005
0.42904776 0.3995816 0.20665562 -0.18376684 0.33290607 0.04982391 -0.28677917 -0.42988184
-0.3772349 0.3202417 -0.21846731 0.25636816 -0.38920355 0.16842121 -0.24935602 -0.15699947
0.36113214 -0.24690329 -0.3177194 -0.42085207 0.2788124 0.06418306 0.15257353 0.3027348
0.10867822 0.16476554 -0.35446018 -0.25535282 0.14335418 0.3752169 0.31713653 0.44560635
0.2623251 0.3912595 0.088276505 -0.1760908 0.19310969 -0.012642026 0.1036486 0.11839461
0.31132543 0.09339237 0.010637015 0.4088425 -0.33895624 0.31344295 -0.08161047 0.10225606
-0.20229083 0.40242946 -0.23747426 0.06773192 0.42843014 -0.2518763 -0.041185677 -0.03515011
-0.07148352 0.359935 0.2757969 -0.23852536 0.19267184 -0.034011245 -0.11400497 -0.41496328
-0.17593274 0.20019692 0.36624658 -0.0026206672 0.32292908 -0.12388864 0.15207571 0.22333449
-0.09602916 -0.10065383 -0.15325493 -0.27868623 0.12072998 -0.33015975 0.34961635 -0.33406928
-0.15805268 -0.38285276 -0.3424266 0.38549674 0.26958066 0.4000458 -0.23335713 0.08202404
0.18671817 0.07992959 -0.31410038 -0.36716038 0.1868931 0.17621309 -0.20067032 0.23809671

bias f4 [32]
00000000: cc7c 46be 0087 edba 32d2 50be 16a3 a33e
00000010: 4b5c d5be 1826 f33d ce00 a83e 66ed bfbe
00000020: 407c 2ebd 7677 8f3e f7f1 96be ac7d 3a3e
00000030: 827e c53e 408c 453e 80ca 503e 80d0 adbc
00000040: bd4a ddbe 5807 96be 88d1 06bd dfeb c0be
00000050: 9ea3 b7be e2e0 813e fee0 30be fc54 b13e
00000060: 40a4 f43b b01f 6a3e 3034 3b3d e87e 9bbe
00000070: a0cf 7c3e 0816 ebbd 9e71 c23e ea2d 88be
-0.19383544 -0.0018121898 -0.20392683 0.31960362 -0.41671976 0.118725 0.32813114 -0.37485808
-0.042598963 0.2802083 -0.2948148 0.18212003 0.3857308 0.19291782 0.20389748 -0.021217585
-0.43221083 -0.29302478 -0.03291467 -0.37679955 -0.35867018 0.25366884 -0.17273328 0.3463515
0.007465869 0.2286365 0.045704067 -0.3037026 0.24688578 -0.114788115 0.37977308 -0.2659753

weight f4 [32, 2]
00000000: 284a 823e b274 7dbe ccae dbbe 731d 9fbe
00000010: 79dc 133f dab5 a53e a984 263f 5018 37be
00000020: 04e0 06bf ccd2 17bf 0030 eb3b d741 1b3f
00000030: 8bf6 b6be e0b5 f53c f889 19be 68ba 9f3d
00000040: 6d88 1abf c2a9 9f3e 37f9 2a3f bc80 afbe
00000050: 70a4 88be 4958 a9be 2858 233e c0c1 90bc
00000060: 5e9f d33e 9aaa 93be 849f 14be e09e 873e
00000070: cbf8 b7be 8020 26bf 31ec 27bf a1e2 dfbe
00000080: 5083 bebd f52d 90be 13c7 a4be 739e 28bf
00000090: a983 22bf 2c7e 6b3e 8eb3 e53e 9686 5cbe
000000a0: 9ec7 d03e dd22 2b3f 880d e2be a09d 00bf
000000b0: 2d35 193f 502e 18bd 26c1 57be c6ef 19bf
000000c0: 3acd c4be f6d3 a33e 3437 5a3e 1859 2a3e
000000d0: f116 143f 6c72 643e 34c7 b3be 4da2 263f
000000e0: a8a7 303e c224 c03e 6f19 0a3f c721 263f
000000f0: e30c 263f 341b 2b3e 82c5 a53e 542d eebe
0.25447202 -0.24751547 -0.42906797 -0.31077155 0.5775829 0.32365304 0.65046173 -0.17880368
-0.5268557 -0.59306026 0.007177353 0.6064734 -0.35734972 0.029993951 -0.14994037 0.07799226
-0.6036442 0.31184202 0.6678652 -0.34277904 -0.26687956 -0.3307517 0.15951598 -0.017670512
0.41332525 -0.28841096 -0.14513975 0.264884 -0.35932 -0.6489334 -0.65594774 -0.43727592
-0.093023896 -0.28160062 -0.32183132 -0.65866774 -0.6348215 0.2299735 0.44863552 -0.21535715
0.40777296 0.6685007 -0.4415095 -0.50240517 0.59846765 -0.037153542 -0.21069774 -0.6013149
-0.38437825 0.3199765 0.21310121 0.16635549 0.57847506 0.22309273 -0.35112917 0.650914
0.17251456 0.37528044 0.5394506 0.6489529 0.64863414 0.16709596 0.3237725 -0.46518958

bias f4 [32]
00000000: ce4c 14bf 70ec 4fbe 6f07 83be 87a3 003f
00000010: 039f 1d3f d6cc ac3e d214 db3e a06f c93d
00000020: 42f4 18bf fb3d c8be 4f6c 23bf e019 703e
00000030: c078 d33d 32af b1be bd1a 023f 27b4 a7be
00000040: e940 22bf 40b6 f13c e353 043f 321e 09bf
00000050: 5098 5ebd 127b ef3e 6919 173f 9026 bfbe
00000060: 3940 033f 06f2 b63e a0ab cbbc f01d 2c3d
00000070: c7f7 8abe 8e0a f93e 0698 e73e 4fc6 123f
-0.57929695 -0.20305037 -0.2559161 0.5024952 0.6157076 0.33750027 0.42789322 0.09835744
-0.5974771 -0.39109787 -0.6383714 0.2344737 0.103257656 -0.34703976 0.5082205 -0.32754633
-0.63380295 0.029505849 0.516905 -0.535617 -0.054344475 0.46773583 0.5902315 -0.37334108
0.5126987 0.35731524 -0.02486211 0.042020738 -0.27142164 0.48640865 0.45233172 0.57333845

weight f4 [128, 64]
00000000: a46f de3d 70da b73d 402c cc3c f0a1 50bc
00000010: 040f 323d a463 e93d eae8 c33d 5ca1 7c3d
00000020: 6a97 d43d 60a8 eabc e4b0 f2bd 504c 1bbd
00000030: c421 b03d 36c4 e23d 9489 8d3d 9c90 ee3d
00000040: c470 f63d 30d3 b5bc ea77 ebbd 50f8 fdbc
00000050: 2444 753b 7008 c0bc f0ad 513c 521e b3bd
00000060: c208 b13d 582d fbbc 0676 f8bd 1284 c53d
00000070: d0e0 a73d 40c7 f93c a0c5 073d 408b f8bc
00000080: 78d8 94bd 10ab 3f3c c8d3 71bd e099 b5bc
00000090: c44d ecbd 66f2 cb3d 00a5 fcbc f825 9c3c
000000a0: d0be a83d 288d 6dbd cac0 f13d 20d9 bf3c
000000b0: 760d ea3d 065c dd3d 3879 513d e655 a43d
000000c0: fe0d 80bd 9833 6fbd fad4 f5bd 80c6 283d
000000d0: f085 3dbc 2e6e 813d 94c0 7f3d b818 f2bd
000000e0: 5431 dcbd 98d9 fbbd 70cd a0bd faf1 88bd
000000f0: c0d6 08bc 4092 2c3d 9190 3b3b e8fb 46bd
00000100: 1c36 3d3d 80b1 93bc 549a a2bd 68a8 d93d
00000110: 7a5f 98bd f052 f7bc 3462 82bd 7ca7 c4bd
00000120: f4fc bdbd 5cce c23d 68ca 023d 18a9 a1bc
00000130: 78a5 92bc a8b6 cbbc 46ef afbd 6e11 f23d
00000140: b447 df3d 6601 df3d 6e04 973d f8e2 87bc
00000150: 6c3c b03d 8c52 733d 84e2 d5bd b2c9 ec3d
00000160: 50a4 14bc 2ef9 b53d c4e1 a53d b085 7d3d
00000170: 80c2 b0bc 02e2 8d3d 4ced 973d 5046 693d
00000180: f88e e0bc c85e d1bd e0ef 9bbc 9ed2 ddbd
00000190: 8eae c83d 4a2d d03d d48f 38bd d8ce 953d
000001a0: f809 a13d ec61 43bd c683 cd3d b44a 153d
000001b0: 4813 76bd 1808 113d fc28 05bd 92e4 bd3d
000001c0: 6a8e cc3d b635 84bd 5ca6 c8bd f6ab 97bd
000001d0: 82e6 a1bd 0080 183d c402 483d 4e65 803d
000001e0: 6a36 86bd 3062 73bd 56ac bcbd d4cb f83d
000001f0: 94c0 c6bd 301d 48bd 20a8 483d 22f6 d7bd
00000200: 92c5 96bd ec33 7e3d 5071 cdbc 346f 1c3d
00000210: 6c6d bebd a80a 1cbd 68dd 22bd 3ae5 81bd
00000220: 10f0 bf3d f8e0 9a3d decd cabd ac4b 9f3d
00000230: 346c 253d 766b 8ebd 5090 e1bd 58a7 72bd
00000240: c034 e6bb 2849 6e3d e0ad fdbc 306b 003c
00000250: e668 f63d 5053 a5bd 4032 6c3d 6ed4 f2bd
00000260: 74a4 f23d 1057 ce3c e2ad cdbd de53 c9bd
00000270: 6efb 913d a003 d43d 50ea b6bd 0028 603c
00000280: 08b5 a63d 709f 71bd 8ccd cc3d 3875 643d
00000290: 70ec 643d daaa 95bd 4675 85bd 0813 473d
000002a0: fc73 59bd f01b 86bd e46a 8c3d 1031 a93d
000002b0: 6c52 ec3d 40ad 10bc caa9 923d 1e47 d8bd
000002c0: e8ae c53d 547f 7abd 70e1 f9bd 98e0 b2bc
000002d0: 4c0a 41bd 96c4 943d 8089 2bbd ba21 d4bd
000002e0: fa00 c3bd 88df ec3c c022 b4bb 3c04 803d
000002f0: b2ae 8dbd 0812 fcbd 28fd b73d d654 ff3d
00000300: 4038 be3b 6013 ff3d 8065 ee3c 774d 7b3b
00000310: 54da 603d 76cc 073b 3e56 96bd 30f5 003d
00000320: 54b6 cc3d eef0 e9bd 8499 763d ccdf f43d
00000330: ec6e e93d 7813 ef3c 0e81 d93d 5415 f8bd
00000340: a838 fabd 1027 41bd 4039 fcbc 80c3 78bd
00000350: 883c ae3c 381f 673d c6c9 ebbd c87a 06bd
00000360: 3428 07bd d8a2 c03c 725e 803d 5c26 a1bd
00000370: 100a df3c ea63 f53d a2bf aebd 68dd e43c
00000380: ac54 80bd 9081 85bd c8bf b5bc 882a b5bd
00000390: 403e 583c ecad 923d a4e7 d53d 9ce0 ff3d
000003a0: 6c91 d0bd 3616 fabd c613 a63d 1061 8e3c
000003b0: ec8f 1fbd 5688 cabd 962e 9cbd a8ba 1b3b
000003c0: 7e97 8cbd c636 d7bd e45f 813d f280 c4bd
000003d0: 3037 7d3d 3493 d23d f464 ba3d f0e5 653c
000003e0: 060d 943d ae63 faba 4a8b 81bd aecb 8abd
000003f0: ee7d eebd 4a25 e2bd 5c2e bc3d 5cca db3d
0.108611375 0.089772105 0.024923444 -0.012733921 0.04347135 0.11395958 0.09565909 0.06167732
0.103804424 -0.02864474 -0.118501455 -0.037914574 0.0860019 0.110725805 0.069110066 0.11648676
0.12033227 -0.022195429 -0.11497481 -0.031002194 0.0037424648 -0.023441523 0.012797818 -0.087460175
0.086442485 -0.03066127 -0.12131886 0.09644331 0.081971765 0.030490518 0.033147454 -0.030339837
-0.07267851 0.011698499 -0.05903986 -0.0221681 -0.1153827 0.09958343 -0.030840397 0.019061074
0.082395196 -0.057995945 0.1180435 0.023418963 0.11428349 0.10808568 0.051140994 0.08024196
-0.06252669 -0.058398813 -0.12003513 0.04120493 -0.011567578 0.06319843 0.062439516 -0.11821121
-0.10751596 -0.12297362 -0.07851684 -0.06686778 -0.008351982 0.042131662 0.0028620104 -0.04858008
0.04619418 -0.018028975 -0.07939592 0.10627824 -0.07440086 -0.030190915 -0.06366387 -0.096022576
-0.092767626 0.09512016 0.03193131 -0.01973395 -0.017901167 -0.02486737 -0.0859056 0.11819731
0.10902348 0.108889386 0.07373892 -0.01658772 0.086052746 0.059404895 -0.10443595 0.11561908
-0.009072378 0.08885418 0.08099702 0.061895072 -0.02157712 0.06927873 0.07418308 0.05695182
-0.027411923 -0.10223156 -0.01903528 -0.10831188 0.09798919 0.10164888 -0.04505904 0.07314843
0.078632295 -0.047700807 0.100348994 0.036448196 -0.06007698 0.03540811 -0.03250979 0.09272112
0.09988101 -0.06455557 -0.097973555 -0.07405846 -0.07905294 0.037231445 0.048830763 0.06269322
-0.065533474 -0.05941981 -0.09212558 0.12148252 -0.097047 -0.04885596 0.04898846 -0.10544993
-0.07361902 0.062061235 -0.025078446 0.03819199 -0.09298214 -0.0380961 -0.03976193 -0.063425496
0.0937196 0.07562441 -0.09902547 0.07778105 0.040386394 -0.0695409 -0.110138535 -0.059241623
-0.0070253313 0.058175236 -0.0309667 0.0078380555 0.120317265 -0.08072531 0.05766511 -0.11856924
0.11847773 0.025187999 -0.10042931 -0.098304495 0.071280345 0.10352254 -0.0893141 0.013681412
0.08139998 -0.058989942 0.100001425 0.05577585 0.055889547 -0.07307978 -0.06516509 0.048602134
-0.053089127 -0.065482974 0.06856325 0.08261311 0.11539158 -0.0088303685 0.07161291 -0.105604395
0.09652501 -0.061156586 -0.12201202 -0.02183561 -0.04712896 0.07264058 -0.041879177 -0.10357995
-0.09521671 0.028915182 -0.0054973066 0.06250808 -0.06918086 -0.12308127 0.089838326 0.12467353
0.0058050454 0.12454867 0.029101133 0.0038345733 0.054895714 0.0020721233 -0.07340668 0.03148383
0.09995714 -0.11422907 0.060204998 0.11956748 0.1139811 0.029184088 0.10620318 -0.12113443
-0.122178376 -0.047156394 -0.030789018 -0.06073332 0.021269098 0.056426257 -0.115130946 -0.032831937
-0.032997325 0.02351515 0.06268014 -0.078686446 0.027226478 0.11981948 -0.08532645 0.027937606
-0.0626615 -0.06518853 -0.022186175 -0.08846003 0.013198435 0.07162079 0.104445726 0.12494013
-0.10183987 -0.12211268 0.0810924 0.017380267 -0.038955614 -0.09889285 -0.07626073 0.002376238
-0.06864832 -0.10508494 0.06317118 -0.09594907 0.06182021 0.10281983 0.091012865 0.014031872
0.072290465 -0.0019103193 -0.063253954 -0.0677713 -0.11645113 -0.110422686 0.0918853 0.10731956

bias f4 [128]
00000000: 18b7 52bd 6c28 e13d d04b fe3d e471 aabd
00000010: 3c5d 6d3d e0a7 c6bd 78e9 73bd d2c4 a43d
00000020: 6418 943d 80ff 8dbb 70be 8abd b258 0d3b
00000030: c0e7 54bc c61f eebd 164b 963d fc02 c83d
00000040: 88b1 fe3c 8018 d43d da60 8f3d fec7 993d
00000050: e05e d7bd 540d e53d 1c8f 8fbd 4479 19bd
00000060: 24aa 5f3d 364a 95bd 1814 c5bd ca8d 96bd
00000070: 986b 823d 1ec9 fd3d 9422 723d 6059 e43c
00000080: a084 8cbb c88f 293d 1c32 d83d 0c3f 993d
00000090: 0020 00bc fcd0 7a3d f06c 0fbc 38cf 95bd
000000a0: 567c d43d 226a bcbd a256 c63d 407c 6cbd
000000b0: 10e6 14bc 10b6 463c 184b 213d f4aa 8e3d
000000c0: ac88 3f3d 3091 983d 44c8 853d 3257 82bd
000000d0: e08f da3c b084 713d e49f f4bd 60ce 8c3c
000000e0: b08b f33c 9e58 c6bd 9496 c3bd 9439 0dbd
000000f0: 5ea3 943d 647d c1bd 1804 95bd 9ccb 753d
00000100: 0406 453d 9827 de3c 6a7b c6bd dcc0 2c3d
00000110: bc7a 19bd 585a dabd 6670 b73d a8c4 8abd
00000120: 6048 233d 800c 13bd 10d2 4e3c 5a97 a2bd
00000130: e852 e33d 4832 b13c 0050 db3d a08a 54bd
00000140: e020 b0bd 0280 d13d 6aa1 ce3d 6cce 563d
00000150: f810 133d 7873 92bd aa67 f93d 30db 953c
00000160: 78df 9c3c f4da 09bb 4064 ad3c a04d cbbb
00000170: 588f 053b 349b 703d 9839 eebd ee64 f8bd
00000180: 8452 663d fc32 f73d b86d 4c3d 48b5 5a3d
00000190: f6c0 8b3a 56ff f03d f242 a5bd 8ee4 a93d
000001a0: a2a4 cbbd c286 a33d bc12 94bd d090 c23c
000001b0: 6eaa a33d 827a ea3d 50de 313d 3684 ec3d
000001c0: 80ba f4bb 68e7 033d c4c9 2d3d ca61 d5bd
000001d0: e471 b9bd 8845 5d3d c0a6 613d 604b babd
000001e0: 185b 91bd d207 d63d 88d1 e5bc 0edf eabd
000001f0: 8612 88bd 6ee5 833d f83f e73c 6e43 f83d
-0.051444143 0.10994038 0.12416804 -0.08322504 0.057950243 -0.09699988 -0.059548825 0.08045353
0.07231215 -0.0043334365 -0.06774604 0.002156776 -0.012994707 -0.11627154 0.0733854 0.09766194
0.031090513 0.103562355 0.07000895 0.075088486 -0.10516143 0.11184183 -0.07009718 -0.037469164
0.054605618 -0.07289545 -0.09622973 -0.07351263 0.06368178 0.12391876 0.059115008 0.027874649
-0.004288271 0.041396886 0.105564326 0.07482728 -0.007820129 0.06123446 -0.008754 -0.073149145
0.10375278 -0.09199931 0.09684493 -0.05773568 -0.009088054 0.012128368 0.039378256 0.069662005
0.0467612 0.07449567 0.06532338 -0.063642874 0.026679933 0.05896443 -0.11944559 0.017188251
0.029729694 -0.09684871 -0.09550205 -0.03447874 0.07257722 -0.094477445 -0.072761714 0.06000863
0.04810144 0.02711849 -0.09691508 0.042176113 -0.037470564 -0.10661763 0.08956985 -0.067757905
0.039863944 -0.035900593 0.012623325 -0.07939024 0.110997975 0.021630421 0.10708618 -0.051890016
-0.086000204 0.10229494 0.10089381 0.052442953 0.035904855 -0.0715093 0.121779755 0.018292993
0.019149527 -0.0021035047 0.021165967 -0.006204322 0.002037963 0.058741763 -0.11632079 -0.12128626
0.056231037 0.120702714 0.049909323 0.05339554 0.0010662365 0.117674515 -0.080694094 0.082955465
-0.099435106 0.079846874 -0.07230136 0.023750693 0.07991491 0.11449148 0.043424904 0.11548655
-0.0074685216 0.032203108 0.042428747 -0.104190424 -0.09054926 0.05402139 0.055090666 -0.09096408
-0.07097453 0.1045071 -0.028054014 -0.114683256 -0.06644158 0.064402446 0.028228745 0.12122236

weight f4 [512, 128]
00000000: 309d ae3b 12fa 70bd 9452 a73c da46 7d3d
00000010: 306c 90bc d302 903d 41f6 78ba da53 f5bc
00000020: 0a4f 6cbd 5d17 91bd 1a7c 91bd d659 d8bc
00000030: 7218 4a3d bda1 a63d 9c78 9bbd bba8 9b3d
00000040: 68ae 66bc b000 11bd 3fa4 a03d 62bc a1bd
00000050: f035 653c a0d3 d33c ae03 353d 547c b2bd
00000060: c39e ad3d aea6 073d b355 873d a0e6 f13c
00000070: 767e 433d 283c a6bd f513 1dbd 10f8 4c3c
00000080: 81b6 e03a 38f5 3abc d6c8 7d3b 093c 7fbd
00000090: 44ef 993c bcb9 993c 1dda 9fbd 7cf0 d13c
000000a0: 04fc a5bc b8b6 14bc bbbc 873d 5d03 87bd
000000b0: 687d 9ebd d3f9 34bd d2f3 ea3a b866 87bd
000000c0: d2fb 7c3b b8fc c83c 010c 973d d0c6 06bd
000000d0: 5d57 1dbd 6e02 57bd f268 e2bc b089 f33c
000000e0: 4054 aabc bbb7 0ebd 6b05 a23d 988b 5ebc
000000f0: 1d7a 833d f192 16bd 9591 38bd 6904 acbd
00000100: b2f9 333d f0f6 833b 658d a0bd 063c 463d
00000110: c53e a63d c25c a1bd a775 b13d 3c87 b6bc
00000120: 9fe9 983d 1e68 e4bc e0d3 073d 303c 773c
00000130: bb5f 953d 30a9 c2bc 2f3a a23d 5858 5d3c
00000140: 0015 753c 5a39 0f3d aed3 5a3d 92cf 603d
00000150: 61eb 9e3d 312d 563b a581 9e3d 9517 893d
00000160: 6a50 06bd 436a b43d b72e 93bd d620 043d
00000170: 3f88 91bd 681b 71bc b7b0 b3bd f2a6 093d
00000180: 1449 15bd 95a6 b33d 4ab7 4d3d 1a89 5b3d
00000190: 2a00 d5bc 90b4 c9bc 73df 5ebd 39ea 9cbd
000001a0: 502f 373c cd36 883d 69dc 56bd caf7 7a3d
000001b0: 3a9c 533d e049 5cbd 9e8c a4bd c6ff 743d
000001c0: eb05 ab3d 903d e3bb 469f 6f3d 933d 863d
000001d0: f1a6 a9bd 6fdd 0fbd a053 38bc d0d1 47bc
000001e0: 5047 abbc f627 473d 9034 7fbc fcaa c9bc
000001f0: 8778 b1bd 0dd4 82bd 3e99 84bd bfb0 913d
00000200: 9040 ad3b 20f0 8bbc 081c 403c b6e3 e8bc
00000210: dc2d 3abd 703d 1dbc b805 56bc 72c2 663d
00000220: 4dfc 55bd 988c 76bd f070 9c3c 0aed 56bd
00000230: cba0 b43d d19a ab3d 1dfc 813d 3e2a 2b3d
00000240: 2e9e 463d 15c8 b43d ff7f a7bb 1d25 923d
00000250: 5a4a 703d 6844 35bc b010 92bc 31da 8d3d
00000260: 0f09 ccbb c801 47bd cda9 8d3d 686d f43c
00000270: 6804 003d f94c 983d fc81 96bc 3dd3 81bb
00000280: e571 66bd 9211 b0bd b8ab 063d a3b2 aa3d
00000290: 687e 1ebc 556e 28bd 1ed1 2ebd 4685 413d
000002a0: 1e7a e1bc 11c3 b23d 828b 333d 5e10 263d
000002b0: a800 123d 9899 da3c b02f f43c 451c 18bd
000002c0: 36e5 9739 f603 29bd e013 81bc 4a21 4d3d
000002d0: e4ef 8dbd e446 78bd 47ac 64bd 08a0 14bc
000002e0: 32c6 6f3d 9469 f43c 9382 d43b 188a ae3c
000002f0: dc32 f13c e83f bd3c 3e8d 3ebd 96c5 64bd
00000300: 9180 0cbd 0403 a2bc bfb4 02bd 9253 533d
00000310: f098 9ebd 6e27 88bd 1e39 323d 4a97 733d
00000320: a69d 0d3d 66fe 543d 71c6 963d 1326 b43d
00000330: 82f0 783d a937 a8bd 30a1 e93c f421 bcbc
00000340: 7aaf 353d ae59 18bd e88b 9fbc bb3c 863d
00000350: 9134 01bd a0aa 303c ab45 6fbb df10 46bd
00000360: 1841 5f3c 1eba 263d 70b2 483c b424 4abd
00000370: cc53 cd3c 4058 f73b 3b72 8c3d b37c 803d
00000380: d875 86bc 07cc b1bd 63c5 873d c0ed 29bc
00000390: a411 acbc e467 c4bc 74e7 283b 7847 5dbc
000003a0: d326 b03d 2b62 903d fb7f 8c3d 01b1 ae3d
000003b0: ee49 0ebd 0af7 a2bd a0cf 2ebc 585d 2b3c
000003c0: b05a ebbb a18c a53d 70e4 b13b e0d1 d83c
000003d0: 1b7b b2bd 79c1 903d fbe3 423b 5145 a9bd
000003e0: 550b 4dbd a74e 16bd ee1a 43bd 29ef aa3d
000003f0: 48f0 eb3c 08f7 2c3c a892 0b3d 6272 5c3d
0.005328797 -0.058832236 0.020425119 0.061835147 -0.017629713 0.07031789 -0.0009497144 -0.02994721
-0.057692565 -0.07084534 -0.071037486 -0.026410025 0.04933972 0.08136318 -0.07591364 0.07600542
-0.014079668 -0.035401046 0.078438275 -0.07897259 0.0139899105 0.025857747 0.044192962 -0.0871512
0.08477547 0.033117943 0.06608143 0.029528916 0.047728024 -0.08116943 -0.03834911 0.012510315
0.0017144234 -0.011411004 0.0038724444 -0.062313113 0.018790849 0.018765323 -0.07805274 0.025627367
-0.020261772 -0.009076767 0.06627794 -0.06592438 -0.07738763 -0.044183563 0.0017925447 -0.06611389
0.0038602245 0.024534568 0.073753364 -0.032904446 -0.038413394 -0.05249255 -0.027637932 0.02972874
-0.020792127 -0.034843188 0.0791119 -0.013583086 0.06419776 -0.036761228 -0.045060713 -0.08399279
0.0439393 0.00402724 -0.07839469 0.048397087 0.08117441 -0.0787902 0.086650185 -0.022281282
0.07466435 -0.027881678 0.033161044 0.015090033 0.0729365 -0.023762316 0.07921254 0.013509832
0.01495862 0.034966804 0.05342453 0.054885454 0.07759739 0.0032680745 0.077395715 0.06693951
-0.032791533 0.0880933 -0.071866445 0.032257877 -0.07106065 -0.014716007 -0.0877394 0.033606477
-0.036446646 0.087720074 0.050223626 0.053597547 -0.026001055 -0.024622232 -0.054412317 -0.07661862
0.011180714 0.066510774 -0.052456293 0.061271466 0.05166266 -0.05378139 -0.08034633 0.059814237
0.08350738 -0.006934829 0.058501504 0.06554713 -0.08283795 -0.035123285 -0.0112504065 -0.012196019
-0.020908028 0.048622094 -0.015576497 -0.024617665 -0.08665567 -0.06388102 -0.06474541 0.0711379
0.0052872375 -0.017082274 0.011725433 -0.028428894 -0.04545389 -0.009597167 -0.013062887 0.05633778
-0.052242566 -0.060192674 0.019096822 -0.05247215 0.08819731 0.08379138 0.06346915 0.041788332
0.048490696 0.08827225 -0.005111694 0.07135985 0.058664657 -0.011063673 -0.017830223 0.06926382
-0.006226666 -0.048585683 0.069171526 0.029837325 0.031254202 0.07436556 -0.018372528 -0.003961949
-0.056260962 -0.08597101 0.032878608 0.083348535 -0.009673692 -0.041120846 -0.0426799 0.04724624
-0.02752405 0.08728612 0.043834217 0.040542953 0.035645157 0.026684567 0.029807895 -0.037136335
0.0002897174 -0.041263543 -0.015756547 0.050080575 -0.06930521 -0.06061448 -0.05582836 -0.009071358
0.058538623 0.0298355 0.006485292 0.021306083 0.029443197 0.023101762 -0.046521418 -0.055852495
-0.034302298 -0.019776829 -0.031910654 0.05159337 -0.07744014 -0.066481456 0.043511502 0.059470452
0.034574173 0.052000426 0.073620684 0.087963246 0.06077624 -0.08213741 0.028519243 -0.022965409
0.0443568 -0.0371949 -0.019475892 0.06554552 -0.03154427 0.010782868 -0.0036510031 -0.048355933
0.013626359 0.04070484 0.012249574 -0.04935141 0.025064372 0.007548362 0.06857725 0.062737845
-0.016413614 -0.08681493 0.066294454 -0.010371625 -0.021004505 -0.02397532 0.0025772722 -0.013505809
0.08601155 0.07049974 0.06860348 0.085298546 -0.034738474 -0.07957275 -0.010669619 0.010459267
-0.0071824417 0.080834635 0.005428843 0.026467264 -0.08714887 0.07068152 0.0029737938 -0.08265174
-0.050059635 -0.036696102 -0.047633104 0.083463974 0.028801098 0.010556944 0.03407541 0.05382002

bias f4 [512]
00000000: 083d da3c d4ac a8bc 3412 c8bc d0f9 253c
00000010: cc5d 5ebd 2e08 183d 3127 2ab9 e869 3ebc
00000020: a098 9dbc 3963 95bd fd01 893d d10c 8fbd
00000030: ca32 2d3d 36a6 4e3d ce6b 5b3d 7ae9 8fbd
00000040: 40ab 7bbc 13aa 913d 9c4f 41bd 3201 fcbc
00000050: 0cd7 40bd 205f 66bd 603c 143c f3e3 95bd
00000060: 0407 ddbc d208 8abd 1d1f a53d 0ecb a2bd
00000070: b88a 38bd 4a6d dfbc 2a24 393d 3cdc adbc
00000080: 01a1 afbd a0d8 94bd a205 433d 1692 673d
00000090: 681e a5bc 20bf d03c 0ba7 893d e76c 8f3d
000000a0: ba83 613d 2444 893c 2e1c a9bd 2667 7dbd
000000b0: 5b9a b33d 7857 55bd 34cf a5bc d2aa 153d
000000c0: 5165 93bd d16e 5fbd b183 813d c01b 29bd
000000d0: 687d e63c 9be6 a93d de79 173d 65e0 a23d
000000e0: 6c23 c2bc d2c8 9cbd b916 3abd d275 a3bd
000000f0: 6853 a73c e460 82bc 180f a93c 043b d7bc
00000100: b896 a5bd 610a 933d e088 57bc 143c a5bd
00000110: beac 01bd 2a61 67bd 989f 7f3c 63b4 913d
00000120: e859 e93c 27cf a33d d78d 61bd e033 d23b
00000130: db25 69bd f0c7 43bd 9bce ad3d 127e 613d
00000140: d038 ec3c c6cf 0ebd 33e0 883d 4275 4c3d
00000150: eac3 8bbd 86c9 753d c464 113d 125a 333a
00000160: 9a83 abbd a0a9 e3ba 2791 993d 602e 34bc
00000170: fcff ba3c f7b1 873d 36f4 4b3d f7fc 6cbd
00000180: 1beb ebb8 b464 453b 1c79 b3bd 1796 833d
00000190: ece0 a9bc 9044 02bc 4499 863c e6fe 6cbd
000001a0: 3440 b7bc 9a19 7d3d d0e2 0f3d 027f 4e3d
000001b0: d24c 2b3d 1533 923d 9188 803d fc5f cb3c
000001c0: ed11 71bd 90a3 37bd 3296 183d 02e7 623d
000001d0: 8952 b33d 051a a13d da7e 6dbd e006 b3bb
000001e0: 9097 b83c ae54 173d 42c1 373d 28a8 be3c
000001f0: ec51 c83c 1830 503c 683b 703c 6a39 7dbd
00000200: 0814 353c 607e ebbc 9e15 9ebd ae66 89bd
00000210: 9c7c dabc 745e bc3c 8815 93bc 4314 ac3d
00000220: aebf 073d 3acf 4d3a 4e1e 96bd 4605 313d
00000230: eed8 783d d0e3 90bd cc65 6cbd 1d74 5abd
00000240: 5db6 8d3d 54d7 b13c 8e31 023d f0d1 f6bb
00000250: a520 363b 601e d6bb 24b6 d0bc a443 9c3c
00000260: eb07 abbd c03a 053c 50ea 623c a048 88bc
00000270: 9faf 1dbd ad2c adbd 8087 a03c 78e8 abbd
00000280: e26b b2bd 600d abbc bc8d 963c cba8 ad3d
00000290: e5c6 873d 61a3 a23d d0f5 a7bc 1f3f 37bd
000002a0: a21b a7bd 7538 8abd a0df cebb 775d 89bd
000002b0: 92cd abbd 74cd 38bb a902 9bbd a019 df3c
000002c0: 445c 023d 08ff 80bc 602a aebc 3bf5 1abd
000002d0: dc4e b3bd dc4d 24bd a88a 29bd ebba 833d
000002e0: 7103 62bd fa22 573d 0629 7b3d e09f 513c
000002f0: 7dd2 9e3d 14a4 9bbc 4313 56bd 2758 8fbd
00000300: 7445 e7bc 79b0 a7bd 9e16 663d 6a9a 583d
00000310: b506 8bbd 8e5e e7bc 565b 203d a827 bebc
00000320: 25c9 1dbd a4c3 7abb c814 bf3c f8d8 493c
00000330: ae75 063d 4a5d 173b 3c62 10bb 0fe7 15bd
00000340: d0e1 54bc 5272 6b3d 5b22 8ebd c8ac 8fbc
00000350: ba42 183b 4238 41bb 3568 943d f1f4 23bd
00000360: 901a 1bbc 546a b13c 1ce7 fd3c 3a03 513d
00000370: 15cc 85bd 70ef 8bbd b031 c3bc df5f 1bbd
00000380: af19 90bd d25f eabc 9447 973c c025 c9bc
00000390: 52e6 26bd 3a86 5dbd 68e5 a6bc 3490 be3c
000003a0: 4129 913d 7060 c43b 0b41 8bbd 5cee 013d
000003b0: fc96 d83c 9523 8dbd 228b 24bd 9ca0 e13c
000003c0: c8c2 07bc e1c1 873d 1294 7a3d 6972 a3b9
000003d0: 5abf b0bd 310f ab3d 4389 943a 729f abbd
000003e0: a8a8 1cbc c971 aa3d 45e5 8b3d b833 b83c
000003f0: aaa0 763d dbfa 88bd b0a1 8cbd aaf2 423d
0.02664043 -0.020590223 -0.024422742 0.010130361 -0.05428867 0.037117176 -0.00016227063 -0.01162193
-0.019237816 -0.07294316 0.06689832 -0.069848664 0.042284764 0.05045148 0.053569607 -0.07026954
-0.015360653 0.07112517 -0.047195062 -0.030762289 -0.047080085 -0.056243062 0.009047598 -0.073188685
-0.026980884 -0.067399636 0.08062575 -0.07948886 -0.045054168 -0.027273793 0.045200504 -0.02122318
-0.08575631 -0.072678804 0.047612794 0.056535803 -0.0201561 0.02548176 0.06721314 0.07003193
0.055057265 0.016756125 -0.08257328 -0.06186595 0.08769675 -0.05208537 -0.020240404 0.03653986
-0.07197059 -0.054549042 0.06323946 -0.04128623 0.02813597 0.08295938 0.036981456 0.07952956
-0.023698531 -0.07655491 -0.045431826 -0.07981457 0.020425513 -0.015915342 0.02063708 -0.026273258
-0.08085388 0.07179714 -0.013155192 -0.080680996 -0.03165888 -0.056489147 0.015602015 0.07114484
0.028485253 0.079984955 -0.05506691 0.0064148754 -0.056920867 -0.047798097 0.084866725 0.05505187
0.028835684 -0.034866117 0.066833876 0.049916513 -0.06824477 0.06000664 0.03549649 0.00068417296
-0.083747104 -0.0017369278 0.07498389 -0.010997385 0.022827141 0.06625741 0.049793445 -0.057858434
-0.00011249465 0.0030119838 -0.08763334 0.06425112 -0.020737134 -0.007950917 0.016430505 -0.057860278
-0.022369482 0.061791994 0.035128415 0.050414093 0.04182131 0.071386494 0.06276048 0.024826042
-0.058854986 -0.04483372 0.037252612 0.055396087 0.08755977 0.07866291 -0.057982303 -0.005463466
0.022533208 0.03694599 0.04486204 0.023273543 0.024453126 0.012706779 0.014662601 -0.061822332
0.011052139 -0.028746784 -0.07718967 -0.06709038 -0.026670747 0.022994258 -0.017954603 0.08402302
0.033141784 0.00078510086 -0.07329999 0.04321792 0.060753755 -0.07074702 -0.05771427 -0.05333339
0.06919549 0.021709122 0.03178554 -0.0075323507 0.0027790454 -0.0065343827 -0.025477476 0.019075222
-0.083511196 0.008131683 0.01384981 -0.016636193 -0.038497563 -0.08455787 0.019595861 -0.08393949
-0.08711983 -0.020880401 0.018378131 0.0847946 0.06629733 0.07941318 -0.020502955 -0.04473793
-0.081595674 -0.067490496 -0.0063132793 -0.0670728 -0.08388819 -0.0028198631 -0.07568867 0.027233899
0.031826273 -0.015746608 -0.02126044 -0.037831526 -0.087552756 -0.040113315 -0.041392 0.06432136
-0.055179063 0.05252359 0.06131842 0.012794465 0.07754991 -0.018999137 -0.052264463 -0.069992356
-0.02823136 -0.08187956 0.056173913 0.052881636 -0.06788389 -0.02824333 0.039149605 -0.023212269
-0.038521904 -0.0038263584 0.023325339 0.012319796 0.03282707 0.0023096376 -0.0022031209 -0.036597308
-0.012993291 0.05748207 -0.069401465 -0.017538443 0.0023233132 -0.0029482995 0.072464384 -0.040028516
-0.009466782 0.021657147 0.03099399 0.051028468 -0.06533066 -0.068327785 -0.023827404 -0.037933227
-0.07036149 -0.028610144 0.018466748 -0.024554133 -0.040746994 -0.054083087 -0.020373061 0.02326212
0.07087947 0.0059929416 -0.06799515 0.031721458 0.026439182 -0.06891552 -0.04017175 0.027542405
-0.008286186 0.06628776 0.061176367 -0.00031175025 -0.086302474 0.08352507 0.0011332411 -0.08380021
-0.009561695 0.08322484 0.06830839 0.022485599 0.060211815 -0.06688472 -0.06866777 0.047594704

weight f4 [128, 512]
00000000: def5 c23c a33c 173d 84fc e5bc 3c98 7b3c
00000010: ecea 153c d3e9 0e3d fbc6 223d 94ce 22bc
00000020: caee 553b 3691 de3c 26b9 19bd 2594 243d
00000030: 18b8 02bc 5e36 ea3b f6f3 c13c 7362 81bc
00000040: fb47 093d 1824 613c 4abf 32bd 543d f6bc
00000050: 971c 183d f99b 2d3d 38eb 8a3b ae5d eebc
00000060: da22 bd3c 242c 8a3c ef6a 32bd 7a54 c33c
00000070: 350e 33bd fe33 9d3c 53dd 28bd c6d7 24bd
00000080: d467 31bc 6cc5 03bd 1e61 b63c e592 033d
00000090: b811 753c d689 1c3b 75bc e1bc 70fa b5bc
000000a0: 3883 443c b159 303d 5a8e c63c d26b da3c
000000b0: 4ac7 903c e012 243b 7d39 323d 6c16 26bc
000000c0: bf78 1f3d 165b 1bbd 0f19 163d 2fcb 4f3b
000000d0: 0e7b 5fbc b833 9ebb ae0c e93c f614 d93c
000000e0: f812 c0bc 1c4c 7b3c e7fc 303d 1e8c 833b
000000f0: 31cb c8bc c855 29bd a9a6 09bd 66df e33c
00000100: 6485 15bd a6e5 a13c 0085 04bd 5bfb c1bc
00000110: 6017 d539 fb2b 1c3d 0b3b 9cbc 8cd5 80bc
00000120: 27cc d3bc 4f54 263d 60fc 063c de39 11bd
00000130: 46ab e43c 3e37 d7bc 417a 18bd 11ab 213d
00000140: 0515 e0bc 41da 203d a064 193c 50fa cdbb
00000150: faa7 b63c b804 c2bb bcd7 12bd f336 c3bc
00000160: 9b59 b53b 9aab 1fbd f885 103c daf5 cabc
00000170: 5f3d cdbc 3cac 773b 9cd9 2e3c 2bdb 19bd
00000180: 4ffa 2ebd ac6c 23bd f598 e9bc 7e25 983c
00000190: 797f 1a3d e9c2 5cbb e9ac a4bc 0a3e a93c
000001a0: 4272 f03c 4040 363c 3e76 63bc ca23 923c
000001b0: a8f1 a3bb 0bc6 143d e9da 11bd f812 753c
000001c0: 74b6 0cbc 78db d73b 72a5 a73c df36 073d
000001d0: 1233 b8bc 347f 6a3c 1a0c 15bd d05a 8e3c
000001e0: d533 1a3d ec17 f4bc f021 2cbd c0f3 9fbb
000001f0: f946 89bc 0097 24bd 8bb4 2cbd d067 f43b
00000200: dd1a d4bc a053 513c 325d f73c 9465 713c
00000210: 6024 3cbc 3303 0cbd a447 2f3c 1ce2 0bbd
00000220: 4866 89bb 1084 a4bc 7482 0b3c c298 dc3c
00000230: 5934 f9ba 7f5f 24ba 853d 00bd 38a2 efbc
00000240: 0944 283d 2845 f1bb 6d19 00bd f421 edbc
00000250: 204e 14bd 9229 b23c e1a6 24bd fd00 133d
00000260: 72c9 06bd 45b1 063d 965e 20bd 705b 493c
00000270: 9483 2a3c 88f1 483c 111d fdbc 1711 063d
00000280: ac2f 7fbc e8a9 c43b fa39 d13c e4ad 83bc
00000290: 83d9 163d b75f 00bd aee0 60bc 4dee e2bc
000002a0: 9431 8abc a2c3 92bc 62db c93c ac77 6dbc
000002b0: c37d 14bd 9b38 d6bc 0ace 973c 80fc d53b
000002c0: 30a1 c8bc 7669 05bd f5fb 34bd d68c b9bc
000002d0: d02d 30bc fe36 c1bc 166a e43c ec1a 1b3c
000002e0: 4cd9 db3a 5595 0fbd f91e 2bbd 4d88 0a3d
000002f0: 4a55 0abd 3dec a2bc 0252 e2bc 00f4 3d3c
00000300: 9cbf 5d3c b0e3 923b 5415 63bc 787d c5bb
00000310: a4a9 01bd 9938 19b9 a682 31bd 0cd6 313c
00000320: 32b5 d83c 8ec5 df3c 38cc 873c 6b68 053d
00000330: 6ce0 01bc 0444 30bc 586f 4b3b b5b7 c5bc
00000340: b8ac 8b3b 283a f63b 2637 853c 8aba ea3c
00000350: 2ab0 c13c 79a4 213d 487f f63b c423 3cbc
00000360: 3453 8f3c beae d53c d839 0f3c 1cce 1abc
00000370: d1be 093d 383d 3a3c c61b e93c 3ebe 13bd
00000380: 9d67 24bd 6681 60bc f811 1a3c 50c9 263c
00000390: bfc4 a5bc 9c84 9dbc f0f0 713c bdbc 15bd
000003a0: 2fed 153d 3962 d4bc 1a29 a63c 9be5 9b3a
000003b0: 5eb2 22bd 9210 f33c 984a 24bc fdc2 1cbd
000003c0: 28e9 8abb 1a77 d23c 28de febb 2bbe 93bb
000003d0: 6654 a13c 58b6 623c 0a77 913c b273 a53c
000003e0: 2f35 9bba 503e 7c3c a749 14bd 2179 dcbc
000003f0: b03f 02bc d0c4 edbc ad59 34bd 7525 243d
0.02379888 0.036923062 -0.02807451 0.01535612 0.009150248 0.03489096 0.039740544 -0.009936947
0.003264355 0.027168851 -0.037530087 0.040180344 -0.007978462 0.0071475944 0.0236759 -0.015794015
0.03351591 0.013741516 -0.04363946 -0.03005854 0.03713664 0.042385075 0.004239466 -0.029097404
0.023087908 0.016866751 -0.04355901 0.023843993 -0.04371472 0.01918983 -0.041226696 -0.04024484
-0.010827977 -0.032170698 0.022263106 0.03212251 0.014957838 0.0023885868 -0.027555684 -0.022214144
0.011994176 0.043054286 0.0242378 0.02666274 0.017673153 0.0025035664 0.043511856 -0.010137182
0.03893351 -0.037928663 0.03664499 0.00317068 -0.013640178 -0.0048279427 0.028448429 0.026499253
-0.023446545 0.01533797 0.043209936 0.004014506 -0.024510952 -0.041341573 -0.033606205 0.027816486
-0.036504164 0.019762825 -0.0323534 -0.023679426 0.00040643942 0.03812788 -0.019071123 -0.015726827
-0.025854183 0.040607747 0.008238882 -0.035455577 0.0279137 -0.026271459 -0.037225965 0.039469782
-0.027353773 0.039270643 0.00936237 -0.006285943 0.022296894 -0.0059209727 -0.03585027 -0.023829913
0.0055343634 -0.03898201 0.008821003 -0.024775434 -0.025053678 0.0037791869 0.010671999 -0.03756253
-0.04271918 -0.03989856 -0.028515318 0.018572565 0.037719224 -0.0033685511 -0.020101981 0.020659465
0.029351357 0.011123717 -0.013883172 0.017839331 -0.005003173 0.03632168 -0.03560916 0.014958136
-0.008588422 0.006587442 0.020464633 0.033011314 -0.02248529 0.014312554 -0.036388494 0.017377287
0.037647087 -0.029796563 -0.042024553 -0.004881352 -0.016757475 -0.040183067 -0.042164367 0.0074586645
-0.025891716 0.012776285 0.030195806 0.014733691 -0.011483282 -0.03418274 0.010698233 -0.03415118
-0.004193101 -0.020082504 0.008514989 0.02692831 -0.0019012793 -0.00062703335 -0.03130867 -0.029252157
0.04108051 -0.0073629804 -0.031274248 -0.028946854 -0.03620732 0.021748338 -0.04019821 0.035889614
-0.032906957 0.0328839 -0.039152704 0.012289867 0.010407347 0.012264617 -0.030897649 0.032731142
-0.015575331 0.0060016997 0.02554034 -0.016074128 0.03682853 -0.03134128 -0.013725443 -0.027701521
-0.016869344 -0.01791555 0.024640743 -0.014493864 -0.03625275 -0.026150038 0.018530864 0.0065303445
-0.024490923 -0.03257128 -0.044185597 -0.022650164 -0.01075311 -0.023585793 0.027882617 0.009466868
0.0016773134 -0.035054523 -0.041777585 0.033821393 -0.033772744 -0.019888038 -0.027626995 0.011593819
0.013534453 0.004482709 -0.0138600655 -0.00602692 -0.031655923 -0.00014612301 -0.043337487 0.010854255
0.026453588 0.027315881 0.016576871 0.032570284 -0.0079270415 -0.010758404 0.0031041708 -0.02413545
0.004262533 0.007514257 0.016261648 0.028653402 0.023643572 0.039463494 0.0075224973 -0.011483137
0.017495729 0.0260843 0.008741818 -0.009448554 0.033629242 0.011367135 0.028455626 -0.0360701
-0.040137876 -0.013702726 0.009403698 0.010179833 -0.020235417 -0.019228272 0.014766917 -0.036556948
0.03660315 -0.025925742 0.02028327 0.0011893989 -0.039720885 0.029670987 -0.01002755 -0.038271893
-0.00423922 0.025691558 -0.007777948 -0.004508754 0.019693565 0.013837419 0.017756958 0.02019677
-0.0011841411 0.015395716 -0.036203053 -0.026913228 -0.007949755 -0.029024512 -0.044030834 0.040074784

bias f4 [128]
00000000: a0dc 8b3c eea1 1ebd fd79 cabc 5aaf b03c
00000010: 8cd7 3b3c 442b 143c 78c0 f43b 4afe 8ebc
00000020: 7a74 cc3c 8bd6 41ba 3c95 2e3c c46f 833c
00000030: 894b cbbc 6456 09bc 3ed3 c53c 98e9 fdbb
00000040: a2d3 c53c 32ef c13c 22a6 b73c d6b7 b73c
00000050: d262 ed3c 7851 ea3b 8086 8a3b 092d cabc
00000060: 0819 debc 08b1 fb3b 2093 5d3c 1e5b 0ebd
00000070: b079 fabb 1be9 283d 2751 f8bc 92fd 983c
00000080: f024 1bba 966c 00bd c8ce 0a3c 1f16 e9bc
00000090: 4a7d b1bc 15e0 cfbc 48d2 bf3b e024 cdbc
000000a0: c3d3 10bd 2e16 a1bc ebc8 2c3d 17a4 2abd
000000b0: ba88 0ebd 326f a83c 30e8 e3bc 7060 523b
000000c0: 4ed6 9b3c 8176 1dbd b1dd 1e3d 0acf e33c
000000d0: 8de0 15bd c098 943b eb82 283d 68a6 0abd
000000e0: 0157 233d 9d8c dfbc a0f3 1a3c de6f 863c
000000f0: ba08 ea3c 41c1 0f3d 30c2 a33a cffe 243d
00000100: c6ee 2bbd 576f c9bc cf1e 09bd 6c4d 283c
00000110: 2889 1ebd a10e 2c3d 6883 9abb 98e8 cfbb
00000120: b9ef 00bb b0ba ca3b f239 b33c d033 5cbc
00000130: 355e 71bb 0091 c3bb 3c56 11bc c0d6 1b3c
00000140: eb4b febc c5d4 0a3d d1cc 2c3d b475 2cbd
00000150: 857a 143d c6d8 a0bc 41ec b0bc 44b9 01bc
00000160: 5cd9 0bbd cc05 30bd a893 78bc c808 34bc
00000170: 82e6 df3c de44 93bc 67be 273d 1eb3 63bc
00000180: d805 823b 62e7 bb3c 27c9 293d 9c45 2c3c
00000190: 22eb f83c a2fb 1ebd e8d4 07bc 3789 06bd
000001a0: b2f9 c63c 65aa 30bd edba a5bc 9aba ec3c
000001b0: 6460 273c 77af 323d 82c1 0dbd 67e2 29bd
000001c0: a9a9 18bd ce30 823c 54e6 0c3c cc13 dfbc
000001d0: 0ea0 b93c 1007 58bc f673 ab3c f49f 5d3c
000001e0: a3a8 75bb 90f4 21bc e858 1ebd 71e2 303d
000001f0: 68fc 663c 98da 3f3c bc1b 863c a05f 513c
0.017072976 -0.038728647 -0.024716372 0.02156799 0.011464965 0.009043518 0.007469233 -0.017455239
0.024957884 -0.0007394335 0.010655697 0.016044505 -0.024816291 -0.008382414 0.02414858 -0.007748794
0.024148766 0.023673628 0.022418085 0.022426527 0.028977785 0.007150825 0.0042274594 -0.024679678
-0.027111545 0.007681016 0.013523847 -0.034754865 -0.007643901 0.04123793 -0.030312134 0.0186756
-0.0005918285 -0.031353556 0.008472152 -0.028452931 -0.021666188 -0.025375405 0.005853925 -0.025041997
-0.0353582 -0.019663896 0.042183798 -0.041660395 -0.03479836 0.020560835 -0.027820677 0.0032100938
0.019023087 -0.038443092 0.03878564 0.027808685 -0.0365911 0.004534811 0.041140478 -0.033850104
0.039877895 -0.02728873 0.009457499 0.016410764 0.028568614 0.03509641 0.0012493785 0.040282067
-0.04197576 -0.024589224 -0.033476647 0.010272365 -0.03870502 0.04200614 -0.004715372 -0.006344866
-0.0019674136 0.0061868057 0.021878216 -0.013440087 -0.0036829833 -0.005968213 -0.0088706575 0.00951165
-0.03104206 0.03389432 0.042187516 -0.042104438 0.036249656 -0.019634616 -0.02159703 -0.007917706
-0.034142837 -0.04297428 -0.015171923 -0.010988422 0.027331594 -0.017977174 0.040953066 -0.013897685
0.003967982 0.02293748 0.0414516 0.010514643 0.030385558 -0.038814195 -0.008290507 -0.032845702
0.024288986 -0.04313125 -0.020230735 0.028897572 0.010215852 0.043624368 -0.03460837 -0.04147568
-0.037271176 0.015892413 0.008599836 -0.02723112 0.022659328 -0.013185278 0.020929318 0.013526905
-0.0037484549 -0.009884968 -0.038659006 0.0431847 0.014098264 0.011709832 0.016370647 0.012779146

weight f4 [1, 128]
00000000: a65e 073d ea40 8dbd 6a09 69bd e8ca 5bbd
00000010: 2605 213d 22d6 553d 218e 00bd 94b4 85bc
00000020: 0afc e7bc ce77 7a3d c363 87bd b0a9 51bc
00000030: 08a9 74bd 5e2b 553d c8d1 073c 9086 f53c
00000040: 2443 68bd 8e72 aebd b00e 0a3c 72dd 433d
00000050: 4a1a 333d 9f6a 87bd 5ef7 78bd 9750 843b
00000060: 5474 f63c 6295 81bd 08d5 afbc eb72 adbd
00000070: 4779 05bd 2f93 9c3d 860d fcbc 002f cf3c
00000080: 1cc5 8dbc 1c8d 8abc 2194 ad3d e013 423a
00000090: 1e3b 453d 40bc 9fbc 369f 92bd c2a9 16bd
000000a0: b084 f13c dd83 ad3d e0de d03a 18e1 dd3c
000000b0: b787 a8bb b2eb 473d 47f0 ca3a 1f26 1bbd
000000c0: 7a4f 533d 97a3 853d 30e0 0f3d f103 59bd
000000d0: 00a0 8f3c f0c2 95bc 8869 c6bc 5080 3dbc
000000e0: 3072 083d 86f7 453d ae75 8cbd f839 01bd
000000f0: c954 953d 7c84 d53c a524 9e3d d8d6 6a3c
00000100: 334c 3cbd 568c 093d 6790 843d 9712 1fbd
00000110: a863 333c 111a 9bbd d8ab 59bc a964 893d
00000120: 1d70 9b3d 307c 2ebd 9583 8b3d 2883 1bbc
00000130: 871b 71bd f238 323d ae12 18bd 22e9 eabc
00000140: ae21 15bb 6efa 7a3d b2e0 3d3d 7c06 8e3c
00000150: b06f 87bd e643 8ebd a4c3 e5bc cddc 8c3d
00000160: 39dc 8abd c407 cb3c 1379 ae3d 0648 493d
00000170: c5a4 a8bd 9ab5 8abd ea17 99bd 544c b93c
00000180: 00bc 8fbc 5033 5a3c fde8 18bd c4e6 8f3c
00000190: cc09 8e3c 9c4b 98bc 120a 743d e297 723d
000001a0: 15a1 87b8 31ae a9bd b635 fabc c310 bd37
000001b0: 6645 0e3d aba7 9a3d d3cd 9a3d c88e 3dbc
000001c0: 71a6 b13d aa7e 443d 5a9c 503d cbda 9ebd
000001d0: a25e 653d 3204 2c3d 8ec1 4e3d 746d 51bd
000001e0: 8515 a7bd 561f 503d 80c3 0abc 4a68 593d
000001f0: 674d ab3b 3e77 53bd 3c0c 90bc a96b 7cbd
0.03304925 -0.06897147 -0.056893744 -0.053660303 0.03931155 0.052206166 -0.031385545 -0.016321458
-0.028318424 0.06114941 -0.06610825 -0.012796804 -0.059731513 0.05204331 0.008289762 0.029971391
-0.056704655 -0.08517943 0.008426353 0.04781861 0.043726243 -0.06612133 -0.060782783 0.0040379274
0.030084766 -0.06327321 -0.021463886 -0.084691845 -0.032586362 0.076452605 -0.030768167 0.025290966
-0.017305903 -0.01691299 0.08475519 0.00074034743 0.04815208 -0.019498944 -0.07159273 -0.036782987
0.029482216 0.084724165 0.0015935563 0.027084872 -0.0051431316 0.04880876 0.0015482985 -0.037878152
0.051589467 0.06525343 0.03512591 -0.052982274 0.017532349 -0.01828143 -0.024220243 -0.011566237
0.033312023 0.04833176 -0.06858383 -0.031549424 0.07291562 0.02606415 0.07721833 0.014333449
-0.045971107 0.0335811 0.06472855 -0.038836088 0.010949053 -0.07573331 -0.0132856 0.067086525
0.07589743 -0.042598903 0.06812207 -0.009491719 -0.058864143 0.04351134 -0.03712719 -0.02867562
-0.002275567 0.061273985 0.046356864 0.017337076 -0.066130996 -0.06946544 -0.02804739 0.06878052
-0.067802854 0.024783976 0.08519187 0.049140953 -0.08234552 -0.06772919 -0.07475264 0.022619404
-0.0175457 0.013317898 -0.03733157 0.017566092 0.017338656 -0.01859074 0.059579916 0.059226878
-6.4673055e-05 -0.082851775 -0.03054319 2.2538361e-05 0.034734152 0.075515114 0.07558789 -0.011569686
0.08674324 0.04797236 0.05093036 -0.07756575 0.055998452 0.04199619 0.050477557 -0.051129773
-0.081584014 0.050811134 -0.008469462 0.053077973 0.005227733 -0.05162739 -0.017583959 -0.06162611
