memory/Agent2_Actor.pth (torch, 574791 bytes, 10 tensors)

weight f4 [64, 32]
-0.17036226 -0.013321564 0.090719685 -0.16773759 0.17219861 0.064598754 -0.08648999 -0.13275991
-0.07021713 0.110581025 -0.01335907 -0.16149814 -0.06058401 -0.14492288 0.10532631 0.13238974
0.029896826 0.121481225 0.09922026 0.053640842 -0.16181761 -0.08408751 0.12845029 -0.020834684
0.038977325 -0.05374749 0.16869415 -0.03402418 0.13694532 0.16701211 -0.01306276 0.112531796
0.16997792 0.069585696 0.0059814155 -0.04115534 -0.13203564 0.10395433 -0.12147476 0.017307669
-0.15844274 -0.12378822 -0.1537307 -0.01490818 0.09985028 -0.088254295 -0.025069878 -0.022451773
-0.16086078 0.10660894 -0.071220756 -0.121471874 -0.0010414124 0.14123763 -0.16892396 -0.035213888
-0.010351375 0.019941062 -0.07333389 -0.10785443 -0.032880336 0.026488245 -0.12915128 -0.11593146
0.10674052 -0.10787018 -0.17545663 0.020772174 0.037475184 0.017525822 -0.07074536 -0.09446306
-0.17116567 -0.01158841 -0.02606684 0.17566882 -0.14751488 -0.113208205 -0.13554795 0.10824706
0.07603614 -0.13966691 -0.10384442 0.08320202 -0.1697223 0.13812678 -0.055031076 0.13192688
-0.039572462 0.052562743 -0.1438522 -0.028881893 -0.03213419 -0.04453504 0.10634066 -0.14242315
0.07630004 -0.0356607 0.026852176 -0.043515623 0.01580201 -0.15964057 -0.13113266 -0.028456733
-0.10127957 -0.10865371 -0.05858001 0.09207024 0.14104907 -0.08178876 0.09779589 0.121280774
0.09543197 -0.17182021 0.15082057 0.04316002 0.07931368 0.02738972 0.04270044 0.15755962
0.11551036 0.107342854 0.06445962 -0.1679703 0.07014169 0.057837173 -0.055052295 0.07713924
-0.17584841 0.1719249 0.11591734 -0.05670155 -0.05289851 -0.04342927 -0.09861541 -0.12165574
0.009265497 -0.12030466 -0.14483665 -0.14609662 0.0637805 0.16009755 0.09062646 0.13193671
-0.16097717 -0.051946893 0.0198178 -0.0215597 0.024141729 0.088838175 0.048886344 0.080533996
0.054014206 0.074318096 -0.13033524 0.13001023 0.07813729 0.066969365 0.17286904 -0.16821703
0.16285832 0.06789993 0.10955401 0.1026306 0.1298271 -0.09625343 -0.038299114 -0.0021787584
0.13473476 0.12548368 0.056441054 0.13792859 0.012995943 -0.12696075 -0.026084974 0.11790942
-0.06130849 0.14492826 0.059640512 0.0876572 0.08725886 -0.019056827 -0.050999925 -0.13608924
0.08583386 0.08073418 -0.11967848 0.0633844 -0.060073398 -0.0044609755 -0.029556215 0.049040064
0.0009162575 -0.11857632 -0.119849876 -0.08277232 0.039034232 -0.094698995 0.04832366 -0.05811829
-0.0976416 -0.011540994 -0.09588926 -0.1056887 0.057397977 0.15737335 0.07709564 0.108592525
-0.06683133 -0.15888004 -0.06720471 0.08625005 0.14033414 0.09952654 0.11151491 -0.026806697
-0.121331714 0.17117913 -0.025436103 -0.017143086 -0.008744314 -0.04180333 0.058864355 0.0010344982
0.13140176 -0.071933776 -0.08172601 0.061522722 -0.164838 0.009625897 -0.15679681 -0.029238388
-0.16625436 -0.14398885 0.16252114 0.039339766 -0.13642672 -0.10182478 -0.077439755 0.0418199
0.17282178 0.109375075 -0.021645248 0.12366344 0.13285176 0.083520934 0.08367573 -0.09793498
0.069063336 0.098394796 0.10286318 -0.0885052 0.09019841 0.09285717 0.11950348 -0.17341392
00000000: 7273 2ebe b042 5abc 3ecb b93d 67c3 2bbe
00000010: d554 303e 5a4c 843d aa21 b1bd 37f2 07be
00000020: 00ce 8fbd 4e78 e23d 00e0 5abc c55f 25be
00000030: f026 78bd aa66 14be 52b5 d73d 2d91 073e
00000040: 30ea f43c 26cb f83d fe33 cb3d 80b6 5b3d
00000050: 84b3 25be 1336 acbd 7988 033e 80ad aabc
00000060: b0a6 1f3d 5426 5cbd 29be 2c3e f05c 0bbd
00000070: 653b 0c3e 3905 2b3e 3005 56bc 1277 e63d
00000080: b10e 2e3e f282 8e3d c0ff c33b 8092 28bd
00000090: 5a34 07be 02e6 d43d c2c7 f8bd d0c8 8d3c
000000a0: d03e 22be ae84 fdbd 956b 1dbe 7041 74bc
000000b0: 4e7e cc3d abbe b4bd 585f cdbc c8ec b7bc
000000c0: b0b8 24be ca55 da3d 30dc 91bd 3fc6 f8bd
000000d0: 0080 88ba 99a0 103e 67fa 2cbe 703c 10bd
000000e0: d098 29bc 705b a33c 1430 96bd c9e2 dcbd
000000f0: 88ad 06bd e0fd d83c 3c40 04be 796d edbd
00000100: c69a da3d 0aeb dcbd e7aa 33be 682a aa3c
00000110: 947f 193d 5092 8f3c f1e2 90bd d975 c1bd
00000120: 0e46 2fbe 50dd 3dbc 208a d5bc 87e2 333e
00000130: 240e 17be b4d9 e7bd 15cd 0abe a2b0 dd3d
00000140: d6b8 9b3d d804 0fbe 62ac d4bd d265 aa3d
00000150: afcb 2dbe 1b71 0d3e 4468 61bd d717 073e
00000160: bc16 22bd 084c 573d fe4d 13be b899 ecbc
00000170: 249f 03bd 606a 36bd 22c9 d93d 60d7 11be
00000180: 3243 9c3d f410 12bd 18f9 db3c 703d 32bd
00000190: 3873 813c d178 23be a447 06be 181e e9bc
000001a0: aa6b cfbd d685 debd 98f1 6fbd 528f bc3d
000001b0: 2b6f 103e de80 a7bd 3649 c83d 0e62 f83d
000001c0: d671 c33d a3f1 2fbe b570 1a3e 90c8 303d
000001d0: 366f a23d 6860 e03c a8e6 2e3d 4f57 213e
000001e0: b290 ec3d 92d6 db3d 6803 843d 6800 2cbe
000001f0: 72a6 8f3d ace6 6c3d 847e 61bd 2efb 9d3d
00000200: 9b11 34be 150d 303e 1266 ed3d e23f 68bd
00000210: 1cac 58bd e4e2 31bd e0f6 c9bd a526 f9bd
00000220: 50ce 173c 4a62 f6bd 0f50 14be 5a9a 15be
00000230: 5a9f 823d 9df0 233e 5e9a b93d 6b1a 073e
00000240: 33d7 24be 44c6 54bd f058 a23c f89d b0bc
00000250: e0c4 c53c caf0 b53d 0c3d 483d 02ef a43d
00000260: 003e 5d3d 1634 983d 9a76 05be 6721 053e
00000270: 7206 a03d 3c27 893d 9504 313e 1641 2cbe
00000280: 55c4 263e 1e0f 8b3d da5d e03d fe2f d23d
00000290: 65f1 043e 8520 c5bd 88df 1cbd 80c9 0ebb
000002a0: e9f7 093e cb7e 003e bc2e 673d 273d 0d3e
000002b0: f0ec 543c 0002 02be 28b0 d5bc 7e7a f13d
000002c0: 9c1e 7bbd 1368 143e 9c49 743d 9e85 b33d
000002d0: c6b4 b23d 101d 9cbc 4ce5 50bd fa5a 0bbe
000002e0: aac9 af3d f657 a53d fe19 f5bd aecf 813d
000002f0: 860f 76bd 602d 92bb e01f f2bc 3cde 483d
00000300: 0031 703a 24d8 f2bd da73 f5bd 8984 a9bd
00000310: 5ce2 1f3d 8cf1 c1bd 08ef 453d 720d 6ebd
00000320: 52f8 c7bd 7016 3dbc 9761 c4bd 5173 d8bd
00000330: 241a 6b3d 7b26 213e 52e4 9d3d c265 de3d
00000340: ddde 88bd 73b1 22be 9fa2 89bd dea3 b03d
00000350: c1b3 0f3e 92d4 cb3d ee61 e43d b899 dbbc
00000360: c37c f8bd 9549 2f3e 605f d0bc a86f 8cbc
00000370: 5044 0fbc f839 2bbd c01b 713d 0098 873a
00000380: 2f8e 063e 0452 93bd f75f a7bd 40ff 7b3d
00000390: 4bcb 28be f0b5 1d3c 588f 20be 5885 efbc
000003a0: 953e 2abe d071 13be f16b 263e bc22 213d
000003b0: 72b3 0bbe 8389 d0bd bc98 9ebd 584b 2b3d
000003c0: 31f8 303e 0a00 e03d 6051 b1bc 4243 fd3d
000003d0: 4b0a 083e 060d ab3d 2e5e ab3d 2392 c8bd
000003e0: 1471 8d3d 3683 c93d eea9 d23d 3742 b5bd
000003f0: f2b9 b83d e62b be3d 3ebe f43d 6b93 31be

bias f4 [64]
-0.0123074055 -0.12539104 -0.13579854 0.13078143 -0.013527393 -0.009460136 -0.15354708 0.06906709
0.10702516 -0.17675298 -0.14448503 0.105985805 0.08458392 0.14302258 -0.030040994 -0.07382689
0.04850264 0.0032441765 -0.026535839 -0.11993355 -0.08166158 0.12960206 0.027686134 -0.00800164
-0.13480507 0.17124708 -0.055558123 0.009095877 0.14937423 -0.1705861 0.09710775 0.117424294
0.1254672 -0.10110664 -0.17343666 0.024220407 -0.041141286 0.0034974664 0.06999451 -0.16190816
-0.17484336 -0.07893319 0.13952856 -0.07072652 -0.0400559 -0.14764819 0.16532744 0.050832003
0.12949334 0.12323539 0.055296093 0.1356742 0.06452368 -0.019457921 -0.17248285 -0.11183875
0.0417784 0.023213685 -0.011698127 0.012350336 0.015230969 0.12722893 -0.09370041 -0.118434966
00000000: 00a5 49bc 8266 00be c60e 0bbe 91eb 053e
00000010: 00a2 5dbc b0fe 1abc 723b 1dbe 0c73 8d3d
00000020: 0230 db3d bcfe 34be e2f3 13be 160f d93d
00000030: 563a ad3d 8374 123e 8818 f6bc 8d32 97bd
00000040: b4aa 463d 409c 543b b061 d9bc b99f f5bd
00000050: 303e a7bd 67b6 043e 08ce e23c 5019 03bc
00000060: 570a 0abe 655b 2f3e ea90 63bd e006 153c
00000070: 8ff5 183e 1fae 2ebe 6ee0 c63d 267c f03d
00000080: 797a 003e 0011 cfbd 6199 31be e069 c63c
00000090: c483 28bd c035 653b 4859 8f3d 41cb 25be
000000a0: 230a 33be b9a7 a1bd 93e0 0e3e 11d9 90bd
000000b0: a811 24bd 1631 17be 994b 293e 3835 503d
000000c0: e799 043e d662 fc3d 287e 623d 2dee 0a3e
000000d0: fe24 843d 3866 9fbc 589f 30be b70b e5bd
000000e0: d41f 2b3d a02a be3c 80a9 3fbc 1059 4a3c
000000f0: 508b 793c 4d48 023e 00e6 bfbd 088e f2bd

weight f4 [128, 64]
0.09877606 0.0029583126 0.030826852 0.10748719 -0.0114004165 0.08885744 0.10285786 -0.103616625
0.09935896 0.008837864 0.020912081 0.032350376 -0.104154795 -0.111892104 -0.0851921 -0.09173176
-0.055056915 0.09333576 -0.0502671 0.010595933 0.016421571 -0.10678971 0.035266533 0.0073794276
0.016357899 0.0760131 0.016580194 -0.033062384 -0.07320449 0.03493169 0.010318786 0.12359917
0.041546807 0.041003376 -0.00015605986 0.09478241 -0.0124412775 -0.08801618 0.05099632 -0.015886128
0.018248111 0.09301664 0.0677786 -0.119493544 -0.06328829 -0.026673988 0.0955967 -0.03049776
-0.09754965 -0.093359396 -0.04428646 -0.03735605 -0.098912954 -0.115913406 0.060776085 -0.030687064
-0.02879782 0.059548765 0.029551163 0.008241892 0.012968704 0.03981377 -0.08712159 0.026101157
0.087931275 -0.08534521 -0.049852163 -0.026024252 -0.024512514 0.09791084 0.013997093 0.03798504
0.03181462 0.040211514 -0.07974851 -0.011037797 0.034649417 0.092416 0.072388306 0.061506197
-0.08643609 -0.07549146 0.030565605 -0.10361074 -0.040921554 0.07534687 -0.044260755 -0.09509309
0.112665534 -0.10532445 0.034687176 -0.079147235 0.05911459 0.089280516 0.015291572 -0.030337393
0.07509038 -0.07718651 0.043192923 -0.05022952 0.02588892 0.101538554 -0.0418403 0.0835295
0.071443364 -0.0059290826 -0.009353027 -0.04581204 -0.11479996 0.062988415 0.1224318 0.094517946
-0.11481866 0.04735388 -0.044809714 0.043445542 -0.12264538 0.03410311 -0.12196331 -0.054880634
0.003896132 -0.07852277 0.1134492 0.020726502 -0.06194724 -0.11830564 -0.063374236 0.06369071
-0.06478578 -0.03203672 0.11007808 0.02634859 0.03612329 0.012392208 0.091765374 -0.051610857
0.10654768 0.02274318 0.09347974 -0.038481846 -0.079385474 0.035078496 -0.0008504689 0.042133987
0.024021521 -0.0008814037 -0.0030215532 0.1174006 0.0034849793 0.049041346 -0.07282387 -0.008931696
0.059280455 0.10506697 0.07435049 0.117236406 0.07772142 -0.11871646 -0.0920182 0.08183515
0.063518405 0.003015861 0.09313901 0.016926542 -0.03319776 0.104835376 -0.099564984 0.10092403
0.117787346 0.102276504 -0.110598564 0.094083205 -0.0088348985 -0.09415677 0.0594424 0.09597288
0.100202754 0.08127302 0.080035016 -0.0940392 0.10534419 -0.0675074 0.0684236 0.12332323
0.06412874 -0.046327934 -0.027152807 0.09212799 0.04450512 -0.05357656 -0.04579535 -0.0008879155
-0.02207911 0.037672028 -0.11650795 0.098182335 -0.10518329 0.04972683 -0.11348221 0.09518179
-0.089169666 -0.019958466 0.06959796 -0.095746234 0.09887296 -0.08619864 0.0014915615 -0.11163622
0.09823252 -0.023141578 0.04657866 0.10650568 -0.0160902 0.016689032 -0.11994298 -0.090889335
-0.04699616 -0.08260073 -0.012282193 -0.0918445 0.115839556 -0.079170555 0.049311712 -0.11641218
0.029228851 0.05303575 0.010751858 0.045688197 0.10487817 0.079749644 -0.08107072 0.10951197
0.08589633 0.0076539367 -0.021611065 -0.041176945 -0.124185875 0.120930076 0.07929209 -0.06223996
0.0021108985 0.017438442 0.11805554 -0.026003912 -0.05370988 0.02001959 -0.051722556 -0.036123455
0.058331966 0.08536352 0.10316233 0.11058712 0.039076135 0.025855869 0.06815483 -0.057243466
00000000: 1a4b ca3d 40e0 413b 9888 fc3c 3e22 dc3d
00000010: d0c8 3abc e4fa b53d 24a7 d23d f434 d4bd
00000020: b67c cb3d b0cc 103c d04f ab3c d481 043d
00000030: 1c4f d5bd b027 e5bd 3279 aebd dcdd bbbd
00000040: 5c83 61bd d226 bf3d e0e4 4dbd 909a 2d3c
00000050: 8886 863c 90b4 dabd a473 103d 20cf f13b
00000060: 0001 863c c2ac 9b3d 30d3 873c 6c6c 07bd
00000070: 3cec 95bd 8814 0f3d 2010 293c 9021 fd3d
00000080: fc2c 2a3d 28f3 273d 00a4 23b9 481d c23d
00000090: 80d6 4bbc d441 b4bd 84e1 503d a023 82bc
000000a0: 107d 953c 827f be3d 82cf 8a3d 08b9 f4bd
000000b0: 4a9d 81bd 6883 dabc 34c8 c33d 70d6 f9bc
000000c0: 1cc8 c7bd 3633 bfbd b865 35bd a802 19bd
000000d0: e092 cabd 0264 edbd 58f0 783d 7063 fbbc
000000e0: 68e9 ebbc 68e9 733d 4815 f23c 0009 073c
000000f0: b07a 543c c413 233d ce6c b2bd 18d2 d53c
00000100: 5015 b43d 78c9 aebd c831 4cbd d030 d5bc
00000110: 78ce c8bc 7a85 c83d 1054 653c 3496 1b3d
00000120: 0c50 023d d4b4 243d 3053 a3bd e0d7 34bc
00000130: 8cec 0d3d 9a44 bd3d 5240 943d eced 7b3d
00000140: 6805 b1bd 449b 9abd b864 fa3c de31 d4bd
00000150: 5c9d 27bd 764f 9a3d c44a 35bd 2ac0 c2bd
00000160: 30bd e63d 58b4 d7bd 2414 0e3d f217 a2bd
00000170: 2422 723d b4d8 b63d 8089 7a3c 2086 f8bc
00000180: fcc8 993d f613 9ebd 10eb 303d 78bd 4dbd
00000190: 0015 d43c 72f3 cf3d bc60 2bbd 8411 ab3d
000001a0: e650 923d c048 c2bb 703d 19bc 68a5 3bbd
000001b0: 3e1c ebbd 1200 813d 86bd fa3d a092 c13d
000001c0: 0c26 ebbd 24f6 413d 648a 37bd f4f3 313d
000001d0: 802d fbbd b4af 0b3d e6c7 f9bd 84ca 60bd
000001e0: 4056 7f3b 8cd0 a0bd 0e58 e83d a0ca a93c
000001f0: 64bc 7dbd 3a4a f2bd 5aca 81bd 4670 823d
00000200: 68ae 84bd f038 03bd 9e70 e13d 00d9 d73c
00000210: 04f6 133d b008 4b3c 7cef bb3d e865 53bd
00000220: ac35 da3d e84f ba3c 4e72 bf3d 249f 1dbd
00000230: da94 a2bd 78ae 0f3d 00f2 5eba b094 2c3d
00000240: c8c8 c43c 000e 67ba 4005 46bb ba6f f03d
00000250: 4064 643b 94df 483d ae24 95bd 4056 12bc
00000260: 10d0 723d 5a2d d73d 1245 983d a419 f03d
00000270: 682c 9f3d 9e21 f3bd 0a74 bcbd 3099 a73d
00000280: f015 823d c0a5 453b aabf be3d 88a9 8a3c
00000290: 60fa 07bd eeb3 d63d bae8 cbbd 42b1 ce3d
000002a0: 7e3a f13d 5876 d13d 8081 e2bd b2ae c03d
000002b0: 40c0 10bc 44d5 c0bd e079 733d 6e8d c43d
000002c0: 1a37 cd3d 7872 a63d 66e9 a33d a097 c0bd
000002d0: b2be d73d 5241 8abd ac21 8c3d e490 fc3d
000002e0: ee55 833d 5cc2 3dbd 906f debc 9aad bc3d
000002f0: 004b 363d 1873 5bbd e893 3bbd 00c3 68ba
00000300: 40df b4bc fc4d 1a3d b89b eebd d213 c93d
00000310: 566a d7bd 5cae 4b3d 5c69 e8bd acee c23d
00000320: 969e b6bd f07f a3bc 6089 8e3d 9a16 c4bd
00000330: e87d ca3d ea88 b0bd 8080 c33a 88a1 e4bd
00000340: 222e c93d 6893 bdbc 44c9 3e3d a61f da3d
00000350: 98cf 83bc 70b7 883c aaa4 f5bd 3024 babd
00000360: 0c7f 40bd 922a a9bd 403b 49bc f818 bcbd
00000370: 4a3d ed3d 2c24 a2bd 14fb 493d 8269 eebd
00000380: 5871 ef3c 043c 593d 9028 303c 8c23 3b3d
00000390: 5eca d63d c853 a33d 6808 a6bd d047 e03d
000003a0: 6aea af3d e0cd fa3b b009 b1bc 28a9 28bd
000003b0: 2a55 febd 30aa f73d e463 a23d 54ef 7ebd
000003c0: 0057 0a3b 10db 8e3c 1ac7 f13d 2806 d5bc
000003d0: e4fe 5bbd 2000 a43c 08db 53bd 30f6 13bd
000003e0: 80ed 6e3d 12d3 ae3d c646 d33d 807b e23d
000003f0: 4c0e 203d b0cf d33c c294 8b3d 2078 6abd

bias f4 [128]
0.11557455 0.08260591 -0.11662464 -0.096139446 0.0760618 0.011231393 0.01088272 0.0008291751
0.10581888 0.11086574 0.040454373 -0.09028363 0.07152292 -0.090516895 -0.09904897 -0.025667012
-0.08585155 -0.036079764 0.020787 0.023189738 -0.046975523 -0.059578538 0.05556822 -0.06404707
-0.06148538 -0.049968347 0.015763804 -0.09969278 0.09947944 0.074271515 -0.09732069 -0.004965991
0.054173246 -0.011041671 -0.07498434 -0.10048981 0.037305683 0.004271522 -0.023858905 -0.011012733
0.1105302 0.0412955 0.025565132 0.103229165 -0.10957852 -0.09637317 0.07848783 0.03402315
0.061665595 -0.013577774 0.018432796 0.047472402 0.08125624 0.049250513 0.05419025 0.06093441
0.022320047 -0.08083974 0.07270831 0.10976495 -0.10935852 0.1227463 0.027683571 0.019800812
0.0007341206 0.04767421 0.041007355 -0.028351083 -0.008346587 -0.05479738 0.11523932 -0.1238381
-0.099849835 0.035417512 0.011985347 0.022206813 -0.02104178 0.0309553 0.10602015 0.0749712
0.04948312 0.023024574 -0.10304889 0.10052252 -0.009143427 -0.04587987 -0.072058305 -0.000614509
0.06553039 -0.042523712 0.032258704 -0.10329507 -0.06723277 0.046142668 -0.09993428 -0.10321456
0.013732284 0.059059113 0.046423286 -0.09982368 -0.097185776 -0.005262241 0.08058375 0.08781086
-0.003970295 -0.11471012 0.1133236 -0.10536893 0.07534425 0.09312275 0.1045306 -0.022049144
-0.10167146 0.105172396 0.06871608 -0.03658007 0.05980575 -0.02370295 0.098501086 0.05137007
0.011133239 0.00875181 -0.008115724 0.124444544 0.07925625 -0.019812107 -0.08761449 0.10443032
00000000: 5ab2 ec3d 4a2d a93d e6d8 eebd c2e4 c4bd
00000010: 4ac6 9b3d e003 383c 704d 323c 005d 593a
00000020: 92b7 d83d 940d e33d 7cb3 253d a0e6 b8bd
00000030: 9c7a 923d ec60 b9bd 30da cabd a043 d2bc
00000040: f0d2 afbd 60c8 13bd 8049 aa3c 68f8 bd3c
00000050: 6869 40bd a008 74bd 809b 633d 1c2b 83bd
00000060: 18d8 7bbd 9cab 4cbd 1823 813c ba2b ccbd
00000070: e0bb cb3d aa1b 983d 1250 c7bd c0b9 a2bb
00000080: c4e4 5d3d 20e8 34bc 6491 99bd 9acd cdbd
00000090: d8cd 183d 20f8 8b3b c073 c3bc c06e 34bc
000000a0: a85d e23d 7825 293d f86d d13c d069 d33d
000000b0: b46a e0bd 4c5f c5bd 3abe a03d dc5b 0b3d
000000c0: 1095 7c3d 5075 5ebc 6000 973c 6c72 423d
000000d0: ac69 a63d e8ba 493d 98f6 5d3d 5c96 793d
000000e0: 88d8 b63c 4e8f a5bd 18e8 943d 72cc e03d
000000f0: 5cf7 dfbd 6a62 fb3d a8c8 e23c 5035 a23c
00000100: 0072 403a 0846 433d 54f7 273d 8840 e8bc
00000110: 20c0 08bc 3873 60bd 9802 ec3d d49e fdbd
00000120: 127e ccbd f411 113d 305e 443c 10eb b53c
00000130: d05f acbc f895 fd3c 1821 d93d 808a 993d
00000140: d0ae 4a3d 089e bc3c 4c0b d3bd c0de cd3d
00000150: 50ce 15bc 88ec 3bbd 4e93 93bd 0017 21ba
00000160: cc34 863d 582d 2ebd b421 043d 5e8c d3bd
00000170: 56b1 89bd 1800 3d3d 58aa ccbd 2862 d3bd
00000180: 60fd 603c f8e7 713d 5826 3e3d 5c70 ccbd
00000190: 5609 c7bd e06e acbb 1809 a53d 2ed6 b33d
000001a0: 4019 82bb 24ed eabd 3416 e83d aacb d7bd
000001b0: 164e 9a3d 24b7 be3d 2414 d63d 68a0 b4bc
000001c0: 2039 d0bd a064 d73d 04bb 8c3d fcd4 15bd
000001d0: e0f6 743d b02c c2bc f0ba c93d 6c69 523d
000001e0: 3068 363c c063 0f3c d0f7 04bc c8dc fe3d
000001f0: 1a51 a23d 004d a2bc 3a6f b3bd 90df d53d

weight f4 [512, 128]
0.027074471 -0.06258215 0.030342676 -0.038387075 0.048822217 0.021680221 -0.01811856 -0.00213553
0.025094539 -0.03986074 -0.04017799 0.0074256957 -0.06488395 0.06874231 0.030012928 0.05023136
0.0037668943 -0.024201393 -0.07335077 -0.018349841 -0.031439967 0.02008804 -0.0024203435 0.01463899
-0.0012676492 -0.023331307 -0.05262429 -0.08344883 0.034145765 -0.08279643 0.011991791 0.019830495
0.07468342 -0.024003148 -0.06978503 -0.022842884 -0.026312236 0.0035674274 -0.018054321 0.016120724
-0.010079354 -0.060071766 0.010385089 -0.031868845 -0.052368734 0.06790482 -0.014771782 -0.04580316
0.014371276 -0.029062621 0.072709955 0.022622682 -0.063124016 -0.053097304 -0.032935582 0.08063311
0.069216065 0.05671274 -0.023650512 -0.0049896836 0.03415428 0.039396696 0.08755783 -0.08626805
-0.012082867 0.024240695 0.085726924 0.02476041 -0.019091658 0.06249789 -0.046828087 0.062118478
0.06967031 -0.05747731 -0.051813744 -0.05135551 0.031819038 0.06945603 0.045350663 0.056133367
-0.021496654 0.0064335614 -0.07621984 0.052181028 -0.008782968 0.069592945 -0.031959735 0.069617815
0.061930664 0.081054874 -0.02140949 -0.035871193 0.0018872693 0.06270417 -0.052053023 0.07378297
-0.03658729 0.045447163 0.012085177 0.039407603 0.08045571 -0.05736499 0.07049132 -0.06450396
-0.072840266 -0.012708433 0.049520917 0.044325225 0.0646668 0.0043021813 0.07325504 -0.051402424
0.02478221 0.07572398 -0.017407998 0.040071495 0.016490795 0.057988472 -0.053302404 -0.03588567
-0.0051810592 0.075998075 -0.008586019 0.01939018 0.048252635 0.032124095 -0.044244308 -0.019483887
0.04047554 -0.081697404 -0.07335159 0.051739 0.04393042 -0.009922951 0.051701494 0.013627149
0.068807475 0.055008553 0.047149785 -0.0042447597 -0.049037077 -0.046065345 -0.047714785 0.02826918
-0.052763913 -0.019347668 -0.0022436902 0.062267534 -0.06556164 -0.013057776 0.022071525 -0.011883676
-0.034303192 0.07755598 0.050507925 -0.05432738 0.046303727 0.07330429 0.08556952 -0.070770726
0.04888522 -0.05304498 0.03972105 0.050944008 -0.0747717 -0.026203126 0.006801486 0.07211458
0.006883949 0.050526403 -0.00885988 -0.037757497 0.008714817 -0.0070759207 -0.00057999045 -0.061834726
-0.06106939 0.054068334 -0.00065562874 -0.0041158274 -0.087300844 0.01822763 -0.027155552 -0.07279002
-0.008136198 0.029590279 0.04807145 0.047457524 0.071440525 0.08779048 -0.008919239 0.019983537
0.013188779 -0.00434123 -0.08189417 -0.039841153 -0.03403047 -0.01419542 0.03246735 -0.060450297
-0.059261933 -0.020396695 -0.075194 -0.025515765 -0.02992542 -0.019114703 -0.05350065 0.07596559
0.08010734 -0.06523504 -0.08265921 -0.079706445 -0.065405905 -0.017499581 -0.015129514 -0.032226976
-0.075199135 0.012910478 -0.0324581 0.08678224 0.08346406 -0.072129704 0.0320507 0.0051668063
-0.058868926 -0.009210244 -0.041472193 0.07176643 0.0368815 -0.0033543482 0.008495308 0.0651718
0.0076466277 0.03986966 0.07893015 0.06322121 0.011956155 0.07954072 0.035045676 -0.052305546
-0.018754967 -0.007367626 0.06987985 0.01033254 0.02259089 -0.08517081 0.037573643 0.031865545
-0.002253212 -0.025000386 -0.035861984 -0.05319456 0.025814533 0.038050137 0.06413206 -0.063528985
00000000: 48cb dd3c 122b 80bd 3491 f83c c43b 1dbd
00000010: cef9 473d b89a b13c 606d 94bc 40f4 0bbb
00000020: 1093 cd3c 0445 23bd ad91 24bd 4053 f33b
00000030: e0e1 84bd c5c8 8c3d acdd f53c 66bf 4d3d
00000040: 00de 763b 0042 c6bc ee38 96bd 6852 96bc
00000050: 32c7 00bd ac8f a43c a09e 1ebb 60d8 6f3c
00000060: 4027 a6ba 4c21 bfbc 918c 57bd 38e7 aabd
00000070: 6edc 0b3d 2d91 a9bd 3879 443c 9073 a23c
00000080: 9ff3 983d 40a2 c4bc 74eb 8ebd 0021 bbbc
00000090: c28c d7bc 80cb 693b a8e6 93bc 9c0f 843c
000000a0: e023 25bc d00d 76bd 3826 2a3c e888 02bd
000000b0: 9980 56bd af11 8b3d 5805 72bc 189c 3bbd
000000c0: 8075 6b3c bc14 eebc f5e8 943d 3453 b93c
000000d0: 2a47 81bd 8f7c 59bd 76e7 06bd f922 a53d
000000e0: 27c1 8d3d 9e4b 683d b8be c1bc 8080 a3bb
000000f0: 5ce5 0b3d 6e5e 213d 8551 b33d 4ead b0bd
00000100: 38f7 45bc 6c94 c63c 9991 af3d 58d6 ca3c
00000110: 1c66 9cbc cafd 7f3d cfce 3fbd f26f 7e3d
00000120: 4faf 8e3d 546d 6bbd a63a 54bd 285a 52bd
00000130: ae54 023d f73e 8e3d 9ec1 393d 1aec 653d
00000140: c019 b0bc a0d0 d23b 2619 9cbd c6bb 553d
00000150: 70e6 0fbc bf86 8e3d 36e8 02bd c993 8e3d
00000160: 02ab 7d3d 1900 a63d f462 afbc aced 12bd
00000170: 405e f73a 0b6b 803d 8d35 55bd 871b 973d
00000180: 8edc 15bd ce26 3a3d e800 463c de69 213d
00000190: f7c5 a43d 8df7 6abd c15d 903d a71a 84bd
000001a0: 472d 95bd 0837 50bc 72d6 4a3d 5e8e 353d
000001b0: 0770 843d 50f9 8c3b bd06 963d 598b 52bd
000001c0: 1004 cb3c 2d15 9b3d 389b 8ebc 0222 243d
000001d0: b417 873c 5285 6d3d 9f53 5abd dafc 12bd
000001e0: e0c5 a9bb e1a4 9b3d 60ac 0cbc 28d8 9e3c
000001f0: 8ea4 453d 8e94 033d 8539 35bd ac9c 9fbc
00000200: aec9 253d f850 a7bd 5c39 96bd 46ec 533d
00000210: 62f0 333d e093 22bc f2c4 533d 6844 5f3c
00000220: efea 8c3d a650 613d 2220 413d a017 8bbb
00000230: 1adb 48bd 04af 3cbd 9470 43bd c494 e73c
00000240: f91e 58bd 007f 9ebc e00a 13bb 3e0c 7f3d
00000250: 2e45 86bd 48f0 55bc 58cf b43c c0b3 42bc
00000260: 8181 0cbd abd5 9e3d 66e1 4e3d 6386 5ebd
00000270: faa8 3d3d 8f20 963d 133f af3d 3ef0 90bd
00000280: de3b 483d b145 59bd 8ab2 223d aaaa 503d
00000290: e821 99bd f0a7 d6bc 00df de3b cfb0 933d
000002a0: c092 e13b c6f4 4e3d 0829 11bc 9ba7 1abd
000002b0: 98c8 0e3c 20dd e7bb 800a 18ba 6946 7dbd
000002c0: e623 7abd c276 5d3d 80de 2bba 10de 86bb
000002d0: c9ca b2bd 1c52 953c 5275 debc ef12 95bd
000002e0: b04d 05bc 5067 f23c 92e6 443d d262 423d
000002f0: 694f 923d 7fcb b33d 0022 12bc 84b4 a33c
00000300: c015 583c e040 8ebb 21b8 a7bd 7a30 23bd
00000310: 8963 0bbd e893 68bc 7cfc 043d bb9a 77bd
00000320: a4bc 72bd f816 a7bc 50ff 99bd 7006 d1bc
00000330: 2826 f5bc 7096 9cbc 7f23 5bbd d993 9b3d
00000340: 510f a43d f399 85bd 3b49 a9bd 223d a3bd
00000350: 88f3 85bd 485b 8fbc c8e1 77bc 6f00 04bd
00000360: 0102 9abd 7886 533c c9f2 04bd e3ba b13d
00000370: 35ef aa3d bdb8 93bd 9847 033d 504e a93b
00000380: 8b20 71bd 90e6 16bc bfde 29bd 47fa 923d
00000390: 0e11 173d a0d4 5bbb e82f 0b3c cb78 853d
000003a0: 9090 fa3b 5e4e 233d 21a6 a13d 1f7a 813d
000003b0: c0e3 433c 3fe6 a23d 0e8c 0f3d 573e 56bd
000003c0: 04a4 99bc 206c f1bb 2b1d 8f3d d049 293c
000003d0: 8810 b93c 096e aebd d2e6 193d 7285 023d
000003e0: a0aa 13bb 9ccd ccbc 04e4 12bd 8ae2 59bd
000003f0: 0079 d33c 76da 1b3d ab57 833d 7c1b 82bd

bias f4 [512]
-0.07450893 -0.04852005 -0.08386948 0.066369556 -0.07345746 -0.06142196 -0.045910362 0.047957264
-0.041509293 0.016096272 -0.012921847 -0.011425801 -0.00306613 0.029074065 -0.008131668 0.026926033
0.014510661 0.056556113 -0.0354139 -0.046720233 -0.0604859 0.07269763 -0.029430132 -0.08526142
-0.03705298 -0.041248616 0.051089205 -0.05472803 0.027479216 0.03420519 0.01064904 -0.035245545
0.059237562 0.053756826 0.019540511 -0.06558022 0.049860977 0.06455391 0.00045903027 0.05768133
0.011483364 0.05994586 0.019205205 0.046781175 -0.07083265 -0.062898226 -0.005606845 0.040591665
0.003124334 -0.07974616 -0.066903524 0.021785304 0.048205547 -0.053155657 -0.07048099 0.060717903
0.06668303 0.07573769 -0.064052 -0.08129402 0.028720297 0.06326348 0.06724966 0.07657226
0.04977805 0.06667141 0.025081113 0.0003283471 -0.027556706 -0.05153613 0.04039999 0.019418381
-0.0036207512 0.002445832 0.059530698 0.020596437 0.038653545 0.062299438 -0.03196693 0.0668057
0.056255452 -0.055349264 0.015752472 0.048826 -0.05925417 -0.004096307 -0.026584439 -0.071293764
0.022093616 -0.008929923 -0.07654129 0.038611613 -0.068386614 -0.004862763 0.020307265 0.05009135
0.047171183 -0.07448448 -0.06533969 -0.0051307753 0.047972612 -0.033018168 0.015557073 -0.042535663
0.039146133 0.08821342 -0.05384989 -0.036213763 0.032308638 -0.063304216 0.0097822845 -0.06626721
-0.03426333 -0.08346385 0.033599854 -0.031728707 -0.068074584 0.02623085 -0.028340004 0.070636265
0.06639997 0.025951311 0.015214115 -0.012290336 -0.0463917 -0.047022164 -0.05087275 -0.0154676065
-0.0028129518 -0.067429245 -0.012184456 -0.022260219 0.032746807 -0.001093097 0.03211517 0.030019395
-0.057060752 -0.011163689 -0.05486372 0.040884323 0.0004177615 -0.070566855 0.08399486 0.0010519102
0.018644556 0.028546557 -0.043656822 -0.02490937 0.082075216 0.031174295 0.05478678 0.032391295
0.030965984 0.024620175 0.03012368 0.08380779 0.050743945 -0.07779528 -0.00042697787 -0.006307803
-0.07855353 0.046106897 0.07974187 0.067271 0.07578219 0.07398508 -0.07250984 0.0047414154
-0.012445502 0.0312607 0.06874219 0.03058602 0.041798033 0.08821545 -0.03156423 -0.06775886
-0.030168522 0.0073480904 0.045395665 -0.058541235 -0.038641084 -0.0070436 -0.028411854 -0.0079301745
0.083758034 -0.0046890453 -0.04474887 -0.0015707463 0.037373833 -0.048120942 -0.03752612 -0.014768332
-0.023683704 -0.06323126 0.0518545 -0.08744994 0.04556843 0.0536338 0.064913295 -0.036547765
0.035669982 -0.04929766 0.08083985 0.044859983 0.08833558 0.04171417 -0.08337777 0.042367063
0.074178986 0.05386751 0.077860005 0.029591605 -0.07841498 0.04808197 -0.0819152 0.05664464
0.062927775 0.067657046 -0.065740496 0.040852867 0.04887245 0.0049815252 0.012043402 -0.041003603
-0.018601097 0.07474271 -0.07478153 0.019270517 -0.0055978894 0.035525896 -0.0637519 -0.01914464
0.07680785 -0.078744546 -0.034057774 0.06967398 0.06605045 -0.043727525 0.077520795 0.085730456
-0.061445784 0.07956339 0.08687607 -0.08533946 0.046055816 -0.046838783 0.025470786 0.0035802051
-0.02269601 0.05771696 -0.020427026 -0.04404784 0.008191764 0.05620817 0.055177517 -0.047124106
00000000: 2398 98bd f6bc 46bd c3c3 abbd c3ec 873d
00000010: dd70 96bd 9895 7bbd 810c 3cbd d66e 443d
00000020: a605 2abd 54dc 833c 28b6 53bc 4833 3bbc
00000030: 20f1 48bb bc2c ee3c b03a 05bc fc93 dc3c
00000040: 20be 6d3c 62a7 673d 2a0e 11bd b75d 3fbd
00000050: 10c0 77bd 7fe2 943d 7617 f1bc 8a9d aebd
00000060: dec4 17bd 4ff4 28bd ea42 513d 802a 60bd
00000070: 181c e13c be1a 0c3d 5079 2e3c a25d 10bd
00000080: 16a3 723d 1e30 5c3d 6c13 a03c ec4e 86bd
00000090: 063b 4c3d d734 843d 00aa f039 4243 6c3d
000000a0: b824 3c3c ca89 753d 3c54 9d3c 9e9d 3f3d
000000b0: b510 91bd c9d0 80bd a0b9 b7bb 7243 263d
000000c0: a0c1 4c3b f451 a3bd b704 89bd 1877 b23c
000000d0: 2e73 453d bfb9 59bd 5658 90bd 56b3 783d
000000e0: 1d91 883d 5d1c 9b3d b22d 83bd 7b7d a6bd
000000f0: d446 eb3c 4990 813d 31ba 893d ebd1 9c3d
00000100: 12e4 4b3d 058b 883d e876 cd3c 0026 ac39
00000110: 9abe e1bc 8d17 53bd 767a 253d 4c13 9f3c
00000120: 204a 6dbb 404a 203b 76d6 733d dcb9 a83c
00000130: 2e53 1e3d b22d 7f3d c1ef 02bd 6dd1 883d
00000140: 1e6c 663d e9b5 62bd 540b 813c c6fd 473d
00000150: 80b4 72bd 503a 86bb 9cc7 d9bc 7702 92bd
00000160: acfd b43c d04e 12bc aec1 9cbd 3627 1e3d
00000170: 480e 8cbd d057 9fbb 6c5b a63c 962c 4d3d
00000180: 9236 413d 528b 98bd d1d0 85bd 1020 a8bb
00000190: ee7e 443d 0f3e 07bd 18e3 7e3c e039 2ebd
000001a0: b257 203d 3da9 b43d b491 5cbd e254 14bd
000001b0: 1056 043d a4a5 81bd e045 203c 1ab7 87bd
000001c0: b557 0cbd 18ef aabd 00a0 093d f6f5 01bd
000001d0: b06a 8bbd 14e2 d63c 4c29 e8bc bfa9 903d
000001e0: b5fc 873d d897 d43c a044 793c 685d 49bc
000001f0: 3905 3ebd 509a 40bd f25f 50bd d86b 7dbc
00000200: 8059 38bb 5818 8abd 50a1 47bc 105b b6bc
00000210: 8421 063d 4046 8fba 328b 033d 3ceb f53c
00000220: 89b8 69bd e8e7 36bc c8b8 60bd 5276 273d
00000230: 0007 db39 5b85 90bd 7f05 ac3d 40e0 893a
00000240: 78bc 983c 78da e93c 7fd1 32bd bc0e ccbc
00000250: 0d17 a83d 3c61 ff3c 1a68 603d bcac 043d
00000260: 60ac fd3c 40b0 c93c f0c5 f63c 6ba3 ab3d
00000270: e2d8 4f3d 2253 9fbd 00dc dfb9 b0b1 cebb
00000280: ace0 a0bd 96da 3c3d b54f a33d 61c5 893d
00000290: b133 9b3d 7d85 973d 0a80 94bd e05d 9b3b
000002a0: 38e8 4bbc 380b 003d b5c8 8c3d 888f fa3c
000002b0: 6a34 2b3d 4daa b43d 7e49 01bd 28c5 8abd
000002c0: fa23 f7bc 40c8 f03b cef0 393d efc8 6fbd
000002d0: 1d46 1ebd 00ce e6bb fabf e8bc 90ed 01bc
000002e0: 5589 ab3d 90a6 99bb 974a 37bd 80e1 cdba
000002f0: 4e15 193d 771a 45bd fdb4 19bd e0f6 71bc
00000300: 5404 c2bc 647f 81bd 6265 543d f418 b3bd
00000310: f6a5 3a3d 1eaf 5b3d 43f1 843d 1cb3 15bd
00000320: b01a 123d 58ec 49bd 5d8f a53d 1abf 373d
00000330: 49e9 b43d 7adc 2a3d f7c1 aabd 1689 2d3d
00000340: 27eb 973d 2ea4 5c3d 1175 9f3d 186a f23c
00000350: 0898 a0bd 9af1 443d 28c3 a7bd 3604 683d
00000360: 47e0 803d c78f 8a3d f4a2 86bd 5655 273d
00000370: 7a2e 483d 103c a33b b051 453c 65f3 27bd
00000380: 5461 98bc b512 993d 0f27 99bd 34dd 9d3c
00000390: 806e b7bb 9a83 113d 5b90 82bd 38d5 9cbc
000003a0: 6f4d 9d3d d244 a1bd 2a80 0bbd 3bb1 8e3d
000003b0: 7545 873d a21b 33bd 39c3 9e3d 7393 af3d
000003c0: 93ae 7bbd 21f2 a23d 15ec b13d 74c6 aebd
000003d0: 06a5 3c3d 06da 3fbd 1ca8 d03c e0a1 6a3b
000003e0: fcec b9bc 9e68 6c3d 9456 a7bc 826b 34bd
000003f0: c036 063c 8a3a 663d d201 623d 3505 41bd

weight f4 [128, 512]
0.0441895 0.030698154 -0.040382374 -0.008866534 -0.026813546 0.014836706 -0.026772816 0.039094154
0.0096655 0.039323743 -0.04214356 0.007092338 0.0031273589 0.00031085312 -0.028990619 0.0032329038
0.044131126 -0.033729218 -0.035087984 -0.0008038096 0.012413885 -0.018705161 0.014178082 0.02243666
-0.016098004 -0.013589729 -0.010760706 0.016796898 -0.0016548596 -0.029291796 -0.03968967 0.042097215
0.00061032176 -0.02186304 0.005479645 -0.03466186 0.03769381 0.041338887 0.02789573 -0.015590362
-0.02988546 -0.03493007 0.039896984 0.007300649 0.0056464076 -0.044185102 -0.009002626 -0.009247024
-0.0074466616 0.02472749 0.029159922 0.0051279813 0.034877498 -0.019900773 -0.0031593554 0.020120505
0.029634405 0.04038034 0.023642834 0.028378326 0.042174418 0.020046119 -0.025538193 -0.00019697845
-0.016719596 0.028823268 -0.010889016 -0.0022946596 -0.0022218078 0.020838778 0.0319422 -0.007884052
-0.03095382 0.0038851053 -0.0054056905 -0.006450381 -0.009789597 0.033719797 -0.0043943673 -0.03212418
0.028156083 -0.030144721 0.007967688 -0.042803474 -0.022314817 0.027265947 0.004330214 0.03659385
-0.041157067 0.0024063177 -0.022088883 0.0071915276 0.008536972 0.03956333 0.029066402 -0.038793292
-0.033158775 -0.0061263405 0.017760355 0.007856578 -0.028992658 0.004564371 0.04312307 0.005320724
0.043113697 -0.016989937 -0.029231261 0.0071669593 -0.007373851 0.03148752 -0.0009693764 0.028070923
-0.04190013 0.031668883 0.03562959 0.038059082 0.03106137 -0.0021373369 -0.0059419163 -0.030798519
-0.022643827 0.040764328 0.010985985 0.015243821 0.0064568333 0.034283075 0.0057139434 0.036615293
-0.032705434 -0.0040229335 0.005777154 -0.040030602 -0.039665204 0.0058472157 -0.0057858936 0.04156467
-0.035041463 -0.0055377595 0.042491358 -0.035829857 0.02816033 0.024708096 0.014207359 -0.04368889
-0.040031236 -0.008909192 -0.025709193 0.03306966 -0.01575976 0.03579751 0.033342253 -0.030499808
0.018152114 0.044039812 -0.0064060204 0.0415725 0.032012027 0.03401432 0.041538548 0.014303904
0.041527484 0.015085261 -0.011179335 0.01807043 0.039937433 -0.011340905 -0.014872253 0.002272781
0.013926156 -0.009086806 0.040360752 -0.036640637 -0.022380788 0.037931 0.026498687 -0.0139803365
-0.03176479 -0.009298902 -0.011516232 0.02827068 0.014307994 0.013590287 0.03889673 -0.0019745491
-0.038960483 0.0053084902 0.019186582 -0.043393925 0.03295799 -0.00646282 0.012649056 0.010489393
-0.030867971 0.015462734 0.030438844 -0.023000889 -0.0041212067 -0.00064108893 -0.02150616 -0.03044743
-0.027624235 -0.02267796 0.0036166273 0.0343463 -0.020430125 0.02517723 -0.018660838 -0.018671354
-0.011277854 0.009467192 -0.006950248 0.0018663406 0.027082596 0.0047521293 -0.0022188313 -0.019797606
0.009135839 0.014167696 0.016173515 0.031732175 -0.016634556 0.006629821 0.03505322 0.011869848
0.03310967 -0.020719117 0.03839167 -0.011362553 0.005391963 -0.026868232 0.010139979 -0.02118641
0.014041405 -0.033147164 0.043448035 -0.0052016154 -0.0138000045 0.019977693 -0.032447036 0.040777583
-0.043555144 -0.03221946 -0.027362872 0.029884499 -0.024289556 0.028817732 0.03698193 0.041732695
-0.036445707 0.010916077 -0.043443155 -0.03145187 -0.0030070208 -0.03191314 0.027086709 -0.021028342
00000000: 0d00 353d b27a fb3c fd67 25bd f044 11bc
00000010: 15a8 dbbc a815 733c aa52 dbbc 3121 203d
00000020: 0c5c 1e3c ef11 213d ba9e 2cbd d866 e83b
00000030: 60f4 4c3b 00fa a239 bc7d edbc 20df 533b
00000040: d7c2 343d a627 0abd 6bb8 0fbd c0b6 52ba
00000050: 9c63 4b3c 913b 99bc 304b 683c 16cd b73c
00000060: f6df 83bc 74a7 5ebc ac4d 30bc a699 893c
00000070: e0e7 d8ba 59f5 efbc a391 22bd 216e 2c3d
00000080: 00fe 1f3a 1e1a b3bc 988e b33b 98f9 0dbd
00000090: d364 1a3d f752 293d 9685 e43c b86e 7fbc
000000a0: 5ad2 f4bc d512 0fbd 056b 233d 483a ef3b
000000b0: 8005 b93b 70fb 34bd c07f 13bc d480 17bc
000000c0: 2003 f4bb 4e91 ca3c cae0 ee3c a008 a83b
000000d0: b5db 0e3d f206 a3bc 300d 4fbb c2d3 a43c
000000e0: dac3 f23c db65 253d 9eae c13c aa79 e83c
000000f0: 15bf 2c3d c237 a43c 7935 d1bc 008c 4eb9
00000100: 89f7 88bc c61e ec3c d867 32bc 0062 16bb
00000110: c09b 11bb 16b6 aa3c d3d5 023d 1c2c 01bc
00000120: de92 fdbc 409d 7e3b 3822 b1bb b85d d3bb
00000130: 8c64 20bc c51d 0a3d a0fe 8fbb a594 03bd
00000140: 96a7 e63c 10f2 f6bc e88a 023c b252 2fbd
00000150: 90cd b6bc d65c df3c 78e4 8d3b 6fe3 153d
00000160: 5094 28bd 50b3 1d3b bff3 b4bc e8a6 eb3b
00000170: a8de 0b3c 290d 223d aa1c ee3c b7e5 1ebd
00000180: 7fd1 07bd 78bf c8bb 2a7e 913c e0b8 003c
00000190: 0382 edbc b890 953b d1a1 303d 7859 ae3b
000001a0: fd97 303d 7b2e 8bbc 6676 efbc d0d8 ea3b
000001b0: 58a0 f1bb 0ff9 003d c01d 7eba fef4 e53c
000001c0: 799f 2bbd 3bb7 013d 55f0 113d d7e3 1b3d
000001d0: 6a74 fe3c 9012 0cbb 68b4 c2bb 2d4d fcbc
000001e0: 8c7f b9bc 7ff8 263d 90fe 333c 38c1 793c
000001f0: d893 d33b 696c 0c3d 083c bb3b ebf9 153d
00000200: 22f6 05bd d0d2 83bb 484e bd3b 21f7 23bd
00000210: fb77 22bd 009a bf3b 9897 bdbb b73f 2a3d
00000220: a387 0fbd 1876 b5bb 6b0b 2e3d 54c2 12bd
00000230: 7eb0 e63c a268 ca3c fcc5 683c 1ff3 32bd
00000240: cbf7 23bd dcf7 11bc 169c d2bc 0d74 073d
00000250: 9d1a 81bc 69a0 123d e391 083d bcda f9bc
00000260: beb3 943c 1763 343d 98e9 d1bb ed47 2a3d
00000270: 0b1f 033d 9952 0b3d 5324 2a3d ec5a 6a3c
00000280: b918 2a3d 2c28 773c 8829 37bc 7008 943c
00000290: 6f95 233d 34cf 39bc c0aa 73bc f0f2 143b
000002a0: 882a 643c d4e0 14bc 5151 253d 7e14 16bd
000002b0: ea57 b7bc 895d 1b3d c613 d93c c80d 65bc
000002c0: cc1b 02bd 6c5a 18bc 94ae 3cbc ea97 e73c
000002d0: 146c 6a3c cca9 5e3c 2d52 1f3d 7067 01bb
000002e0: 0795 1fbd d8f2 ad3b 2e2d 9d3c d4bd 31bd
000002f0: f5fe 063d 10c6 d3bb fc3d 4f3c b4db 2b3c
00000300: d4de fcbc 6857 7d3c e25a f93c 5c6c bcbc
00000310: 300b 87bb c00e 28ba b02d b0bc e46c f9bc
00000320: 384c e2bc 21c7 b9bc f004 6d3b b5ae 0c3d
00000330: 145d a7bc 7a40 ce3c 9dde 98bc abf4 98bc
00000340: c0c6 38bc 481c 1b3c e8be e3bb 00a0 f43a
00000350: 52dc dd3c c0b7 9b3b d069 11bb 972e a2bc
00000360: 7cae 153c a01f 683c 527e 843c 99f9 013d
00000370: 3145 88bc f83e d93b f793 0f3d c079 423c
00000380: 019e 073d 23bb a9bc 9540 1d3d 002a 3abc
00000390: 10af b03b c41a dcbc 2822 263c 1f8f adbc
000003a0: ec0d 663c 52c5 07bd 91f6 313d 5072 aabb
000003b0: 6a19 62bc 42a8 a33c 2fe7 04bd 6506 273d
000003c0: e166 32bd 8df8 03bd 1a28 e0bc 56d0 f43c
000003d0: e4fa c6bc 2a13 ec3c 5d7a 173d e7ef 2a3d
000003e0: 1848 15bd 58d9 323c 73f1 31bd add3 00bd
000003f0: 7011 45bb 5ab7 02bd f2e4 dd3c a143 acbc

bias f4 [128]
0.020753805 -0.03353714 -0.022768063 -0.022387795 -0.0013107881 -0.024131894 -0.034228034 -0.006257396
-0.024785329 -0.022360284 -0.01871779 0.011032138 0.042189207 0.038071785 0.030185524 0.019052874
0.021419276 0.040518943 -0.0034399778 0.03681371 0.026228312 0.037682336 0.024550524 -0.0167438
0.009172525 -0.020726755 0.021594588 -0.0075511076 0.033294152 -0.014101518 0.03641716 -0.03724008
-0.017768584 0.007943753 -0.027600769 0.019728731 -0.03354501 0.014218103 0.004295286 0.030522887
-0.02248305 -0.028247833 -0.009726159 0.04083473 0.025014665 -0.013066646 0.007921316 -0.027879966
-0.035514276 0.03229695 -0.021936128 0.008881912 0.02929632 0.038561445 0.028282199 -0.027306769
-0.023532586 0.043464046 0.0150196925 0.0046350844 0.037210185 0.0046786442 -0.042317662 0.028449815
-0.0012721457 0.018406894 0.0053141005 0.023100238 0.022799302 0.031457055 -0.029683113 -0.006085761
-0.03543111 0.0055457503 0.0022421703 -0.022454165 0.018878628 -0.018510021 0.032610122 -0.028637566
0.007173218 0.014625374 0.037058804 -0.033153176 0.02547105 0.011524938 0.031667467 -0.031522688
0.028372329 -0.040771734 -0.03367938 0.0022366978 -0.04027408 -0.016752055 0.012600105 -0.032434285
0.015553463 -0.030442104 0.029123705 -0.035357755 -0.009979699 -0.0025335848 -0.028896542 0.032559033
0.028205875 -0.03868526 0.02173188 0.020431448 0.012921549 -0.023761498 0.026200641 0.015237872
-0.00903004 0.020585228 -0.017245358 -0.03602649 -0.025072675 0.008274332 -0.0011492111 0.025024164
0.023189645 -0.02891995 0.0013713054 0.0018027276 -0.001040522 0.024468433 0.0034423508 -0.039368574
00000000: e203 aa3c 3d5e 09bd 1784 babc 9c66 b7bc
00000010: c0ce abba 40b0 c5bc b232 0cbd d80a cdbb
00000020: 9a0a cbbc ea2c b7bc 0d56 99bc 24c0 343c
00000030: 97ce 2c3d 29f1 1b3d a247 f73c c614 9c3c
00000040: 7a77 af3c 31f7 253d 4071 61bb f9c9 163d
00000050: c2dc d63c cb58 1a3d 2e1e c93c 4b2a 89bc
00000060: 5c48 163c 28cb a9bc 22e7 b03c 486f f7bb
00000070: 735f 083d 0e0a 67bc 292a 153d 0e89 18bd
00000080: 6c8f 91bc 8426 023c 021b e2bc 269e a13c
00000090: 7e66 09bd 0cf3 683c 78bf 8c3b 220b fa3c
000000a0: 602e b8bc 0068 e7bc 785a 1fbc 5142 273d
000000b0: 8eeb cc3c 7c15 56bc 68c8 013c 8764 e4bc
000000c0: 6b77 11bd cf49 043d 65b3 b3bc 7085 113c
000000d0: d6fe ef3c 9bf2 1d3d 12b0 e73c 72b2 dfbc
000000e0: 69c7 c0bc 5b07 323d 2815 763c e8e1 973b
000000f0: b569 183d 504f 993b 4955 2dbd 960f e93c
00000100: 20be a6ba 0eca 963c e821 ae3b b63c bd3c
00000110: 9ac5 ba3c 1dd9 003d 002a f3bc 106b c7bb
00000120: 3620 11bd 20b9 b53b 60f1 123b ccf1 b7bc
00000130: 5aa7 9a3c 54a2 97bc 3192 053d 5499 eabc
00000140: 500d eb3b 449f 6f3c f9ca 173d a0cb 07bd
00000150: aaa8 d03c 18d3 3c3c bfb5 013d ef1d 01bd
00000160: 166d e83c 4300 27bd 64f3 09bd 9095 123b
00000170: 6ff6 24bd 9b3b 89bc ac70 4e3c d0d9 04bd
00000180: f4d3 7e3c b861 f9bc d694 ee3c 4bd3 10bd
00000190: e481 23bc 800a 26bb 71b8 ecbc 9f5c 053d
000001a0: 0210 e73c 6f74 1ebd 0e07 b23c da5f a73c
000001b0: e8b4 533c 79a7 c2bc baa2 d63c 44a8 793c
000001c0: bcf2 13bc 5aa2 a83c 2346 8dbc 8390 13bd
000001d0: 3665 cdbc 1091 073c 20a1 96ba 7aff cc3c
000001e0: 36f8 bd3c 88e9 ecbc 60bd b33a 8049 ec3a
000001f0: 2062 88ba 0672 c83c 1099 613b f140 21bd

weight f4 [5, 128]
-0.08309871 -0.0072892234 -0.008025475 0.031237535 0.08793289 -0.016988464 0.0609395 0.025422849
-0.01661095 0.06258797 -0.059257 -0.0003080815 0.036487214 -0.01746504 -0.02930053 -0.0039504766
-0.08307718 -0.006238036 -0.025805712 -0.045830376 0.010609373 0.08537272 -0.083523095 -0.06750471
-0.022610828 0.0039373785 0.082491554 -0.00045274198 0.061219566 0.026445828 0.086295836 -0.008664757
-0.07616669 -0.005444512 0.087733366 0.049658872 0.029257745 -0.05596214 0.05696567 -0.0030634329
-0.07768783 0.05549676 -0.00050320476 -0.051878333 -0.056511093 -0.047475968 -0.06260001 -0.06267595
-0.020876728 -0.0203434 -0.022063568 0.071658365 -0.0286338 -0.04032267 0.056719653 0.020844862
0.087200575 0.05794417 0.030906588 0.07934151 -0.047244985 -0.021184154 -0.030718055 -0.05667941
0.022474393 0.0065376014 0.056825854 0.010386556 0.041131027 0.0023247749 0.057911985 -0.024308555
0.049258463 0.02604109 0.06389535 0.04210577 -0.010240585 -0.023590654 -0.05155102 0.0061758906
0.035936475 -0.007334091 0.047918566 0.08069048 -0.008019142 0.044678845 -0.076434456 -0.06430756
-0.044392485 0.05082468 -0.0457003 0.08103777 -0.035946816 -0.01372882 -0.06042701 -0.019964628
0.06689056 0.037767597 -0.0746064 -0.070275724 0.005838707 -0.022133552 -0.017753072 0.07933108
-0.04102767 -0.034429498 0.03088291 0.07807683 -0.07552812 0.06295546 0.030515537 0.064350806
-0.0534044 0.017346933 0.0067215934 -0.06077508 0.00047054887 0.014727794 -0.04564137 -0.066149436
0.0047603995 0.04360693 0.04048585 0.07882329 -0.08795697 -0.06251524 0.07285424 -0.0041073337
-0.050901253 -0.068707496 -0.020970851 -0.08003029 0.012057647 -0.013469182 0.056831934 0.040031858
-0.04193741 0.07177699 0.009519175 0.0070685 -0.0005626157 0.025534213 -0.011058472 0.057236694
0.024294369 -0.063006334 0.03435558 0.013614938 -0.020645484 -0.035056524 0.03568683 -0.07994884
-0.025655515 -0.041733578 0.0046302527 -0.060829356 0.015893377 -0.05352952 0.06906801 -0.012021758
0.070372336 0.0537261 0.005618915 -0.058098853 -0.040506206 -0.06418579 -0.010553561 0.07903718
-0.011354394 0.088255666 0.060190268 -0.029819906 0.00502304 -0.06719636 0.016653903 0.07024095
-0.07818905 -0.08389901 -0.05415596 -0.07210492 -0.07217933 0.017953694 -0.048930656 -0.0434738
0.07932361 0.08500589 -0.063704625 -0.04381959 -0.02418898 0.06312785 0.012589999 -0.061938703
0.07521782 0.07785801 -0.0070162937 0.0020216927 0.045904763 0.016229615 0.017984018 -0.0010886416
-0.08835191 -0.0815962 -0.07810137 -0.027011495 0.06880421 0.06813989 0.030400962 0.082847156
-0.076942064 -0.040317263 -0.08405045 -0.036530696 -0.020563208 0.061727487 0.0059225783 0.030843988
0.08615888 0.043577485 0.04735086 -0.088034675 0.034941792 0.051222228 0.06577248 -0.018233307
-0.02533885 -0.075292446 -0.053286437 0.06738152 -0.031979732 0.009285234 -0.0050455555 0.060556628
0.00058472157 0.064427696 -0.06307745 0.06436641 -0.020156458 -0.03682982 0.037645273 -0.023192927
-0.032220136 -0.08437557 0.03041017 0.013696842 -0.047688387 -0.053694084 0.048114173 0.04559418
-0.04123596 -0.048925314 0.031902783 0.06025151 0.03652545 -0.048893526 0.054510213 0.039686076
00000000: a82f aabd 70da eebb 487d 03bc dce5 ff3c
00000010: 2916 b43d 642b 8bbc b29b 793d 9443 d03c
00000020: b013 88bc 1f2e 803d 78b7 72bd 0086 a1b9
00000030: 9e73 153d d812 8fbc aa07 f0bc 0073 81bb
00000040: 5e24 aabd 7068 ccbb 8066 d3bc a2b8 3bbd
00000050: f0d2 2d3c e5d7 ae3d 280e abbd e93f 8abd
00000060: 583a b9bc 2005 813b 55f1 a83d 005e edb9
00000070: 5ec1 7a3d eca4 d83c dfbb b03d a0f6 0dbc
00000080: 48fd 9bbd e067 b2bb 8dad b33d 1a67 4b3d
00000090: f0ad ef3c 8f38 65bd d654 693d e0c3 48bb
000000a0: cc1a 9fbd 9250 633d 80e9 03ba 607e 54bd
000000b0: 2d78 67bd 2976 42bd 6f34 80bd 405c 80bd
000000c0: ac05 abbc 34a7 a6bc a8be b4bc 9fc1 923d
000000d0: 6e91 eabc 6229 25bd de52 683d d8c2 aa3c
000000e0: 3796 b23d de56 6d3d d02f fd3c cd7d a23d
000000f0: f583 41bd 648a adbc 6ea4 fbbc ab28 68bd
00000100: 381c b83c 6039 d63b 3ac2 683d 602c 2a3c
00000110: 0279 283d 405b 183b 1e35 6d3d bc22 c7bc
00000120: 3ec3 493d 2054 d53c 91db 823d 1a77 2c3d
00000130: 20c8 27bc 3041 c1bc 2a27 53bd 205f ca3b
00000140: 2032 133d d052 f0bb 4246 443d 0d41 a53d
00000150: b862 03bc 2a01 373d ab89 9cbd afb3 83bd
00000160: e5d4 35bd 8a2d 503d 3d30 3bbd 21f7 a53d
00000170: f83c 13bd d8ee 60bc 5082 77bd dc8c a3bc
00000180: ebfd 883d 32b2 1a3d 3ecb 98bd b8ec 8fbd
00000190: a052 bf3b 6c51 b5bc e46e 91bc 5578 a23d
000001a0: a10c 28bd f205 0dbd 28fe fc3c bfe6 9f3d
000001b0: 7dae 9abd cbee 803d b8fb f93c 5bca 833d
000001c0: 92be 5abd 281b 8e3c d040 dc3b 4aef 78bd
000001d0: 00b4 f639 d84c 713c 72f2 3abd 5b79 87bd
000001e0: 20fd 9b3b 2e9d 323d 7ed4 253d 1b6e a13d
000001f0: c922 b4bd fd07 80bd 9b34 953d d096 86bb
00000200: d57d 50bd 84b6 8cbd 10cb abbc ece6 a3bd
00000210: 708d 453c d8ad 5cbc 9ac8 683d 72f8 233d
00000220: 90c6 2bbd d1ff 923d 50f6 1b3c e09e e73b
00000230: 807c 13ba 202d d13c 982e 35bc 0671 6a3d
00000240: fc04 c73c 7709 81bd 70b8 0c3d 3011 5f3c
00000250: b820 a9bc 6e97 0fbd 5a2c 123d 38bc a3bd
00000260: 842b d2bc d4f0 2abd 60b9 973b 3428 79bd
00000270: d432 823c c541 5bbd 8773 8d3d e8f6 44bc
00000280: 5f1f 903d e60f 5c3d e01e b83b 10f9 6dbd
00000290: d6e9 25bd d773 83bd d8e8 2cbc 3fde a13d
000002a0: c807 3abc 63bf b43d 128a 763d e048 f4bc
000002b0: 5098 a43b 3f9e 89bd c46d 883c 7dda 8f3d
000002c0: 9521 a0bd 3fd3 abbd a4d2 5dbd bfab 93bd
000002d0: c2d2 93bd a013 933c 836b 48bd 9511 32bd
000002e0: 6b74 a23d 9117 ae3d 9277 82bd 2c7c 33bd
000002f0: f827 c6bc 2d49 813d 4846 4e3c 70b3 7dbd
00000300: cd0b 9a3d 0574 9f3d f0e8 e5bb 607e 043b
00000310: a206 3c3d f8f3 843c 3853 933c c0b0 8eba
00000320: d9f1 b4bd e91b a7bd 9cf3 9fbd 3647 ddbc
00000330: 39e9 8c3d ed8c 8b3d 700b f93c c5ab a93d
00000340: cd93 9dbd b723 25bd a422 acbd 36a1 15bd
00000350: 2c74 a8bc f6d5 7c3d 3012 c23b 88ac fc3c
00000360: 1174 b03d 4e7e 323d faf2 413d 864b b4bd
00000370: 201f 0f3d 66ce 513d b9b3 863d 045e 95bc
00000380: 6c93 cfbc ed32 9abd e142 5abd 53ff 893d
00000390: 2efd 02bd 1821 183c 3055 a5bb 3a0a 783d
000003a0: 0048 193a abf2 833d c02e 81bd 89d2 833d
000003b0: 281f a5bc deda 16bd ee31 1a3d 18ff bdbc
000003c0: 43f9 03bd 19cd acbd c01e f93c b868 603c
000003d0: e654 43bd 54ee 5bbd 5e13 453d f6c0 3a3d
000003e0: 0ae7 28bd e965 48bd 7eac 023d 4aca 763d
000003f0: b69b 153d 9444 48bd 1a46 5f3d de8d 223d

bias f4 [5]
-0.049513612 -0.033142332 -0.013205968 0.070934795 0.03604354
00000000: c9ce 4abd 41c0 07bd d85d 58bc 4346 913d
00000010: 64a2 133d
