memory/Agent1_Actor.pth (torch, 574791 bytes, 10 tensors)

weight f4 [64, 32]
000000 98 6b 05 bd e8 9e 9f bd 52 3d cb 3d 82 fb 6c bd
       -0.032573313 -0.07793981 0.09923805 -0.057857044
000010 89 94 10 3e e0 72 96 3b 9a 51 e2 3d 16 4d ba 3d
       0.14119162 0.004591331 0.110507205 0.09096734
000020 60 89 64 3c 89 d3 1c 3e 9b f6 24 3e a3 a9 21 3e
       0.013948768 0.1531507 0.16109698 0.15787368
000030 26 db 95 3d 0c dc 2f be fb 03 09 be 38 0b d5 bc
       0.0731719 -0.17173785 -0.13380425 -0.026006326
000040 ff c9 1b 3e c0 70 0f be 1c bf 05 3d d8 10 4e bd
       0.15213774 -0.14007854 0.03265296 -0.050309032
000050 80 f6 3f bc 22 bb 1b be 12 03 cb 3d 60 20 e5 bd
       -0.011716485 -0.15208104 0.09912695 -0.11187816
000060 7b 28 2c 3e 20 57 9a bd 73 9c 22 3e 9c bc 4f bd
       0.16812317 -0.07536149 0.15879993 -0.05071698
000070 2f ad ee bd d0 08 7d bc d6 d4 02 be 8e c4 ad 3d
       -0.11654126 -0.015443996 -0.12776503 0.084847555
000080 d2 56 ce 3d 3d c9 0e 3e 35 41 21 3e d0 5d 0d 3d
       0.100751534 0.13943954 0.15747531 0.034513295
000090 eb 09 e2 bd e0 6d a4 bc 90 93 83 3d f3 21 a9 bd
       -0.11037048 -0.020071924 0.0642463 -0.082584284
0000a0 38 64 b2 3c 80 6b 3d 3b 5c f7 2c 3d 7c 71 2f bd
       0.021776304 0.0028903186 0.042228088 -0.042832837
0000b0 df 53 0f 3e b0 67 44 bd 80 ef 70 bb f5 eb 0e be
       0.13996838 -0.047950447 -0.0036763847 -0.13957198
0000c0 90 56 6f 3d 86 01 2b be 74 30 8a bd 01 47 d3 bd
       0.05843216 -0.166998 -0.06747523 -0.10316277
0000d0 5e 44 c5 3d cf 34 00 3e 11 6a f8 bd 9c df 51 3d
       0.09632181 0.12520145 -0.121296056 0.05123864
0000e0 24 66 72 3d f9 5c 2b 3e e2 cd c4 3d 40 22 14 3b
       0.05917944 0.16734685 0.096095815 0.0022603422
0000f0 36 39 a1 3d fe 6c 97 3d 9a bf bc 3d f0 ec 6e bc
       0.0787224 0.073938355 0.092162326 -0.0145828575
000100 ea 02 1d be 15 32 0f 3e d2 e4 27 be aa 95 86 3d
       -0.15333143 0.13983949 -0.16395882 0.06571515
000110 76 00 d2 3d 50 64 f7 bc 6c b8 42 3d 32 40 a7 3d
       0.10253994 -0.0301992 0.04753916 0.08166541
000120 94 fe 98 bd d2 d4 2a be 08 ed 37 bd 93 b5 14 3e
       -0.07470432 -0.16682747 -0.044903785 0.1452239
000130 d8 3d 5b 3d f6 63 80 3d ad ee 23 3e 06 d0 84 bd
       0.053525776 0.06269066 0.16009016 -0.0648499
000140 e6 b0 e7 3d 00 c4 62 3b a7 1d 26 3e e6 6d 2e be
       0.113130376 0.0034601688 0.16222249 -0.1703411
000150 0e d3 f0 3d 4f 6d e6 bd 84 05 5b 3d 96 1f 89 3d
       0.117590055 -0.11251318 0.053472057 0.06695478
000160 00 9a 19 ba 36 71 f6 3d 69 8e 1c 3e 84 f8 2f 3d
       -0.00058594346 0.12033312 0.152887 0.042961612
000170 aa a9 cd 3d f0 2f 58 3c 42 9c 09 be 60 93 0d bc
       0.100421265 0.013195023 -0.13438514 -0.008641094
000180 3c 11 89 bd b4 2c 7c 3d dc b6 01 3d 42 4a 8f bd
       -0.0669274 0.06156607 0.03166853 -0.069965854
000190 92 6f ca 3d 03 a0 2c 3e 88 c2 b5 bd 60 c7 28 3c
       0.098845616 0.16857915 -0.088749945 0.010301441
0001a0 a0 92 4d bd b2 45 8d 3d b8 74 da bc 24 ed 18 bd
       -0.05018866 0.06898059 -0.026666984 -0.03733553
0001b0 f8 b7 06 3d 96 99 a8 bd 6e 13 e0 3d 67 d5 02 3e
       0.03289029 -0.08232419 0.10941206 0.12776719
0001c0 34 f1 60 3d c6 ed 65 bd 7e 93 eb bd b0 6d e5 3c
       0.05491753 -0.05613496 -0.11502741 0.028006405
0001d0 1d b4 12 3e 86 f2 07 be ec 6d 54 bd 3a 2f a5 bd
       0.1432652 -0.13276109 -0.051862642 -0.080656484
0001e0 1f 4c 0f 3e 2c 94 73 3d dd 7a 19 3e 36 af b9 3d
       0.13993882 0.05946748 0.14988275 0.09066622
0001f0 0e 52 59 bd 80 76 64 3d 63 3d ac bd 49 17 ba bd
       -0.05305677 0.055777073 -0.08410146 -0.090864725
000200 30 85 a8 3c 1b f9 cb bd 5a 7a fe 3d 26 6d f6 bd
       0.020571321 -0.099596225 0.124256805 -0.12032537
000210 58 af dd bc 4e 64 ca 3d fa c5 9c 3d 74 e7 18 be
       -0.02706115 0.09882413 0.076549485 -0.14932042
000220 5d 1b 16 3e ba 03 e2 3d d8 2c 82 bc 46 27 13 be
       0.14658876 0.11035867 -0.015890524 -0.1437045
000230 a0 0a 10 bd 34 08 cd bd ce fd c8 3d 90 af 4f bc
       -0.035166383 -0.1001133 0.098140344 -0.012676135
000240 60 62 b4 bb 7e f9 a8 3d 10 51 73 bc 98 4c 24 be
       -0.0055048913 0.08250712 -0.01485087 -0.16044843
000250 dc ba 23 bd be d8 f1 bd 18 49 80 bc fe 2b ae 3d
       -0.039973125 -0.118089184 -0.015659854 0.085044846
000260 65 a4 0a be 33 bb 09 3e 40 a1 5a bd c5 a2 1b 3e
       -0.13539274 0.13450317 -0.053376436 0.1519881
000270 da 60 dc 3d aa e7 05 be 18 a4 80 bc 93 ec 1f 3e
       0.107606605 -0.13076654 -0.015703246 0.1561759
000280 a8 1f e1 bd 70 b5 c0 bd c0 2e d7 bb 0e 7d 2d be
       -0.10992366 -0.094096065 -0.0065668523 -0.16942236
000290 fa 8f 1b be 1a 4b d2 3d d8 e5 a7 bc 74 14 24 be
       -0.15191641 0.10268231 -0.02049534 -0.16023427
0002a0 00 c3 dd 3c 20 1e c6 3b 50 5b 39 3c ba 76 95 3d
       0.027070522 0.0060460716 0.0113132745 0.07298036
0002b0 73 fc 0b 3e 80 a3 35 3d 27 05 0f 3e e8 33 a7 bc
       0.1367052 0.04434538 0.13966809 -0.020410493
0002c0 30 53 10 bd 41 ee 2c be 6d 89 02 3e a8 dc cb bd
       -0.035235584 -0.16887762 0.12747736 -0.09954196
0002d0 66 8f a7 3d 99 4e 2a 3e 34 11 59 bd 13 cf 1c be
       0.08181648 0.16631545 -0.05299492 -0.15313368
0002e0 00 f8 ea b8 00 b2 3f bd 26 2b 97 3d 4f d1 b4 bd
       -0.00011204183 -0.046800613 0.07381277 -0.08828985
0002f0 72 eb 2b be 13 6d 00 be cf 3c 1e be 40 de c2 3b
       -0.16789034 -0.12541609 -0.15452884 0.0059469044
000300 ed e0 1b 3e e8 c0 0c bd 8a 1b a6 3d a0 f1 e5 3b
       0.15222521 -0.034363657 0.081107214 0.0070173293
000310 80 11 51 3b 29 54 1b 3e 5e f9 28 be 61 56 34 3e
       0.00319013 0.15168823 -0.16501376 0.17611076
000320 7b ea 9a bd 64 87 39 bd a0 d3 fb 3b cc 53 78 bd
       -0.07564255 -0.045295134 0.00768514 -0.06062679
000330 7e b6 ea 3d 06 88 d2 3d dc c1 4a bd 6a 6c b1 3d
       0.11460589 0.10279851 -0.049501285 0.086632565
000340 50 df 1c bc 7e cd 87 3d 4f 79 1a 3e 68 8d 35 bd
       -0.009574726 0.066309914 0.15085338 -0.04432431
000350 56 d6 10 be 11 a1 1d 3e 30 05 ac bc 5c 1d 3a bd
       -0.14144263 0.15393473 -0.020998567 -0.045438156
000360 74 17 fb bd eb 4b 04 be b8 42 8f bc 6e e7 0e be
       -0.12260333 -0.12919585 -0.017487869 -0.13955471
000370 68 a3 1f 3d 4f 08 0b 3e 40 c8 41 3d 60 13 cf bd
       0.038974196 0.13577388 0.047310114 -0.10111117
000380 bd 00 b5 bd 20 58 0e bd 70 15 0e be 75 96 0e 3e
       -0.088380314 -0.03475201 -0.13875365 0.13924582
000390 30 a2 5d bc 3e cd d2 3d d3 cd aa bd 98 d1 be bc
       -0.013527438 0.10293053 -0.08340039 -0.023293301
0003a0 a8 0a 15 bd 18 6d fa bd 00 19 f2 3a 5c 83 2e bd
       -0.036387116 -0.12227839 0.0018470585 -0.042605743
0003b0 42 db b5 3d 84 0c f7 bd 20 45 7f 3d 98 af b5 bc
       0.08879711 -0.12062934 0.062321782 -0.022178456
0003c0 02 78 24 be ce 55 bc 3d 80 ef 22 be e0 6c d4 bc
       -0.16061404 0.091960534 -0.15911674 -0.025930822
0003d0 61 00 1a 3e 94 39 72 3d 28 49 33 bd 26 c8 61 bd
       0.15039207 0.059136942 -0.04377094 -0.055122517
0003e0 46 d9 f5 bd 75 dd 24 3e df e1 94 bd b2 2d 0d be
       -0.12004332 0.16100104 -0.07269644 -0.13786963
0003f0 06 32 83 bd aa fb c6 bd ee 27 83 3d a9 f0 21 be
       -0.064060256 -0.0971597 0.064041 -0.15814461

bias f4 [64]
000000 da e2 e4 3d 70 3d 9e bc ea fd 70 bd fc 17 f0 bd
       0.11176081 -0.019316405 -0.0588359 -0.11723325
000010 7f 56 1c be ff 46 2b 3e 4c b1 4f bd 20 95 05 bd
       -0.1526737 0.16726302 -0.050706193 -0.03261292
000020 69 34 0f 3e 9a c6 a9 3d f8 77 95 bc 54 4a 32 3d
       0.13984837 0.08289833 -0.018245682 0.043527916
000030 c0 f4 de bb 46 50 fe 3d d9 1c 91 bd 26 1b a3 3d
       -0.006804079 0.12417655 -0.070855804 0.079641625
000040 c0 7a ec 3b 6f 8a 26 3e e6 87 b7 3d a0 cd a8 3b
       0.0072167814 0.16263746 0.089614674 0.0051514655
000050 23 9b 0c 3e 7d ae 30 3e fe c2 a4 3d 72 50 e8 3d
       0.13731055 0.17254062 0.08045004 0.11343469
000060 12 6c 79 bd 18 ef 59 3d 50 46 a8 bc 1e d6 12 be
       -0.06089408 0.053206533 -0.02054134 -0.14339492
000070 00 c0 96 b9 76 b0 ce 3d a0 7b bd bc 60 5c 36 bd
       -0.0002875328 0.10092251 -0.023130238 -0.04452169
000080 40 d7 a6 bd f6 bb a1 3d e0 b0 df 3c 3f cc 1e 3e
       -0.081465244 0.07897179 0.02730602 0.15507601
000090 c0 5b 8b 3c 41 a8 11 3e ce 12 ac 3d 85 c5 cd bd
       0.017011523 0.1422434 0.08402024 -0.100474395
0000a0 ee 19 f4 bd 96 03 a9 3d 44 58 2a bd 60 7d 45 3d
       -0.11919008 0.08252637 -0.041588083 0.04821527
0000b0 0d 86 19 3e 2a c7 e8 3d 7e f0 e7 3d 20 57 41 bd
       0.14992543 0.113661125 0.11325167 -0.04720223
0000c0 58 7d 7a bd 98 0e 97 bc 2a f6 8a bd 70 62 6c 3c
       -0.061154693 -0.018439576 -0.06785233 0.014427766
0000d0 e2 d9 dd 3d b8 74 15 be 92 f2 ca 3d 58 a8 3d 3d
       0.108325735 -0.14595306 0.09909548 0.046303123
0000e0 10 d2 d1 bd 0c d0 2e be f6 30 c3 3d ae 62 b5 3d
       -0.10245144 -0.17071551 0.09530823 0.08856712
0000f0 78 a5 09 bd 60 9b 34 3d 30 87 57 3d bf 60 17 3e
       -0.03360507 0.04409349 0.05261916 0.14783

weight f4 [128, 64]
000000 bc 65 24 bd 18 5c dc bc 7c 7c 19 bd e8 91 d2 3c
       -0.040136084 -0.026899382 -0.037472233 0.02570434
000010 66 12 c3 bd 12 bb 98 bd d0 01 f6 bc 1c db 2d 3d
       -0.095249936 -0.07457556 -0.030030161 0.042445287
000020 86 35 c5 3d 3a 0a d5 3d 9e 8c d7 bd d8 3e f3 bd
       0.096293494 0.10402341 -0.105248675 -0.11877221
000030 3e ea 85 3d 94 99 68 3d 4a c4 e6 bd 64 42 6a 3d
       0.06538819 0.05678709 -0.11267908 0.05719222
000040 a4 a0 c7 3d ae 9e b6 bd c4 bd e2 3d a2 52 ae 3d
       0.09747437 -0.089169845 0.11071351 0.08511855
000050 42 4b 8c bd ee 07 94 bd a0 18 da 3d e8 48 19 3d
       -0.06850292 -0.07228075 0.10649228 0.037423044
000060 68 c3 a1 3c bc bc f7 3d c4 e1 31 bd 2c 83 5a bd
       0.019746497 0.12096545 -0.043428198 -0.05334775
000070 94 dd 68 3d e0 ee ae bb 3c 28 52 3d 84 e3 29 3d
       0.05685194 -0.0053385347 0.0513079 0.04147674
000080 da 8a f7 bd 90 ed 6f bd 88 9d 84 bc 80 20 5b bb
       -0.12087031 -0.058576167 -0.016188398 -0.003343612
000090 8a a2 bf 3d bc 8e 09 bd 2c 8b cd bd 10 d3 85 bc
       0.09357174 -0.033583388 -0.100363106 -0.016335994
0000a0 90 d2 74 3d a0 1c 2a bc 4c b8 f8 3d d4 29 6a 3d
       0.05977112 -0.010382801 0.12144527 0.057168797
0000b0 74 41 4e 3d 4c da eb 3d 90 7a df bc 0c 62 28 bd
       0.05035539 0.11516246 -0.027280122 -0.04110913
0000c0 f0 b9 6d bd d0 77 0f bd f8 8e 32 bd 96 bf c3 bd
       -0.058038652 -0.03502637 -0.043593377 -0.095580265
0000d0 98 96 a9 3c 24 44 61 3d d0 68 9d 3c b8 55 1c 3d
       0.020701692 0.054996625 0.019215018 0.038167685
0000e0 10 6a db bd 10 a2 a7 bd d8 96 d2 3d d0 98 27 bc
       -0.10713589 -0.08185208 0.102826774 -0.010229304
0000f0 a6 c2 aa bd 60 9c fe bd 60 27 b8 bb d8 d8 a2 bd
       -0.083379075 -0.1243217 -0.0056199282 -0.07951516
000100 98 bf e3 bd 80 dd 4e 3c b8 7b de 3c f4 4e b7 3d
       -0.11120528 0.012626052 0.027158603 0.08950606
000110 2c 77 f9 bd e6 30 82 3d 5c 6c 5d bd 58 b1 86 bd
       -0.12180933 0.06356983 -0.054058418 -0.065767944
000120 0e 1e dd bd d4 cc 90 3d f8 d1 9e 3d 58 94 01 bd
       -0.10796748 0.07070318 0.07754892 -0.031635612
000130 32 88 cc bd 76 eb f2 bd cc 3f 46 bd 2e 5f f7 bd
       -0.09986915 -0.11861317 -0.048400685 -0.12078701
000140 a0 2b e8 bc c6 18 fe 3d a6 90 e1 bd e4 a7 0e bd
       -0.028341115 0.12407069 -0.110139176 -0.03482808
000150 60 43 58 3d e8 79 d6 bd 26 33 9d bd f4 8c 3d 3d
       0.05279863 -0.104724705 -0.076757714 0.046277
000160 bc f9 24 bd 00 bd aa ba e0 75 47 3d 70 85 5f 3d
       -0.040277228 -0.0013026297 0.0486964 0.054570615
000170 60 e1 f6 3b c0 d7 a7 3c 00 36 81 3b 7c d4 1b bd
       0.007534191 0.02048862 0.003943205 -0.038044438
000180 60 e2 a6 bb f0 51 64 3d ca a4 fa 3d b8 6e 81 bd
       -0.005092904 0.055742204 0.12238462 -0.06319946
000190 00 80 73 b8 9e 35 87 3d 70 15 a9 bd 4c 27 2d bd
       -5.8054924e-05 0.066020235 -0.08256042 -0.042273805
0001a0 b4 4b d7 bd e8 a1 b9 3c 04 bb 25 3d 56 5f e1 bd
       -0.10512486 0.02266021 0.040461555 -0.11004512
0001b0 84 a3 22 bd 70 c8 01 3c 0c b3 e4 3d 88 d6 35 bd
       -0.039706722 0.007921323 0.11166963 -0.044394046
0001c0 1c 65 35 3d f8 c3 c6 3c 14 df bd bd d2 e5 8e bd
       0.04428588 0.024263367 -0.092710644 -0.069774285
0001d0 32 79 84 bd a6 1e 90 bd fe 16 d3 bd e0 44 4c 3c
       -0.06468429 -0.07037096 -0.1030712 0.012467593
0001e0 f2 01 a2 3d f8 a0 23 bd be d9 98 bd 44 cf 15 bd
       0.07910527 -0.039948434 -0.07463406 -0.036574617
0001f0 40 c9 9f bb 38 a9 98 bd 58 ca 85 bc a2 7b ea bd
       -0.004876286 -0.07454151 -0.016331837 -0.11449362
000200 b4 6c ea bd 10 ae 7f bd 00 06 70 3d 10 3c e7 3c
       -0.11446515 -0.06242186 0.058599472 0.028226882
000210 10 7a 58 3d ee b7 9d bd b0 1a ee 3d 08 e4 0b bd
       0.052850783 -0.077010974 0.11626184 -0.034153014
000220 08 2d 44 bd 48 0c 80 bc d8 eb 18 bd 1e eb a3 3d
       -0.047894508 -0.015630856 -0.037334293 0.080038294
000230 94 4f ac bd bc cb 84 3d aa 8b c2 3d 34 5a ee bd
       -0.08413616 0.06484172 0.09499295 -0.11638299
000240 88 44 43 bd 88 ab 66 bd 42 bc c1 bd 9a 69 dc 3d
       -0.04767278 -0.05631593 -0.094597355 0.107623294
000250 4c 25 96 bd d8 ed 9d 3d ca 4a fe 3d 40 29 2e 3c
       -0.073313326 0.07711381 0.12416609 0.010629952
000260 60 7d cf 3c 2c f5 c0 bd 4c c2 50 bd be 88 d9 3d
       0.025328338 -0.09421763 -0.050966546 0.106217846
000270 04 a4 00 bd 62 bd d6 3d fe 8c d8 3d 0a d0 9b bd
       -0.031406417 0.10485341 0.10573767 -0.0760804
000280 d6 50 a6 3d f4 f0 fc 3d 04 5a 97 bd 10 3e 0a 3c
       0.08120887 0.12350646 -0.07390216 0.008437648
000290 c4 8b 0e bd a0 f2 2a bc 58 a3 fc bc 10 3d 79 3c
       -0.03480126 -0.010433823 -0.030839607 0.015212312
0002a0 e4 7b 7b bd 4c 3e a7 3d 50 3c 8f bc ac 89 7e bd
       -0.06139745 0.08166179 -0.017484814 -0.062143013
0002b0 c4 86 c4 bd 80 d1 dc bd 90 45 42 3d b0 b1 a3 3d
       -0.09596017 -0.107821465 0.04742962 0.079928756
0002c0 72 4b c8 3d 30 ea 86 3c 56 07 ab bd 66 da ef 3d
       0.09780015 0.016469091 -0.083510086 0.11711578
0002d0 88 24 5e 3d a8 5e dd 3c c8 e0 e1 3d f0 92 5d bc
       0.054234058 0.027022675 0.11029202 -0.013523802
0002e0 40 fe 76 bb 70 7c 76 bd 98 37 f0 3d 18 2a 27 bd
       -0.0037688166 -0.060177267 0.11729354 -0.040811628
0002f0 08 af fe 3c a0 fb 9c bd a4 2f f6 3d 24 c1 1c bd
       0.03108932 -0.07665181 0.120208055 -0.03827013
000300 0e 81 c2 bd 18 b9 fa 3c 32 50 f8 bd 48 cd 95 bc
       -0.094972715 0.030605838 -0.12124671 -0.018286362
000310 0c 31 13 3d 4c 7b 1d bd a4 c4 76 3d 18 2b b6 bd
       0.035935447 -0.038447663 0.060246125 -0.08894938
000320 e2 d4 c5 bd 08 fc fb bc 44 ff e6 3d 9c e2 61 3d
       -0.09659745 -0.030759826 0.11279157 0.055147752
000330 a6 f0 c1 3d e8 7a bd bc 04 4e cb bd d8 f5 44 3d
       0.09469728 -0.023129895 -0.0992699 0.048086017
000340 f8 fa e1 bc 8c 40 65 3d 08 83 0e bd 30 9d 4c bd
       -0.027585492 0.05596976 -0.03479293 -0.049954593
000350 60 96 0f 3d 40 38 ca bb 54 af 8f bd 98 38 d4 3d
       0.03505552 -0.0061712563 -0.07015863 0.10362357
000360 aa cc e6 3d 38 68 a3 bc 18 4d 6b 3d 10 8d 84 bc
       0.11269505 -0.019947156 0.05744657 -0.016180545
000370 28 b5 1e bd 40 25 03 bd c0 bd 7e 3d 9c 05 88 3d
       -0.038746983 -0.032017946 0.06219268 0.06641695
000380 60 a9 b5 bb 68 c5 ec 3d bc b5 f7 bd a4 f2 d4 3d
       -0.0055438727 0.1156109 -0.1209521 0.103978425
000390 34 55 13 3d 60 02 9e bb 08 8f 9d 3c 00 8b 44 3d
       0.035969928 -0.0048220605 0.019233242 0.047984123
0003a0 50 cf 83 3d 90 01 2d 3c b6 6f c6 bd b2 56 8e 3d
       0.06436026 0.010559455 -0.09689276 0.069501296
0003b0 00 60 a6 bc f0 b9 aa 3d 48 2c 80 3d 24 0c 4c 3d
       -0.020309448 0.08336246 0.06258446 0.049816266
0003c0 c0 a6 13 3d 00 0c 62 3a e8 a1 9b bd ac a3 d7 3d
       0.036047697 0.0008623004 -0.075992405 0.10529265
0003d0 e6 e2 b4 3d 90 e8 a6 bd d4 3e 18 3d 34 72 cb 3d
       0.0883234 -0.081498265 0.037169293 0.09933892
0003e0 12 62 bd bd e4 e0 40 bd 10 67 6b bc a8 10 80 3c
       -0.09247221 -0.047089472 -0.014367834 0.015632942
0003f0 c8 91 09 3d a8 a0 52 3d 70 6e 22 bd a8 53 80 bc
       0.033586293 0.051422745 -0.039656103 -0.01566489

bias f4 [128]
000000 14 75 8d 3d d0 d2 46 bd 84 74 35 3d 60 97 a8 bb
       0.069070965 -0.04854089 0.04430057 -0.0051449984
000010 46 4d bc bd e8 ff e0 3d 34 92 87 bd 80 e5 27 3b
       -0.09194426 0.1098631 -0.06619683 0.002561897
000020 7c 23 a0 3d e0 b8 3d 3d ee 55 e3 bd c8 fa 4c bd
       0.07819268 0.04631889 -0.11100374 -0.05004385
000030 4c 0a 85 bd 40 17 ee 3c 80 52 33 3b b8 ea 51 bd
       -0.064961046 0.02906382 0.0027362406 -0.051249236
000040 40 56 1f 3c 9c ce f4 bd a8 af ba bc 0c 46 b7 bd
       0.009725153 -0.1195347 -0.022788838 -0.08948907
000050 2c 9c 2c 3d e6 a8 cd bd 50 72 9c 3c 80 7d 7b bb
       0.042141125 -0.100419804 0.019097477 -0.0038374364
000060 4c e7 5a bd e0 5f db bd f2 bf d5 3d f6 70 e1 3d
       -0.05344324 -0.10711646 0.10437001 0.11007874
000070 28 99 22 bd 14 c6 8e 3d a4 df c6 bd 36 ef ef 3d
       -0.039696842 0.06971374 -0.09710625 0.11715548
000080 b0 bc d9 bc 10 a6 f9 3c b0 b5 90 bc 34 b5 10 3d
       -0.026579231 0.030474693 -0.01766476 0.03532906
000090 50 a2 86 bc d0 c2 03 3d 90 8c c0 3d 38 1a 2d bd
       -0.016434819 0.03216821 0.0940181 -0.042261332
0000a0 30 a2 1e 3c fc 70 f8 bd de cb da 3d 38 1d d7 3d
       0.009682223 -0.12130925 0.10683416 0.1050362
0000b0 40 58 16 bb a0 b0 90 bb 5a 9d 96 3d 90 b4 49 3c
       -0.0022940785 -0.0044155866 0.07354231 0.012311116
0000c0 80 07 3f 3d b4 0f 8b bd 80 1e 0b 3b 58 a8 ac 3d
       0.046638012 -0.067901045 0.0021227896 0.084305465
0000d0 0a 51 d6 3d 18 8e 26 3d 5c f6 fb 3d 1c cb d0 3d
       0.10464676 0.040662855 0.12302849 0.1019499
0000e0 60 80 79 3c 64 31 92 bd b8 9b f5 bc f8 63 c0 bd
       0.015228361 -0.07138327 -0.029981479 -0.093940675
0000f0 dc 6f 20 3d 22 e3 cb bd a2 56 e9 bd 6c 8c f4 bd
       0.039169177 -0.099554315 -0.11393477 -0.11940846
000100 60 78 46 3d ac 41 94 3d e4 09 41 bd 1a 3c c9 bd
       0.048454642 0.072390884 -0.047128573 -0.098259166
000110 b0 be 37 bc 5c ae 0f 3d 38 40 18 bd 60 0c 3a bc
       -0.011214897 0.03507839 -0.03717062 -0.0113554895
000120 50 21 bd bc 48 76 c1 3d d8 46 2a 3d a0 34 9d 3c
       -0.023087174 0.094463885 0.041571468 0.019190133
000130 c0 68 0e bb 60 dc 9d 3b c0 90 b9 3c d0 e9 80 3c
       -0.0021729916 0.0048175305 0.02265203 0.01573649
000140 ca e5 c5 bd 34 65 d4 3d dc 1e 28 bd 90 7c 69 bd
       -0.096629694 0.103708655 -0.041045055 -0.057003558
000150 18 bc f6 bc 40 55 26 3b f2 20 86 bd f8 d9 72 bd
       -0.030118987 0.0025380403 -0.065492526 -0.059289902
000160 26 d5 91 3d e4 9f 94 bd d6 35 db bd 1c 9b 94 3d
       0.07120733 -0.07257059 -0.10703628 0.07256147
000170 74 4e 24 bd 00 36 56 3b 88 91 cb 3c 3e 20 b0 3d
       -0.04011388 0.0032685995 0.024849668 0.085999
000180 f4 1a 99 3d c0 8e a1 bb 10 59 5c 3d 24 1b 40 3d
       0.07475844 -0.004930347 0.053795874 0.046900883
000190 00 83 17 bd 88 82 37 3d 60 3a 65 3d b8 e1 91 3d
       -0.036990166 0.04480222 0.055963874 0.071231306
0001a0 d4 7a 67 bd b8 33 9a bd 4c f0 b8 3d 70 a0 37 3c
       -0.056513622 -0.07529396 0.09030208 0.011207685
0001b0 48 d8 bb bc 46 d3 9d bd f0 50 17 bd be d8 9c bd
       -0.02293028 -0.07706313 -0.036942422 -0.07658528
0001c0 c0 69 d5 bd 16 8e f2 bd 70 8c a2 3c 60 ea e4 3b
       -0.10420561 -0.11843507 0.019842356 0.0069859475
0001d0 10 a3 0e 3c 76 15 d3 3d f8 a2 2e bd b4 e3 bc 3d
       0.008705869 0.10306828 -0.042635888 0.092231184
0001e0 68 c4 72 3d c0 81 68 bb 64 37 eb 3d cc c3 49 3d
       0.05926934 -0.0035477728 0.11485174 0.049258992
0001f0 1c fc 16 bd 54 0e c5 bd 98 96 51 3d 34 e3 aa bd
       -0.036861524 -0.096218735 0.051169008 -0.08344117

weight f4 [512, 128]
000000 96 4b 16 3d 18 30 42 3c 43 9a 39 bd 0c bb cf 3c
       0.036693178 0.011852287 -0.04531313 0.025357746
000010 a8 0b ff 3c fa e4 7e 3d 5c 87 10 3d e0 71 b8 bc
       0.031133488 0.062230088 0.03528534 -0.022515237
000020 d0 d8 79 bc 18 ed ab bd c7 3f 49 bd 84 83 a1 bc
       -0.015249446 -0.083948314 -0.04913309 -0.019716032
000030 82 7f a7 bd 05 1f ad 3d 2c 69 15 3d e6 e8 4c 3d
       -0.08178617 0.08453182 0.036477253 0.050026797
000040 e3 ef b4 bd a5 b0 67 bd b0 0a df 3c ef 3f 55 bd
       -0.08834817 -0.056564946 0.027226776 -0.052062925
000050 ce 62 a9 bd f6 cd 4b 3d b7 cf 90 3d 60 89 74 bd
       -0.082707986 0.049756967 0.070708685 -0.059701324
000060 8a 3c 4c 3d c2 0d 83 bd ef 01 26 bd c0 7d b6 bb
       0.049862422 -0.063991085 -0.040529188 -0.00556919
000070 7c 75 9c bd f0 9e e4 3c 86 95 3e 3d 36 7f 72 3d
       -0.07639596 0.027907819 0.046529315 0.05920335
000080 b7 1f 9d bd ed 30 af 3d 46 ff 2b 3d 36 79 1d 3d
       -0.07672065 0.08554254 0.041991495 0.038445674
000090 bd d7 99 3d ee bd 6b bd b8 56 dd bc 80 25 7a 3a
       0.07511852 -0.057554178 -0.02701889 0.0009542331
0000a0 cd ff 90 3d a7 a5 41 bd 8b b3 47 bd f4 6d e5 3c
       0.0708004 -0.04727712 -0.04875521 0.028006531
0000b0 96 46 40 3d 49 6d 5c bd 4a 65 f5 bc 92 c7 1b 3d
       0.046942316 -0.05381516 -0.029955525 0.038032122
0000c0 31 0d 50 bd 14 ad 81 3c a0 e5 99 bc 49 9c b3 bd
       -0.05079383 0.0158296 -0.018786252 -0.087700434
0000d0 8b 69 66 bd 16 23 81 bd 02 e6 18 3d b6 a5 0c 3d
       -0.056252997 -0.0630552 0.037328728 0.03433772
0000e0 ba 71 18 3d 5c 04 4f bd 05 1f 03 bd b6 a6 a3 bd
       0.037217833 -0.050541267 -0.032012004 -0.07990782
0000f0 02 10 a3 bd ca 96 22 bd 88 21 47 3c 85 d2 4a bd
       -0.079620376 -0.039694585 0.012153991 -0.049517173
000100 66 96 20 3d d0 68 f0 3b 98 e8 35 bc 34 3f 9b bc
       0.03920593 0.0073367134 -0.011102818 -0.018951036
000110 a6 57 23 3d 30 e1 df bc f1 65 b1 bd 60 f5 ab bb
       0.03987851 -0.027329057 -0.08662022 -0.005247757
000120 a8 9a d8 3c 64 01 9f 3c 64 82 a5 bd cb 29 60 bd
       0.026440933 0.019409843 -0.08081511 -0.054727357
000130 ed d2 87 3d 5d 6b 47 bd 40 3b 4f bb 70 46 64 3c
       0.06632028 -0.048686374 -0.003162101 0.013932809
000140 38 e4 3d 3c 80 0c f1 3c bf 9c 8c 3d d0 51 10 3c
       0.011590056 0.029424906 0.068658344 0.008808568
000150 ae 8e a2 bd d0 a1 f0 3b 1c 29 35 bd be 7b 80 bd
       -0.0793737 0.0073435083 -0.044228658 -0.06273602
000160 b9 60 a8 3d 2c 9b 98 bd d8 f8 c0 bc 02 c6 7c 3d
       0.082215734 -0.07451472 -0.023556158 0.061712272
000170 20 d5 9f bc f2 df 3b 3d c8 13 ca 3c 39 97 97 bd
       -0.019510806 0.045867868 0.024667636 -0.0740189
000180 f0 44 09 3c aa b3 8c bd 58 52 1b bc a9 3c b1 bd
       0.008378252 -0.06870206 -0.0094800815 -0.08654148
000190 78 77 aa bc 8e e3 2f 3d 85 9a 9e bd d8 eb 22 bc
       -0.02080892 0.042941622 -0.07744316 -0.009943925
0001a0 8b 71 a0 3d 3f bc 95 bd a5 2d 8a bd 94 54 9e 3c
       0.078341566 -0.07311296 -0.06746987 0.01932744
0001b0 f6 1e 7f 3d 6c d0 10 3d bf 11 80 bd 58 0b 10 3c
       0.062285386 0.035355017 -0.06253385 0.008791767
0001c0 28 38 a4 3c 49 b3 9a 3d 49 1b 96 bd bc 0c 92 bc
       0.020046309 0.07553727 -0.07329423 -0.017828338
0001d0 b0 70 3f bc 52 5e 03 3d 18 ea 1a bc b1 cc a4 bd
       -0.011684582 0.032072373 -0.009455226 -0.08046854
0001e0 01 f4 8d 3d 1c af 09 3d 3a d0 79 bd 9d 23 9c 3d
       0.06931306 0.033614263 -0.060989596 0.0762398
0001f0 d3 c0 ab 3d b8 49 60 bc f3 db 68 bd d4 f4 87 3c
       0.08386388 -0.013689451 -0.056850385 0.016596235
000200 89 32 a8 3d 00 1d a5 3a 35 46 5c bd ae 59 72 bd
       0.08212764 0.0012597144 -0.053777892 -0.059167556
000210 33 fc 9b 3d c2 07 6f 3d 90 46 90 bd 64 ce 45 bd
       0.076164626 0.058357008 -0.07044709 -0.048292533
000220 fe 2a 91 bd de 2e 47 3d 4a 35 06 3d 54 13 54 bd
       -0.07088278 0.04862868 0.032765664 -0.051776245
000230 e8 93 bb 3c 12 85 72 bd 85 3f 78 bd 71 b7 a3 3d
       0.022897676 -0.059208937 -0.060607452 0.07993973
000240 57 c7 97 3d 2d df 8f 3d d4 35 fc bc d6 b3 9f bd
       0.07411068 0.07024989 -0.030787386 -0.07797973
000250 4c 67 02 3d 02 af 8e bd b8 6e a2 bc d7 99 af 3d
       0.031836793 -0.06966974 -0.019828185 0.085742645
000260 89 7d 81 3d ad a2 8d 3d 06 d7 3a 3d 51 ec a2 3d
       0.06322772 0.069157936 0.04561522 0.0795523
000270 30 0c f7 3b f7 ce 90 3d 50 e8 b9 3c f6 f8 1f 3d
       0.0075392947 0.070707254 0.022693783 0.039055787
000280 59 21 7e bd ce 10 1f 3d 37 c4 34 bd af b1 ae 3d
       -0.06204352 0.038834386 -0.044132438 0.08529984
000290 05 d8 9b bd e2 5a 55 3d 55 70 9e 3d 22 5b 2a 3d
       -0.07609562 0.052088626 0.077362694 0.041590817
0002a0 11 54 8a 3d 8f 26 5b bd c4 15 b4 bd 76 db b4 bd
       0.06754316 -0.05350357 -0.08793214 -0.08830921
0002b0 b8 81 16 3c 36 fe 80 bd d0 c5 fd 3b e1 dc 59 bd
       0.009186201 -0.06298487 0.0077445284 -0.053189162
0002c0 cf 1f b0 bd 20 1d 86 bd 1a ea 13 3d 80 41 e6 3b
       -0.08599817 -0.06548524 0.03611193 0.007026851
0002d0 c4 b5 9d bc b0 ed f9 3c 83 58 81 3d 80 76 68 3c
       -0.019251712 0.030508846 0.063157104 0.014188409
0002e0 88 1e 06 3c 80 2b 14 3b a4 8b 07 3d d0 9c b5 bb
       0.00818599 0.0022608936 0.033092156 -0.005542375
0002f0 a4 8d b0 bd 90 35 f9 bb 2d 4e 1a bd ab 01 13 bd
       -0.08620766 -0.007605262 -0.03767221 -0.035890263
000300 94 38 fc 3c 67 b5 a9 bd a0 77 cb 3b a8 b0 de 3c
       0.030788697 -0.08286553 0.006209329 0.027183846
000310 20 42 75 3b 08 84 11 bc c0 cc 96 ba 2f 2b a8 bd
       0.0037423447 -0.008881576 -0.0011505112 -0.082113616
000320 d7 98 b0 bd 82 6c 67 3d 86 ff 71 3d 32 91 60 bd
       -0.08622902 0.056499965 0.059081577 -0.05482597
000330 d5 49 82 3d 00 11 6f ba a2 91 7d 3d 64 49 07 3d
       0.063617386 -0.00091196597 0.061906464 0.033028975
000340 d3 4f 1c bd 63 4a 5b bd 80 e6 5c bc 60 f2 0c bc
       -0.038162064 -0.053537738 -0.01348269 -0.008602709
000350 40 b7 9e bb b1 c3 ab 3d c0 c0 fc ba cb 5f ab bd
       -0.0048436224 0.083869345 -0.0019283518 -0.083678804
000360 7e b0 d6 bc b7 a2 5a bd 54 d6 f2 3c ee 15 34 3d
       -0.026207205 -0.053377833 0.029643215 0.043966226
000370 3a c0 24 3d 48 39 a8 3c 58 13 98 bd ad 9f 8c 3d
       0.040222384 0.020535126 -0.074255645 0.06866393
000380 e6 0b 78 bd b8 0e 79 bc b4 ac f6 3c a8 41 54 3c
       -0.060558222 -0.015201263 0.030111648 0.012955107
000390 f0 6d 0a 3d 70 61 96 bc 47 25 86 3d 0d 85 5c bd
       0.03379625 -0.018357009 0.06550079 -0.053837825
0003a0 40 70 ed 3a 23 fc ae 3d f6 43 81 bd 55 1a 8f 3d
       0.0018115118 0.08544185 -0.06311791 0.06987444
0003b0 b7 6b 7a bd a4 cf a8 bc 2a 30 b0 bd c4 61 c8 bc
       -0.06113788 -0.020606823 -0.086029366 -0.02446068
0003c0 6d de 62 bd be 97 a1 bd 87 7b 91 3d 07 4f 51 bd
       -0.055387903 -0.07890271 0.07103639 -0.051100757
0003d0 7b 31 83 3d 54 3e a9 bc 7c 9b ac bc 6e be 65 3d
       0.06405922 -0.020659603 -0.021070234 0.05608981
0003e0 e0 c3 7c bc ee ad 41 bd 31 9f 8d bd 22 c3 53 3d
       -0.01542756 -0.047285013 -0.06915129 0.051699765
0003f0 84 7b c7 3c 7a 2a 4f 3d d0 51 4b 3c c8 06 39 3c
       0.024350889 0.05057762 0.012409642 0.011293121

bias f4 [512]
000000 cb 7a 4e bd aa ab 33 3d f0 01 dc 3b 6d 2c ac 3d
       -0.050410073 0.043864883 0.006714098 0.08406911
000010 4f 4d 97 bd f2 d5 39 3d 18 c4 3f bc 48 ff ad bc
       -0.07387792 0.04537005 -0.011704467 -0.021239892
000020 5c 24 a4 bd b6 a6 47 3d 23 4c 87 3d db 3e 89 3d
       -0.080147475 0.048742972 0.06606319 0.06701442
000030 9a 52 00 bd be 63 03 bd 76 ea 47 3d 50 e8 90 3b
       -0.031328775 -0.032077543 0.048807584 0.004422225
000040 7a f7 3c 3d c9 45 94 3d ed cf 0c bd 98 88 32 3c
       0.04613445 0.07239873 -0.03437798 0.010896824
000050 83 cd 2d bd f4 ec af 3c ce 21 3d 3d f9 37 17 bd
       -0.04243232 0.021475293 0.046174817 -0.036918614
000060 a4 0d 29 bd ff 6d a2 3d 82 1e a7 bd 24 4f 8e bd
       -0.041272774 0.07931136 -0.08160116 -0.069486886
000070 ae 00 6f 3d 0c 94 ac 3c 73 c7 9f 3d 6a 1c 83 bd
       0.058350258 0.021066688 0.07801714 -0.06401904
000080 eb 44 91 3d 5f 45 8f 3d 04 44 8b bc 10 35 99 3b
       0.07093223 0.06995653 -0.017000206 0.004675515
000090 7e 5c 1c 3d ae 7c 03 bd 90 e4 92 3c 2a e1 b1 bd
       0.038174145 -0.032101326 0.017931253 -0.08685525
0000a0 e0 81 1a bd 08 83 27 bc 8e 94 47 3d bb b9 1d bd
       -0.037721515 -0.010224111 0.048725657 -0.038507205
0000b0 f8 72 29 3c 5c 53 e7 3c c2 d3 3a 3d b8 11 e5 3c
       0.010342352 0.028237991 0.045612104 0.02796255
0000c0 e6 c5 2e 3d ac 47 de 3c 7e d5 3a 3d cd 01 22 bd
       0.0426692 0.027133785 0.04561376 -0.0395525
0000d0 4a b5 b3 bd 68 fb 05 bc ed bc 49 bd 8f 54 b4 bd
       -0.087748125 -0.008177616 -0.04925244 -0.08805191
0000e0 e4 f3 7b bd d2 f7 7a bd 50 cf cd 3b a6 08 51 bd
       -0.06151189 -0.061271496 0.006280817 -0.05103364
0000f0 0c ad a7 3c cf 80 a1 3d 4b 84 2b bd 30 82 4f bc
       0.020468257 0.078858964 -0.04187421 -0.012665316
000100 39 87 93 3d c2 d3 73 3d 2e 98 89 bd 82 77 53 3d
       0.07203526 0.05952812 -0.06718479 0.051627643
000110 52 36 7d 3d 73 7a 18 bd d0 d0 4c 3c 70 97 f3 bc
       0.061819382 -0.03722615 0.012500957 -0.029735297
000120 80 bc 03 3d 02 62 67 3d a0 d2 6a bd 28 54 11 3d
       0.03216219 0.056489952 -0.057329774 0.03548065
000130 d2 63 21 3d a2 e9 6d 3d 7e 77 08 3d 0d 85 b4 bd
       0.039401837 0.058084138 0.03331708 -0.0881444
000140 a5 d7 9d bd c9 f0 a3 bd 34 18 f8 3c fe bc 32 3d
       -0.077071466 -0.080049105 0.030284978 0.04363727
000150 58 68 cb bc 60 1e 69 bd d6 b4 e5 bc f8 1d e3 3c
       -0.024830028 -0.056913733 -0.02804033 0.027724251
000160 ba f5 6e 3d 16 33 43 3d fb 6a 33 bd 7f e6 a6 bd
       0.05833981 0.04765614 -0.043803196 -0.081494324
000170 40 61 5f bd d6 5e 3d 3d 90 fb f8 3b c8 09 c7 bc
       -0.054536104 0.04623302 0.007598348 -0.024296656
000180 c8 eb 40 bc b8 e9 a8 3c 9b 7e 3d bd 89 99 96 3d
       -0.011774965 0.020619258 -0.04626332 0.07353503
000190 f0 8b 7b 3c 75 3f a6 3d f5 f2 a7 3d 32 d2 41 3d
       0.015353188 0.08117572 0.08200637 0.0473196
0001a0 1b c9 a9 3d ad ad 6b bd 52 b9 89 bd 70 9a b4 3c
       0.08290311 -0.057538677 -0.067248 0.022046298
0001b0 ab c1 b0 3d ac 83 49 bd e0 48 30 3c 91 77 8b bd
       0.08630689 -0.049197838 0.010759562 -0.06809915
0001c0 d4 8a 95 bd 2a d5 a5 bd 8f d1 a7 3d 4a 66 6f bd
       -0.0730187 -0.080972984 0.08194267 -0.05844716
0001d0 4c 91 c1 3c dd 77 68 bd 73 c0 8d 3d 9a 93 40 3d
       0.023628853 -0.056754936 0.069214724 0.047015764
0001e0 55 77 1c bd 08 9b 94 3c b7 f8 b2 3d 43 c7 7a bd
       -0.03819974 0.01814033 0.08738845 -0.061225187
0001f0 0c 2a db bc 49 af 9b 3d 5a 81 4a 3d 00 03 b6 bc
       -0.026753448 0.07601792 0.049439766 -0.022218227
000200 2d e8 8f 3d 6d df 8f 3d 00 c1 a7 3b a8 a6 26 bc
       0.07026706 0.07025037 0.005119443 -0.01017157
000210 68 27 32 3c 10 7c ac bb 4a 63 19 3d 6e 8c 1e 3d
       0.010873653 -0.005263813 0.037448205 0.038708143
000220 93 c8 8a bd cc 30 f8 3c 00 e3 fe ba 02 ec 5c 3d
       -0.06776538 0.030296706 -0.0019446313 0.053936012
000230 07 4f 8a 3d 10 18 9d 3b 30 0e 5d 3c 3e 59 16 3d
       0.067533545 0.0047941282 0.013492152 0.0367062
000240 76 02 4d 3d bd 97 95 bd 1c 04 9c 3c 98 df 68 bc
       0.050051175 -0.073043324 0.019044928 -0.014213465
000250 98 42 e1 bc 58 68 21 bc f0 20 ba bb b8 69 f4 3c
       -0.027497575 -0.009851538 -0.005680196 0.029835567
000260 16 d3 69 3d 80 d0 e3 3a 4e 35 2d 3d 60 d2 a4 bb
       0.057086073 0.0017380863 0.042287163 -0.0050299615
000270 56 3a 4c bd af 27 86 bd a6 a0 5d 3d b3 d8 8d 3d
       -0.04986032 -0.06550538 0.054108284 0.06926098
000280 29 b0 2a bd 35 70 9a bd dd f5 50 bd 38 38 88 bd
       -0.041671906 -0.07540933 -0.051015723 -0.06651348
000290 d8 54 4a 3c 20 d5 01 3c 40 37 7d 3b 4c e8 8d 3c
       0.01234933 0.007924348 0.0038637668 0.017322682
0002a0 a1 8e 54 bd 1e c6 4b bd 33 64 a8 3d 71 cd 2e bd
       -0.051893834 -0.049749486 0.082222365 -0.042676393
0002b0 fa 08 3e 3d da e8 ac bd 60 1d d2 bc ff de 95 bd
       0.04639528 -0.084428504 -0.025648773 -0.07317924
0002c0 a0 ef 85 bb 3e 0e 64 3d 96 ae 2d 3d b2 63 50 3d
       -0.0040874034 0.055677645 0.042402826 0.050876327
0002d0 0a ff 73 bd 44 1a fa bc dd b5 30 bd 4f 00 aa 3d
       -0.059569396 -0.030530103 -0.04314219 0.0830084
0002e0 00 a8 a2 bd 02 86 38 3d 60 37 ce bb 04 68 8d bd
       -0.079422 0.045049675 -0.0062932223 -0.06904605
0002f0 f7 4c 8d bd 12 65 75 3d a2 86 6d bd 58 6a 7c bc
       -0.068994455 0.05991084 -0.057989724 -0.015406214
000300 d3 ce 9f 3d fd 8e 05 bd bb 4a 4a bd 9d 61 a3 3d
       0.078031205 -0.032607067 -0.049387675 0.07977603
000310 29 80 7d bd 45 48 9b 3d b6 18 7f 3d 0e 24 20 3d
       -0.0618898 0.07582144 0.062279426 0.039096884
000320 52 cb 2c 3d 74 e3 8d 3c 83 3a b1 3d 98 2b 5d 3c
       0.04218609 0.017320372 0.08653738 0.013499163
000330 00 6b e4 bb d4 a6 14 3d b6 89 3c 3d b1 bb b2 bd
       -0.006970763 0.036291912 0.04602977 -0.087272055
000340 1d 50 b1 3d d1 25 3e bd ab b9 91 3d 78 bf e5 3c
       0.086578585 -0.046422783 0.071154915 0.028045401
000350 14 43 89 bd 00 ce 33 b9 9e d1 8e bd e0 16 10 bb
       -0.06702247 -0.00017147511 -0.06973575 -0.002198629
000360 7f c7 5c bd 47 1f 9b bd 9e 2e 6b 3d 15 60 9f bd
       -0.05390119 -0.07574325 0.057417504 -0.07781998
000370 57 a4 45 bd 8c 9d 79 bd 11 cf 32 bd c4 8a 12 3d
       -0.04825243 -0.060941264 -0.043654505 0.03577687
000380 f1 b9 9c 3d 23 5e 84 bd 6a 78 73 bd 30 d8 c0 bb
       0.07652653 -0.06463268 -0.059441008 -0.0058851466
000390 c8 da 05 3c de 7f 11 3d 60 cc d3 bc 58 f5 86 3c
       0.008169837 0.035522334 -0.02585429 0.01647441
0003a0 ae a3 95 bd 9a 09 29 3d 3e c9 3b 3d c0 d3 90 3c
       -0.0730661 0.041268922 0.045846216 0.017679095
0003b0 c1 a4 9d 3d ea e9 59 3d dc 4b f9 3c b3 3e 85 3d
       0.0769744 0.053201593 0.03043168 0.065060996
0003c0 0a 0b 6c 3d 28 5b 29 bd c0 16 15 3b b0 7c 46 3c
       0.057627715 -0.0413467 0.0022749156 0.012114689
0003d0 00 96 ef 39 a1 2a 87 bd 26 94 16 3d 18 22 6b 3c
       0.0004569739 -0.06599928 0.03676238 0.01435139
0003e0 c6 5e 2c 3d 0b e6 ad 3d 05 75 98 3d 20 80 52 3c
       0.04208257 0.08491143 0.07444195 0.01284793
0003f0 ff 47 ac 3d ea 3f 1c 3d b0 b6 5b bc 9e db 60 3d
       0.0841217 0.03814689 -0.013410255 0.054896943

weight f4 [128, 512]
000000 84 bd 06 bc a4 82 2f bc dd 88 2f bd 16 37 30 bd
       -0.008223895 -0.0107122995 -0.042855132 -0.043021284
000010 73 47 31 bd be f7 95 3c 20 51 d3 bb 6c 92 65 3c
       -0.04328103 0.01830661 -0.00644888 0.0140119605
000020 b7 72 db bc 39 1a 0c bd b1 55 21 bd 24 d9 1c bd
       -0.026788099 -0.034204695 -0.039388362 -0.03829302
000030 18 71 f1 bb c0 93 54 3c be 40 b0 3c 47 31 c8 bc
       -0.007368218 0.0129746795 0.021515246 -0.02443756
000040 d2 0d e8 bc 7d 5a 14 3d b0 08 00 bd eb e2 27 3d
       -0.028326903 0.03621911 -0.031258285 0.04098789
000050 f6 18 ac bc be c7 9a 3c 36 23 0e bd 32 14 dd bc
       -0.021007996 0.018894073 -0.03470155 -0.026987169
000060 99 1d d9 bc 62 cd 84 bc 88 0c 4f 3c 5f 65 f6 bc
       -0.026503371 -0.016211215 0.012637265 -0.030077634
000070 ea 6e d3 bc 38 d0 8d bb ed 51 0d bd 47 d6 c3 bc
       -0.025809724 -0.0043278 -0.03450196 -0.023905886
000080 2b 6d 0d 3d 5a 8d a8 3c 7b 90 22 bd 64 5e 72 bc
       0.03452794 0.020575214 -0.03968857 -0.014793012
000090 c8 50 68 bc f5 87 22 bd 02 3b 16 bd e6 2f 05 bd
       -0.014179416 -0.03968044 -0.036677368 -0.032516383
0000a0 be fa 04 bd 18 04 7a 3c 80 84 0e 3b ed eb 18 3d
       -0.03246569 0.015259765 0.0021746457 0.03733437
0000b0 9c 90 7f 3c 8a d8 aa 3c de fe ae 3c 56 df a7 3c
       0.015598442 0.020855207 0.021361765 0.020492237
0000c0 eb 4f 8c bc da 32 e9 3c 3a 9f 58 bc e0 d5 d5 3b
       -0.017127952 0.02846663 -0.013221556 0.00652574
0000d0 70 77 f5 3b 0d 4e 18 3d 68 b2 6d bc 50 35 a4 3b
       0.0074910447 0.03718381 -0.014507867 0.005011238
0000e0 7a 44 ad 3c bc f6 19 3c 2e 52 a6 bc 0c dd 06 bd
       0.021150816 0.009397205 -0.020302858 -0.03292565
0000f0 db 8f aa bc 63 04 15 3d 00 f8 ef 37 a4 7e e5 bc
       -0.020820549 0.036381137 2.8606504e-05 -0.028014489
000100 bf 08 2d 3d cf 5d 31 3d d2 9b c4 3c 76 de f2 3c
       0.04224467 0.043302353 0.024000082 0.029647093
000110 d6 84 ef 3c 00 8e 48 39 78 66 03 bd 97 f8 af bc
       0.029238146 0.00019126385 -0.032080144 -0.021480842
000120 49 50 02 3d bf bd 1c 3d ff 7d 96 bc dc d0 57 3c
       0.031814847 0.038266893 -0.018370626 0.013172355
000130 94 12 58 bc d0 a5 50 bb 37 65 b3 bc e4 66 26 bc
       -0.013188023 -0.0031837113 -0.021898849 -0.010156367
000140 0c 29 14 bd 10 e8 04 3b 30 81 59 bb 3e 64 c4 bc
       -0.036171958 0.0020279922 -0.0033188574 -0.02397358
000150 a0 33 5e 3b c3 85 2a 3d 33 5f dc bc 2a 80 ce 3c
       0.0033905283 0.04163147 -0.026900863 0.025207598
000160 ae 3a bf 3c 03 76 10 3d 5e 33 da 3c 66 e3 cb 3c
       0.02334341 0.035268795 0.026635822 0.024888705
000170 bb 76 b0 bc a5 58 8f bc 7c fd 2a bc 6e 8e 13 bd
       -0.02154099 -0.017498324 -0.010436412 -0.036024503
000180 ef 32 1c 3d dc 2c 16 bd 29 a9 0d 3d 80 cf a8 3a
       0.03813451 -0.036663875 0.03458515 0.0012879223
000190 52 de 74 bc c4 b4 5c 3c 1a f8 58 bc 05 2d 00 bd
       -0.014945583 0.013470832 -0.013242746 -0.031292934
0001a0 ba 0f a8 3c 7a e1 75 bc a0 69 8b 3a 90 e1 92 bb
       0.020515312 -0.015007371 0.0010636337 -0.0044824556
0001b0 ca 88 d5 3c 74 6a 54 bc b0 61 13 bb f7 33 07 3d
       0.026066203 -0.0129648335 -0.0022488646 0.033008542
0001c0 20 0a f2 bb 14 ef 0b bd dc 4a 92 3c ed 3e 20 bd
       -0.007386461 -0.03416355 0.017857961 -0.03912251
0001d0 c8 1c 3f bc 11 65 0c bd 0c 9a 27 bc 83 9e d5 bc
       -0.011664577 -0.034276072 -0.010229599 -0.02607656
0001e0 0d 23 27 3d e5 73 e0 bc c0 55 3c ba 2b 99 2c bd
       0.04080491 -0.027399013 -0.00071844086 -0.04213826
0001f0 2d 3d 1a 3d 58 6a 93 bb 18 b6 fa bb cc d3 60 3c
       0.037655998 -0.004498761 -0.007651102 0.013722371
000200 60 e4 f6 bc c1 78 23 bd 28 45 ee bb f3 e0 14 3d
       -0.030138195 -0.03991008 -0.0072714277 0.03634734
000210 2b 58 d2 bc 7c 55 47 3c 7e f0 97 3c 20 78 f1 3b
       -0.025676807 0.012166377 0.018547293 0.0073690563
000220 10 3a 12 3b d0 46 17 bb 3f 8f 27 3d e6 7c df 3c
       0.002231244 -0.002308298 0.040908094 0.027281236
000230 f0 95 12 bc 4d a5 0a 3d a2 6b 29 bd 1a fb 72 bc
       -0.008946881 0.03384905 -0.041362412 -0.014830375
000240 42 5d a6 3c b9 7d 10 bd 2e 5a 2c bd 7d 52 1d 3d
       0.02030814 -0.03527615 -0.04207819 0.038408745
000250 1a 81 69 bc 00 38 9b bb 3d 0e 25 3d 14 6d 16 bd
       -0.014251972 -0.0047369003 0.04029678 -0.03672512
000260 54 0d 13 3c 7c ac 24 bc e4 65 0e bd 5e 31 0b bd
       0.008975346 -0.010050889 -0.03476514 -0.033982627
000270 a4 d1 e0 bc e5 32 0b bd 2e d3 2c bd 72 91 a8 3c
       -0.027443714 -0.033984084 -0.042193584 0.020577166
000280 ce 4b 8a 3c 40 96 72 3b d9 cd 28 3d a7 56 16 3d
       0.01688185 0.0037015826 0.041211937 0.036703732
000290 8b 42 24 3d 6b 3f 2e 3d 89 3f 90 bc 2c af 04 3c
       0.040102523 0.04254095 -0.01760842 0.008098405
0002a0 6a 8d 97 3c 38 17 ae bb aa 12 2c bd f0 78 e3 bb
       0.018500049 -0.0053128265 -0.042009987 -0.006941907
0002b0 12 7e 23 bd 65 3f 2d bd 20 19 d6 3a 98 f3 3d bc
       -0.039915152 -0.042296786 0.0016334392 -0.011593722
0002c0 e9 a7 2f 3d 6e dc f0 bc 36 42 ef 3c 34 4b 49 3c
       0.04288474 -0.029401984 0.029206377 0.012285996
0002d0 f4 e6 f3 bc 87 28 14 bd bb 84 2f 3d 82 a3 c2 3c
       -0.029773213 -0.036171462 0.04285119 0.023759607
0002e0 50 f1 fc bb 76 52 1f bd 81 98 19 3d 90 c0 8b bb
       -0.0077191964 -0.038897 0.037498955 -0.0042648986
0002f0 3a c2 f4 3c 74 40 3e bc 80 e6 a4 3b a2 ad e7 3c
       0.02987777 -0.0116120465 0.0050323606 0.028281037
000300 e7 27 14 bd 4c 95 ca bc 70 0d 82 3c 6d 01 10 bd
       -0.036170866 -0.024729393 0.015875548 -0.03515761
000310 19 59 2c 3d 38 f3 f0 bb a8 14 16 bd 6a af 2d bd
       0.042077158 -0.0073532127 -0.036640793 -0.042403616
000320 d4 48 0f 3c 5f 54 84 bc fc eb 38 3c de 7b c0 3c
       0.008745391 -0.016153513 0.011286732 0.023496564
000330 2a f3 bc 3c 6c 1f 13 bc 49 61 23 3d 04 5b c2 bc
       0.023065168 -0.0089796595 0.0398877 -0.02372504
000340 61 ac 26 bd 35 9e 33 3d e0 bf 6b bc 81 62 24 3d
       -0.040691737 0.04385205 -0.014389008 0.040133003
000350 38 6b 42 bc d0 c9 bd bc 2c 14 3b 3c 08 36 80 3b
       -0.011866383 -0.02316752 0.011418384 0.003912691
000360 58 56 85 3c 36 9c b7 3c 32 68 c7 3c 63 2d d7 bc
       0.016276523 0.022413354 0.024341676 -0.02626676
000370 de 74 9c 3c b4 23 68 bc 0a 46 df 3c b8 23 b1 bc
       0.019098695 -0.014168669 0.027255077 -0.021623477
000380 be 7c a2 3c 70 84 5b 3b c0 3a 9f bc 3c 1a 7b bc
       0.019834872 0.0033495687 -0.019437194 -0.015326079
000390 79 b6 20 bd f8 5c cf bc f4 3d 24 3c 30 d3 fa bb
       -0.03923652 -0.025312886 0.010024536 -0.00765457
0003a0 40 91 59 bc 7e b0 c2 3c 23 ad 05 3d 10 ac 82 3c
       -0.013279259 0.023765799 0.03263582 0.015951186
0003b0 cb d4 af bc ad 70 05 3d 15 23 2e bd 3c b6 07 3c
       -0.021463772 0.03257816 -0.042513926 0.008283194
0003c0 62 ca e5 3c a4 23 81 3c ba 71 ec 3c 00 70 56 b7
       0.028050605 0.015764065 0.028862823 -1.2781471e-05
0003d0 69 9b a6 bc 36 1a b6 3c 23 2b 1d bd 30 40 a6 3b
       -0.020337777 0.022229295 -0.038371217 0.0050735697
0003e0 9a 77 a6 bc 50 1d 16 3b 80 1c e6 39 6b 9a 11 3d
       -0.020320702 0.0022905655 0.00043890253 0.035547655
0003f0 16 bd 0c bd 34 e7 49 3c e4 48 a1 bc 5c 2f 3c bc
       -0.034360014 0.0123231895 -0.019688077 -0.011485901

bias f4 [128]
000000 68 80 41 bc ca 29 a5 3c d8 91 8d 3c c8 20 e7 bc
       -0.0118104 0.020161528 0.017281458 -0.028213874
000010 06 35 15 bd ce d8 af 3c 20 12 05 3c d3 7f 8a bc
       -0.03642752 0.021465685 0.008121997 -0.016906654
000020 5c 5c 5c 3c 88 1a 75 bc 3c 4d 00 3c 47 b3 13 3d
       0.013449755 -0.014959939 0.007830914 0.036059644
000030 f0 c9 49 bb 55 14 26 3d 98 2f bd 3b d2 df b5 bc
       -0.003079053 0.040546734 0.005773496 -0.022201452
000040 98 e8 c3 bb a0 cf b3 bc 16 c9 ba 3c de 45 a8 3c
       -0.005978655 -0.02194959 0.022800963 0.020541128
000050 a2 78 eb bc 18 4d 2d 3c 98 6b 68 3c e3 55 1a 3d
       -0.028744046 0.010577463 0.014185809 0.037679564
000060 34 a0 39 3c f6 72 bf 3c c8 ac 25 bd 06 cd df 3c
       0.011329699 0.023370247 -0.04044798 0.027319442
000070 c0 06 bc 3b b6 c4 63 bc 47 ae 23 3d fe 48 6b bc
       0.0057381094 -0.01390188 0.039961126 -0.014360664
000080 00 fa 30 b9 6c aa 2a 3c 5e a6 99 3c 9c 9e 28 bd
       -0.000168778 0.010416608 0.018756088 -0.041166887
000090 0e 5c de 3c 6f 65 20 3d a1 3d 31 3d 8f e8 c6 bc
       0.027143504 0.039159235 0.043271665 -0.024280814
0000a0 d0 a5 f3 3b b9 ac b5 bc dc 9a 86 bc c1 7c 13 3d
       0.007435538 -0.022177087 -0.016431265 0.036007646
0000b0 82 30 b5 3c bf c9 32 bd 2b 65 d9 bc 7e 31 82 3c
       0.022117857 -0.04364943 -0.026537498 0.01589274
0000c0 f0 e0 2b bd 68 d6 d3 3b 47 a6 01 bd b4 26 22 3c
       -0.041962564 0.006464768 -0.031652715 0.009896923
0000d0 ac 06 25 3c 2c 96 31 3c e0 e7 3a 3b f4 45 0a bd
       0.0100723915 0.010839026 0.0028519556 -0.03375812
0000e0 00 b8 89 bc 69 49 b2 bc ba 19 88 bc 5d 7c 0a 3d
       -0.01681137 -0.02176352 -0.01661383 0.03381001
0000f0 d3 01 04 3d 60 3a ff 3b 09 d9 0e 3d 60 aa 33 bc
       0.032228302 0.0077889413 0.03487495 -0.0109659135
000100 ef 1d 99 bc 9a 88 c0 3c b0 2c ed 3b 18 1b aa 3b
       -0.018691031 0.023502637 0.007237993 0.005191218
000110 1d bb 1f 3d 02 01 e2 3c cf 95 12 3d 0c fc 2e bc
       0.038996805 0.027588371 0.0357874 -0.01068021
000120 93 1d 1e bd 8c 14 ea bc ed f7 26 bd e0 37 ac ba
       -0.038602423 -0.02857425 -0.040763784 -0.0013139211
000130 ba bc f6 3c ad 0d 06 bd b8 2c 9a 3b 96 e1 c8 3c
       0.030119289 -0.032727886 0.004705038 0.02452163
000140 f8 33 0f bc 3b e7 be bc 60 be 98 3b 10 76 30 3c
       -0.008740418 -0.023303619 0.0046613663 0.010770336
000150 38 69 80 3c fd fc 13 3d c8 5f 51 bc 44 5e f6 bc
       0.015675172 0.03612994 -0.012779184 -0.030074246
000160 66 fb aa 3c b7 e5 21 bd f8 f7 19 bd d8 a1 01 bc
       0.02087183 -0.039525714 -0.037589997 -0.007912122
000170 3d 1a f0 bc c2 ff ff 3c a6 ea e9 3c 32 20 b0 3c
       -0.029309386 0.031249885 0.028554272 0.021499727
000180 c4 e5 5a 3c 02 a3 60 bc 32 05 ef bc 31 f2 d3 bc
       0.013360444 -0.013710739 -0.029177282 -0.025872322
000190 1b bd 25 3d df 44 19 3d 38 6a c1 bb ee 39 d2 3c
       0.04046355 0.037419196 -0.005902555 0.025662389
0001a0 f6 76 e9 bc c0 4b a8 bb e8 48 59 3c 3e 6d eb bc
       -0.028499108 -0.005135983 0.013262011 -0.028738614
0001b0 13 e9 94 bc 28 91 29 3c 69 be ca bc 6a d2 83 3c
       -0.018177545 0.010349549 -0.024748998 0.016091544
0001c0 7c 00 20 bc 59 45 0a 3d 6d 92 11 bd ec 18 94 bc
       -0.0097657405 0.03375754 -0.035540033 -0.01807829
0001d0 44 14 5b bc 7e 2b f5 bc 3e 03 a3 bc ad 59 22 bd
       -0.013371531 -0.029927965 -0.019899007 -0.039636303
0001e0 a0 9e 80 3c 3c c7 8b 3c 70 f6 05 bd 45 4c f6 bc
       0.015700638 0.017062776 -0.032705724 -0.030065665
0001f0 dd 73 01 3d 56 3d 9a 3c d9 16 17 3d e2 8d a2 3c
       0.031604636 0.018828075 0.036887024 0.019843046
