memory/Agent2_Critic.pth (torch, 566209 bytes, 11 tensors)

weight f4 [32, 5]
-0.21251278 -0.02899924 -0.41025546 -0.16367882 0.10078609 -0.42943883 -0.03328055 -0.030549169
-0.057620257 -0.3644451 -0.39112198 -0.14141059 0.35682076 0.08533841 -0.17883563 -0.24329348
0.39222646 -0.35561556 0.3233254 -0.071810216 -0.061793536 -0.33603638 -0.05063635 0.42954564
0.18096441 -0.4127469 -0.21353471 0.010075331 -0.37999123 -0.2298805 -0.0356296 -0.19971251
0.32248902 -0.050622642 0.063085675 -0.3863028 -0.19531411 0.0091306865 0.18221116 -0.30606145
-0.2765156 -0.07459226 -0.29338038 -0.24649934 -0.022792488 0.2714243 -0.10496554 -0.026312202
0.030754805 0.017595947 0.13467646 -0.18772092 0.15675294 -0.27151334 0.035495788 -0.44540045
-0.22921123 -0.11339989 -0.24618278 -0.28050953 0.08718866 -0.051193446 -0.14889687 0.39570498
-0.2508302 0.2668962 -0.25204504 0.045494974 -0.07192144 -0.23605888 0.44056153 -0.40215427
0.3411678 0.37403905 0.35797054 -0.13875234 -0.3699367 -0.066238165 0.02433455 -0.382487
0.2913273 -0.42407358 -0.42199168 0.20082027 -0.19339076 0.06750095 0.13819057 0.047846586
-0.19224253 -0.40494862 -0.25396314 0.2135179 0.21517003 -0.11370388 0.24515533 -0.08777556
-0.30923313 0.39124995 0.39032453 0.26985782 -0.3971463 -0.0019328892 0.081739485 -0.20681074
0.38774413 -0.07902649 0.20541143 0.16442496 -0.12605631 0.37176883 -0.0009797673 0.33466542
0.41490734 0.14736944 0.35739017 -0.4325337 -0.033197075 -0.1323779 0.24674541 0.28443855
-0.26151803 -0.037745386 0.21531302 -0.11746293 0.17770135 0.28653872 0.42375362 -0.20731838
0.3621732 -0.02320683 -0.36367068 -0.29220006 -0.3493048 -0.10244197 -0.29712304 -0.31659153
0.33406675 0.116831005 -0.22703491 0.2786855 0.13043988 -0.21635924 -0.008900374 -0.022756457
-0.14938569 -0.00996232 0.34144306 0.29887855 0.18874377 0.09607661 -0.05807379 0.2921211
-0.19253063 -0.40153697 0.21636593 -0.095422655 0.31791753 0.1648733 -0.29882136 0.30527246
00000000: f39c 59be d08f edbc 010d d2be 6c9b 27be
00000010: f068 ce3d 68df dbbe 3051 08bd 4042 fabc
00000020: 3803 6cbd 8c98 babe 2441 c8be f0cd 10be
00000030: 36b1 b63e e8c5 ae3d b020 37be ed21 79be
00000040: e8d1 c83e 3e13 b6be e88a a53e 3c11 93bd
00000050: 381b 7dbd f60c acbe 1068 4fbd 68ed db3e
00000060: bc4e 393e 9053 d3be d8a8 5abe 0013 253c
00000070: 368e c2be cb65 6bbe 58f0 11bd 7081 4cbe
00000080: 481d a53e b059 4fbd 1033 813d 7bc9 c5be
00000090: 6c00 48be e098 153c 9095 3a3e 16b4 9cbe
000000a0: 7493 8dbe d4c3 98bd f435 96be 536a 7cbe
000000b0: 50b7 babc 20f8 8a3e 2cf8 d6bd b08c d7bc
000000c0: 80f1 fb3c 6025 903c a0e8 093e ea39 40be
000000d0: d883 203e cc03 8bbe 0864 113d 870b e4be
000000e0: 59b6 6abe 343e e8bd 5717 7cbe f29e 8fbe
000000f0: f88f b23d 38b0 51bd 6c78 18be d899 ca3e
00000100: d16c 80be 9ea6 883e 0c0c 81be f058 3a3d
00000110: 8c4b 93bd 6bb9 71be 4891 e13e 2ae7 cdbe
00000120: 8cad ae3e 0c82 bf3e ea47 b73e 1815 0ebe
00000130: 5868 bdbe e0a7 87bd 4059 c73c 56d5 c3be
00000140: da28 953e 2c20 d9be 4b0f d8be d4a3 4d3e
00000150: 3a08 46be f03d 8a3d d481 0d3e c8fa 433d
00000160: 3adb 44be 6d55 cfbe 7507 82be 70a4 5a3e
00000170: 8855 5c3e 94dd e8bd 000a 7b3e acc3 b3bd
00000180: ce53 9ebe ea51 c83e 9ed8 c73e ce2a 8a3e
00000190: c356 cbbe 0059 fdba 0867 a73d 32c6 53be
000001a0: 6686 c63e a4d8 a1bd 6057 523e 045f 283e
000001b0: e814 01be 7c58 be3e 896b 80ba 4459 ab3e
000001c0: bc6e d43e 04e8 163e d8fb b63e 0f75 ddbe
000001d0: a8f9 07bd 128e 07be d4aa 7c3e eea1 913e
000001e0: b1e5 85be e89a 1abd 047b 5c3e 6890 f0bd
000001f0: 58f7 353e 34b5 923e 3cf6 d83e 454b 54be
00000200: c46e b93e 401c bebc 0b33 babe 3f9b 95be
00000210: 14d8 b2be 18cd d1bd 8320 98be 4918 a2be
00000220: cc0a ab3e 1845 ef3d d77b 68be deaf 8e3e
00000230: 0892 053e 478d 5dbe e0d2 11bc c06b babc
00000240: 90f8 18be 0039 23bc a0d1 ae3e 9c06 993e
00000250: 0c46 413e d0c3 c43d c8de 6dbd e690 953e
00000260: c026 45be 4196 cdbe 088f 5d3e f46c c3bd
00000270: 16c6 a23e 8cd4 283e 1dff 98be ac4c 9c3e

bias f4 [32]
-0.40208673 -0.44379964 -0.3821203 -0.008305311 -0.37912375 0.44158554 0.11852604 -0.20411614
-0.21696337 -0.0943726 -0.22431995 0.13837606 0.08580887 0.29530108 -0.024657756 -0.32603815
0.23760813 0.43803078 0.04520294 -0.058758914 -0.2763013 -0.3566021 0.072234035 0.13950783
-0.3434956 -0.36969924 -0.36411184 0.10844433 -0.2033478 0.44609886 0.049317837 0.08198953
00000000: 50de cdbe b539 e3be 46a5 c3be 0013 08bc
00000010: 821c c2be 8017 e23e c8bd f23d d203 51be
00000020: a52b 5ebe 6c46 c1bd 21b4 65be 74b2 0d3e
00000030: 90bc af3d b431 973e 10ff c9bc 79ee a6be
00000040: 8c4f 733e 9245 e03e b826 393d 30ad 70bd
00000050: 5d77 8dbe 8d94 b6be 70ef 933d 24db 0e3e
00000060: a8de afbe 3849 bdbe de6c babe 1018 de3d
00000070: 683a 50be 1267 e43e 8001 4a3d 20ea a73d

weight f4 [32, 2]
0.33095485 0.51634663 -0.09171039 0.6377967 -0.2526229 -0.42435992 0.024625719 0.23212993
0.3705452 -0.4155154 -0.0018559694 0.09323841 0.58569044 0.4460649 -0.33672634 0.38345355
-0.11836976 -0.027612567 0.7052507 0.3731379 -0.3798907 -0.06458616 0.19266725 0.062067866
0.07540482 0.24510795 -0.68061215 0.085237205 0.14845502 0.17474025 -0.041490436 -0.53447306
-0.7065825 0.039440572 0.24240774 -0.56834483 -0.57313854 0.17358214 -0.10349065 -0.570387
-0.63202673 -0.57359064 0.21349841 0.29492253 0.43171757 0.1310699 0.612418 -0.6649879
0.36738867 0.47116202 0.030789256 0.25037783 0.69436234 0.7052558 -0.55578613 -0.6052918
-0.46939695 -0.5174157 -0.053797424 -0.4958768 0.0059232116 0.13158143 -0.3960139 -0.5267779
00000000: ea72 a93e 4b2f 043f a8d2 bbbd a546 233f
00000010: ca57 81be b445 d9be e0bb c93c 78b3 6d3e
00000020: 1ab8 bd3e 6fbe d4be 0044 f3ba c8f3 be3d
00000030: cfef 153f 9e62 e43e 6567 acbe 0654 c43e
00000040: d86b f2bd c033 e2bc 4f8b 343f ee0b bf3e
00000050: 0981 c2be c045 84bd 904a 453e e03a 7e3d
00000060: d86d 9a3d 94fd 7a3e 993c 2ebf d890 ae3d
00000070: 9804 183e 1cef 323e e0f1 29bd 3ad3 08bf
00000080: 97e2 34bf 708c 213d bc39 783e 0c7f 11bf
00000090: 35b9 12bf 84bf 313e e8f2 d3bd e204 12bf
000000a0: 81cc 21bf d6d6 12bf 549f 5a3e 1600 973e
000000b0: 160a dd3e 3037 063e 6dc7 1c3f a63c 2abf
000000c0: 5e1a bc3e 263c f13e c039 fc3c 8631 803e
000000d0: bbc1 313f a58b 343f 0048 0ebf 67f4 1abf
000000e0: cc54 f0be 5b75 04bf b05a 5cbd 90e3 fdbe
000000f0: 8017 c23b 48bd 063e 55c2 cabe ebda 06bf

bias f4 [32]
-0.071591556 0.3012033 0.5649187 -0.23016015 0.39151126 -0.4106348 -0.6217371 0.4422509
-0.12732226 0.44209224 -0.14565033 0.30048996 -0.5124206 0.47164804 0.37147027 0.13359386
-0.6456586 -0.25280228 -0.34508836 -0.2184219 -0.17705697 -0.3691118 -0.54827875 -0.5507977
0.29507738 0.26476324 -0.64077026 -0.13339686 -0.27969196 0.6665421 -0.4111328 0.5251557
00000000: 989e 92bd 5237 9a3e 839e 103f 1aaf 6bbe
00000010: 2a74 c83e b93e d2be 2a2a 1fbf b66e e23e
00000020: c460 02be ea59 e23e 5c25 15be d2d9 993e
00000030: ff2d 03bf da7b f13e 5a31 be3e d4cc 083e
00000040: e249 25bf 4d6f 81be 6caf b0be fea9 5fbe
00000050: 6c4e 35be 39fc bcbe ff5b 0cbf 1401 0dbf
00000060: 6214 973e 0c8f 873e 8509 24bf 3099 08be
00000070: c933 8fbe 81a2 2a3f 0080 d2be 9b70 063f

weight f4 [128, 64]
0.07518327 0.07197599 0.067517996 -0.06723884 0.011531144 -0.01756008 0.05968061 -0.115266874
-0.037889406 0.024306908 -0.008067921 0.0142119825 -0.08960937 -0.016301915 -0.04278326 0.111907795
0.0897129 -0.07412319 -0.08474888 -0.03121896 0.0010603751 0.07887235 0.09147982 -0.092152715
0.017107487 -0.008921221 -0.10596202 0.1073717 0.12031469 -0.11435875 -0.024443045 -0.021633595
0.0311549 -0.030700937 -0.059783816 0.053001568 -0.036053896 0.067135334 0.038466424 -0.11341804
-0.10351665 -0.001470338 0.019876748 -0.06316939 -0.056720927 -0.11442962 -0.107967004 0.061185762
0.074559316 0.07836671 0.05921662 0.076418266 -0.009769395 0.00023167928 -0.10419777 -0.09593332
-0.027757823 -0.08949655 -0.0006003152 0.015286356 -0.06448443 0.03454332 -0.033202246 -0.006412998
0.121224254 0.10178885 -0.10984029 0.06998418 -0.0026346778 -0.030558035 -0.017799884 0.090524405
-0.11766015 0.0673251 0.06306104 -0.056925565 0.07234137 -0.04443544 0.09148499 0.027398393
0.12212367 -0.105668634 -0.012597993 0.0152647495 0.053119645 0.11268976 -0.010951072 -0.10485104
-0.076033294 -0.058206156 0.04909338 0.00023917349 0.032605052 0.030040056 -0.099370226 -0.07180554
-0.08367109 -0.1159897 -0.07183397 0.031149983 0.068844765 -0.09996271 -0.014515266 -0.08391416
-0.013671592 -0.06034209 -0.034330726 0.040666193 -0.033252135 0.066564694 -0.120569855 0.10597369
-0.11562139 0.07323794 0.083720475 0.11951515 0.11908005 0.034237728 -0.044055864 -0.05767235
-0.016745016 -0.10212128 -0.080166295 0.07533291 -0.08194022 -0.009675801 -0.08994432 -0.056544304
0.05492553 -0.05000387 0.064385414 0.01723282 -0.057271764 0.035733312 0.11460215 0.039769188
-0.026054025 0.014515489 -0.0033192926 -0.07422149 0.06541091 0.04758948 -0.07007249 0.03604445
0.057878107 0.052481174 0.108636245 -0.10434055 -0.091214865 0.010052219 0.0022670315 0.05867976
-0.09575443 0.06444983 -0.013775274 -0.111845836 -0.08894558 -0.0763098 -0.072803065 -0.014514849
0.020825878 -0.044536754 -0.0110076815 -0.04836653 -0.0018713408 0.120576695 0.057939783 -0.045187846
0.0076144487 0.06106174 0.020742208 -0.06883244 -0.058876365 -0.06613256 -0.00025838576 0.053689107
-0.022508547 -0.10577862 -0.07945907 0.07005812 0.08136086 -0.024427012 0.06488986 0.068912104
-0.08927414 -0.038071245 -0.04704468 0.015419856 0.07600629 0.12159224 0.065142274 -0.028317302
-0.08337003 -0.07248491 0.032151073 0.10090363 0.09127176 -0.097550884 0.004014343 -0.059531897
0.121985 0.0033538043 0.018555075 -0.099544376 0.113548204 0.10921125 -0.089271426 -0.048216254
0.07286298 0.112903684 -0.07221827 0.021719724 -0.088174 -0.05969076 -0.07496585 0.07591528
-0.050682917 0.04846655 0.022876605 -0.020716488 -0.009524196 -0.09723167 0.09969029 -0.014719844
0.08185586 0.011334479 -0.09813093 0.020451099 0.023646861 -0.047306955 0.0056723505 0.050369322
-0.08534804 0.056147948 0.045661867 0.025123373 0.06539227 0.035221532 -0.115070954 -0.01944843
-0.032152876 0.02878818 -0.07556185 0.042927355 -0.10117328 -0.043637484 0.028268233 -0.0620856
-0.09844795 -0.105614975 0.01709111 -0.12416962 0.057347015 -0.0015531611 0.05271104 -0.09897731
00000000: b0f9 993d 2668 933d e046 8a3d 84b4 89bd
00000010: 20ed 3c3c 28da 8fbc a873 743d 0a11 ecbd
00000020: ec31 1bbd 481f c73c 502f 04bc 60d9 683c
00000030: 1e85 b7bd 988b 85bc 803d 2fbd ea2f e53d
00000040: 66bb b73d e6cd 97bd d290 adbd e8be ffbc
00000050: 49fc 8a3a d487 a13d c659 bb3d 90ba bcbd
00000060: 0025 8c3c 502a 12bc 9e02 d9bd b2e5 db3d
00000070: 8c67 f63d ec34 eabd c83c c8bc f038 b1bc
00000080: 9038 ff3c 8880 fbbc e0df 74bd 2c18 593d
00000090: 40ad 13bd 407e 893d f88e 1d3d b847 e8bd
000000a0: 8a00 d4bd 5bb8 c0ba 90d4 a23c f45e 81bd
000000b0: 3454 68bd 145a eabd ce1d ddbd ec9d 7a3d
000000c0: 8eb2 983d ba7e a03d 208d 723d 2e81 9c3d
000000d0: d00f 20bc efee 7239 a465 d5bd b078 c4bd
000000e0: 6064 e3bc f849 b7bd 795e 1dba a073 7a3c
000000f0: 6a10 84bd 4c7d 0d3d 14ff 07bd 2024 d2bb
00000100: 6c44 f83d ac76 d03d f2f3 e0bd de53 8f3d
00000110: 8faa 2cbb d854 fabc 10d1 91bc dc64 b93d
00000120: cef7 f0bd bee1 893d 2626 813d c82a 69bd
00000130: b627 943d f001 36bd 7c5c bb3d 9872 e03c
00000140: fa1b fa3d cc68 d8bd d067 4ebc 0019 7a3c
00000150: fc93 593d e4c9 e63d 206c 33bc 24bc d6bd
00000160: 58b7 9bbd 9469 6ebd 2416 493d a5ca 7a39
00000170: e08c 053d 9016 f63c 9e82 cbbd c80e 93bd
00000180: c05b abbd 028c edbd b01d 93bd 402e ff3c
00000190: 7cfe 8c3d 40b9 ccbd 70d1 6dbc 30db abbd
000001a0: d0fe 5fbc 4429 77bd 609e 0cbd 9891 263d
000001b0: 6433 08bd 1253 883d 54ed f6bd bc08 d93d
000001c0: e8ca ecbd c6fd 953d a475 ab3d 5cc4 f43d
000001d0: 3ee0 f33d dc3c 0c3d ec73 34bd d839 6cbd
000001e0: d82c 89bc f624 d1bd 3a2e a4bd 2448 9a3d
000001f0: 46d0 a7bd 4087 1ebc ba34 b8bd 009b 67bd
00000200: 98f9 603d dcd0 4cbd 80dc 833d d82b 8d3c
00000210: cc95 6abd 185d 123d 88b4 ea3d 04e5 223d
00000220: 406f d5bc 60d2 6d3c 7d88 59bb 7001 98bd
00000230: 28f6 853d 30ed 423d 2a82 8fbd 58a3 133d
00000240: 9811 6d3d 80f6 563d ae7c de3d 80b0 d5bd
00000250: dcce babd 10b2 243c 7a92 143b 305a 703d
00000260: e61a c4bd 46fe 833d b0b1 61bc 6e0f e5bd
00000270: 1a29 b6bd 5048 9cbd c619 95bd b0cf 6dbc
00000280: 089b aa3c 2c6c 36bd 9059 34bc fc1b 46bd
00000290: c747 f5ba eaf0 f63d 4452 6d3d e416 39bd
000002a0: a082 f93b e01b 7a3d 90eb a93c 06f8 8cbd
000002b0: 5828 71bd 8270 87bd f377 87b9 1ce9 5b3d
000002c0: d863 b8bc 76a2 d8bd 70bb a2bd a27a 8f3d
000002d0: 86a0 a63d 281b c8bc fae4 843d ca21 8d3d
000002e0: 5cd5 b6bd 98f0 1bbd ecb1 40bd 90a3 7c3c
000002f0: 30a9 9b3d 5a05 f93d 5069 853d b0f9 e7bc
00000300: e8bd aabd f872 94bd d8b0 033d 90a6 ce3d
00000310: b0ec ba3d c2c8 c7bd c08a 833b b8d7 73bd
00000320: 46d3 f93d 80cb 5b3b d000 983c ecdd cbbd
00000330: f68b e83d 26aa df3d f0d3 b6bd 687e 45bd
00000340: 3039 953d 0c3a e73d 2ce7 93bd 90ed b13c
00000350: 9294 b4bd 4c7e 74bd b287 99bd 7879 9b3d
00000360: e498 4fbd dc84 463d b867 bb3c a0b5 a9bc
00000370: 600b 1cbc 6621 c7bd 6c2a cc3d 802b 71bc
00000380: 0ca4 a73d 40b4 393c def8 c8bd 1089 a73c
00000390: 10b7 c13c f0c4 41bd 20df b93b 1050 4e3d
000003a0: f4ca aebd 64fb 653d f007 3b3d 88cf cd3c
000003b0: 62ec 853d 7444 103d 52aa ebbd 5052 9fbc
000003c0: bcb2 03bd 30d5 eb3c 2cc0 9abd 98d4 2f3d
000003d0: f033 cfbd 38bd 32bd c892 e73c 784d 7ebd
000003e0: 149f c9bd aa4c d8bd a802 8c3c a44c febd
000003f0: b4e4 6a3d 7093 cbba 88e7 573d 9eb4 cabd

bias f4 [128]
0.11404331 -0.090678066 0.07284565 -0.056620166 0.037490025 0.0033928854 0.06741656 0.023399517
-0.0763264 -0.062160105 0.070337236 -0.06748153 -0.014146373 0.023420647 -0.024537757 -0.059317425
-0.0013759893 0.094007015 -0.039465547 0.08177897 0.10798578 0.09665324 -0.06716266 0.04257807
-0.115089476 -0.09313525 0.010996923 0.123840496 0.11915691 0.11131683 0.09241293 -0.061580375
-0.03410834 -0.05185756 -0.022192001 0.009571016 -0.07348965 0.0925646 -0.109245375 -0.007857949
-0.007672757 0.039642707 0.009625688 -0.024525076 -0.0740699 -0.071045965 -0.110904574 -0.028236479
0.023893237 0.10776313 0.10755515 -0.06623584 0.07317665 -0.012768596 0.10087949 -0.085668355
-0.113833696 0.076881334 -0.11411315 0.015712038 -0.11721985 -0.07874693 0.09465851 0.1218511
-0.03496979 0.006406158 -0.06555271 -0.049500376 0.115274966 0.06070453 -0.008391976 -0.11426285
0.032626912 -0.051703617 -0.0935666 -0.072587565 0.030130431 -0.121237814 0.08038366 -0.043977514
0.0821712 0.0025788997 -0.09295264 -0.055012748 -0.107097685 0.11235504 -0.11500156 0.05381155
0.115684286 -0.025569722 -0.085899875 0.04455562 -0.043842822 -0.010874346 -0.07003689 -0.0072640777
0.015184417 0.11671217 0.12440574 -0.012203783 -0.101994544 -0.01692082 0.084087566 -0.013723105
0.09835227 0.05322115 0.095091835 0.012987673 0.044777527 -0.10518861 -0.001324754 0.035420626
-0.09111497 0.07967976 0.10023901 -0.12461841 0.082977414 0.025291353 -0.018687189 0.06968993
-0.101097494 0.0785861 0.1104165 0.07270798 0.08058381 0.10207541 0.10739641 -0.060247824
00000000: 8a8f e93d 6cb5 b9bd 1a30 953d 8cea 67bd
00000010: 248f 193d 2c5b 5e3b b211 8a3d 58b0 bf3c
00000020: 0451 9cbd 989b 7ebd f80c 903d c233 8abd
00000030: 30c6 67bc a8dc bf3c 6803 c9bc d4f6 72bd
00000040: 8a5a b4ba c086 c03d a0a6 21bd bc7b a73d
00000050: a627 dd3d 22f2 c53d 948c 89bd 5866 2e3d
00000060: 08b4 ebbd b2bd bebd 702c 343c 16a0 fd3d
00000070: 8a08 f43d 14fa e33d fe42 bd3d b43b 7cbd
00000080: 30b5 0bbd 9868 54bd 00cc b5bc c0cf 1c3c
00000090: be81 96bd 8292 bd3d 0abc dfbd a0be 00bc
000000a0: c06b fbbb 6460 223d 10b5 1d3c d0e8 c8bc
000000b0: f6b1 97bd 8c80 91bd f021 e3bd 3050 e7bc
000000c0: c0bb c33c eab2 dc3d e045 dc3d a8a6 87bd
000000d0: a4dd 953d 6033 51bc e899 ce3d e472 afbd
000000e0: a421 e9bd f673 9d3d 28b4 e9bd 88b6 803c
000000f0: f610 f0bd 1246 a1bd 52dc c13d 128d f93d
00000100: 7c3c 0fbd c0ea d13b 8040 86bd e8c0 4abd
00000110: 4815 ec3d 50a5 783d 807e 09bc a402 eabd
00000120: cca3 053d 2cc7 53bd d89f bfbd caa8 94bd
00000130: 18d4 f63c 884b f8bd 30a0 a43d c421 34bd
00000140: 6049 a83d c202 293b f45d bebd 0c55 61bd
00000150: 0856 dbbd 661a e63d f085 ebbd 8069 5c3d
00000160: e2eb ec3d 9877 d1bc 46ec afbd f47f 363d
00000170: 8894 33bd 502a 32bc 806f 8fbd 8007 eebb
00000180: 10c8 783c ca06 ef3d 70c8 fe3d 60f2 47bc
00000190: 84e2 d0bd 889d 8abc 1a36 ac3d e0d6 60bc
000001a0: ea6c c93d 6cfe 593d 82bf c23d 40ca 543c
000001b0: a468 373d 206d d7bd 5ea3 adba 3815 113d
000001c0: 7c9a babd 242f a33d 1c4a cd3d f037 ffbd
000001d0: 10f0 a93d d02f cf3c e015 99bc 98b9 8e3d
000001e0: 340c cfbd c0f1 a03d 0c22 e23d ece7 943d
000001f0: 2009 a53d ea0c d13d a6f2 db3d 6cc6 76bd

weight f4 [512, 128]
0.025696017 -0.016895205 0.085616775 -0.012271099 0.08156348 -0.02925063 -0.040242612 -0.08327889
-0.08754144 0.033148408 -0.07316391 -0.056971695 -0.06788633 0.047868215 -0.040638022 0.051376306
0.039473005 -0.058619574 -0.020895988 -0.035953812 -0.076019816 0.06334708 -0.043102108 -0.08132563
-0.062379524 0.04567621 -0.0011252157 0.034685105 0.05042816 -0.04746578 -0.0043043653 0.012992233
0.033956535 0.029452436 0.0028364002 0.022983275 0.06586889 -0.03904349 -0.07160042 0.029798284
0.03878855 -0.0172209 0.00028256158 -0.028454516 -0.08312721 0.050823696 0.086825274 -0.061442822
-0.02806748 -0.01911056 -0.011685975 0.030907251 0.017554007 0.01651419 0.03629162 -0.05700339
0.04733295 -0.053850543 -0.04551337 -0.024070889 0.0872485 -0.015395731 0.018449657 -0.035358857
-0.05111516 0.068453886 -0.03562755 0.002859877 0.0878446 -0.011200115 0.08706685 0.045779355
0.077211894 -0.07106301 0.07229888 1.4537851e-05 0.015365779 -0.07008918 0.040393062 -0.053407274
0.07135252 -0.070105225 0.08113978 -0.038637817 -0.022088602 -0.046794444 -0.003114392 0.08605153
0.040506236 -0.06829924 -0.08493345 -0.07093286 0.07793533 -0.021213338 -0.08728255 0.050253086
-0.044254877 0.08237881 0.033224314 -0.03538483 -0.0519397 -0.046971776 0.005525157 -0.04720074
0.0061800326 0.066858046 0.038746692 0.024787836 0.02682279 0.0016535628 0.0635123 0.020958856
0.07724493 0.03536444 -0.073382884 -0.0094177425 -0.037995826 0.011533864 0.006318614 -0.052326072
0.013396755 0.059960388 0.073940895 0.072452016 0.07862524 0.046795137 -0.0013652918 0.040892996
0.009937994 -0.080715805 -0.069090575 0.06859327 -0.0126257315 0.07272916 -0.071026176 0.02507262
0.0019917144 0.067440204 -0.0653254 0.01066348 -0.08695222 0.073432334 -0.042331208 -0.077004485
0.072195746 -0.08630471 -0.03632623 -0.057150893 -0.0094389245 -0.053247325 -0.046139996 -0.02030953
-0.042033896 -0.029559322 -0.08622466 0.08455188 -0.04797175 -0.018681929 0.052889474 0.040542163
-0.0024205423 0.00799612 -0.0078032687 0.06732682 0.057092525 0.00869444 -0.071037665 -0.04875956
-0.068199545 -0.03234701 0.015698113 -0.08505838 -0.08793604 -0.06638804 -0.061879314 -0.040865816
0.01351244 0.007897131 0.031280577 0.011676446 -0.021106258 -0.06514052 0.011462159 -0.049811378
-0.03919503 -0.050142854 -0.06860409 -0.01185105 0.048546903 -0.080449715 0.014154926 -0.028532099
0.012124613 -0.034656037 -0.017599784 -0.03922626 0.023744293 0.072150506 -0.015143909 -0.0223642
-0.04830324 -0.03640652 -0.05963335 -0.055890188 0.041988693 0.071811 -0.04137376 -0.08756861
0.07300653 -0.07739084 0.030820101 -0.019450434 0.053775974 -0.010506175 -0.061790694 -0.059713032
0.042620637 0.060772292 0.037276603 -0.022566676 -0.05902666 -0.05087365 -0.037162647 0.08056197
0.06639413 -0.050210793 -0.021778755 0.054985873 -0.036479753 -0.06013605 -0.0134957135 -0.016260125
0.08498939 -0.04140092 0.058670573 0.01663696 0.08573607 0.01529628 0.06041538 0.014986955
0.0066638133 0.044101708 0.07960578 0.06721478 -0.009809531 -0.028741632 -0.07467979 0.052137323
-0.010972679 -0.07758147 -0.079945825 -0.08579612 0.024423972 -0.031327657 0.086323954 0.05568964
00000000: 7480 d23c d067 8abc d957 af3d b80c 49bc
00000010: c10a a73d 049f efbc 70d5 24bd 1f8e aabd
00000020: ed48 b3bd a0c6 073d f6d6 95bd 275b 69bd
00000030: fd07 8bbd 7611 443d 0e74 26bd f66f 523d
00000040: 72ae 213d 141b 70bd 102e abbc 4e44 13bd
00000050: 47b0 9bbd 1dbc 813d d68b 30bd 0d8e a6bd
00000060: ac81 7fbd fa16 3b3d f97b 93ba f811 0e3d
00000070: c28d 4e3d 7a6b 42bd a20b 8dbb 60dd 543c
00000080: 0216 0b3d 3c46 f13c e6e2 393b 6c47 bc3c
00000090: 45e6 863d 11ec 1fbd 3ea3 92bd 881b f43c
000000a0: bee0 1e3d d812 8dbc c624 9439 7219 e9bc
000000b0: 993e aabd 822c 503d 73d1 b13d 78ab 7bbd
000000c0: c6ed e5bc c08d 9cbc 8876 3fbc 3431 fd3c
000000d0: 6ccd 8f3c c448 873c 86a6 143d 637c 69bd
000000e0: 32e0 413d 6392 5cbd 3a6c 3abd 5030 c5bc
000000f0: 57af b23d 603e 7cbc bc23 973c 73d4 10bd
00000100: 215e 51bd 8d31 8c3d 32ee 11bd c66c 3b3b
00000110: dfe7 b33d b080 37bc 1b50 b23d 2283 3b3d
00000120: 4521 9e3d 7c89 91bd 6f11 943d 98e7 7337
00000130: c0c0 7b3c ea8a 8fbd 3273 253d 96c1 5abd
00000140: 4521 923d 5493 8fbd 9d2c a63d b042 1ebd
00000150: 28f3 b4bc 88ab 3fbd d41a 4cbb c93b b03d
00000160: dee9 253d 79e0 8bbd 97f1 adbd 3f45 91bd
00000170: 8f9c 9f3d 98c7 adbc 32c1 b2bd 2ed6 4d3d
00000180: 9a44 35bd 39b6 a83d 3816 083d afef 10bd
00000190: b9be 54bd 7a65 40bd 600c b53b 9055 41bd
000001a0: df81 ca3b dfec 883d dab4 1e3d dc0f cb3c
000001b0: 78bb db3c 5cbc d83a bd12 823d e8b1 ab3c
000001c0: 9732 9e3d 4eda 103d c449 96bd e04c 1abc
000001d0: 83a1 1bbd 88f8 3c3c 600c cf3b dd53 56bd
000001e0: 107e 5b3c 0699 753d 536e 973d b961 943d
000001f0: 4506 a13d 42ac 3f3d 97f3 b2ba 6a7f 273d
00000200: f8d2 223c 544e a5bd 5c7f 8dbd a17a 8c3d
00000210: 28dc 4ebc 07f3 943d 2c76 91bd 1865 cd3c
00000220: 6c87 023b 171e 8a3d 53c9 85bd e0b5 2e3c
00000230: 0114 b2bd b163 963d 7d63 2dbd 87b4 9dbd
00000240: 5ddb 933d 86c0 b0bd d0ca 14bd 0e17 6abd
00000250: b8a5 1abc de19 5abd 4bfd 3cbd 2c60 a6bc
00000260: bc2b 2cbd 6426 f2bc 8e96 b0bd 8929 ad3d
00000270: 077e 44bd d80a 99bc a2a2 583d 8a0f 263d
00000280: f6a1 1ebb 2802 033c 90b2 ffbb a5e2 893d
00000290: dad9 693d 2073 0e3c 327c 91bd 1bb8 47bd
000002a0: 34ac 8bbd 4c7e 04bd 5499 803c 1733 aebd
000002b0: cf17 b4bd 74f6 87bd 2a75 7dbd ea62 27bd
000002c0: 4863 5d3c f862 013c 1020 003d 904e 3f3c
000002d0: 08e7 acbc 6568 85bd c8cb 3b3c 0407 4cbd
000002e0: f88a 20bd 9862 4dbd 4d80 8cbd e82a 42bc
000002f0: 1ed9 463d d2c2 a4bd 10ea 673c 26bc e9bc
00000300: 50a6 463c 7df3 0dbd 6c2d 90bc b7ab 20bd
00000310: 6483 c23c a5c3 933d 281e 78bc 2035 b7bc
00000320: 9ed9 45bd 011f 15bd 1a42 74bd 1ced 64bd
00000330: 56fc 2b3d a511 933d 8877 29bd 2c57 b3bd
00000340: 7384 953d 177f 9ebd 707a fc3c 8456 9fbc
00000350: 3244 5c3d 1822 2cbc 3d18 7dbd a795 74bd
00000360: fa92 2e3d 5eec 783d 5aaf 183d c0dd b8bc
00000370: f0c5 71bd e360 50bd dc37 18bd adfd a43d
00000380: a5f9 873d d5a9 4dbd 5c69 b2bc de38 613d
00000390: cb6b 15bd 3851 76bd 201d 5dbc f433 85bc
000003a0: eb0e ae3d 0394 29bd 8e50 703d 3c4a 883c
000003b0: 6596 af3d 409d 7a3c 1e76 773d d88b 753c
000003c0: 1e5c da3b fea3 343d 5b08 a33d e7a7 893d
000003d0: 28b8 20bc 9273 ebbc b8f1 98bd f28d 553d
000003e0: c0c6 33bc 09e3 9ebd a3ba a3bd e0b5 afbd
000003f0: c814 c83c 6e51 00bd 9dca b03d d21a 643d

bias f4 [512]
0.0067933425 0.045318834 -0.052975047 0.07817327 -0.007291302 -0.004146956 -0.054552298 -0.015292987
-0.0034093908 -0.04988248 -0.014681853 0.013001189 -0.06021578 0.0870999 -0.056173686 -0.009683713
-0.084654935 -0.019454151 0.04146581 -0.04802822 -0.08333949 0.0803354 0.07438024 -0.012571655
-0.014254503 0.06965596 0.0323276 0.005742848 -0.049329765 0.013640247 -0.08017586 0.034745142
0.010896571 -0.056075074 0.05365587 0.04303772 -0.015137322 -0.019148648 -0.007850997 -0.07812679
-0.06836069 -0.038275406 0.029239431 0.011933818 -0.06079922 -0.032534625 -0.024003796 -0.0037096087
0.06755491 0.08788759 -0.029806387 0.080775134 -0.082498156 0.034749337 -0.08214572 0.06540913
0.06640396 0.087341346 -0.032245994 -0.0017620154 0.07233805 -0.011696845 0.033501737 -0.07344858
0.006567098 -0.029131543 0.014244057 -0.07739923 -0.039641883 -0.026784629 -0.05336308 -0.02404961
0.06943805 -0.0047272444 -0.00061772217 -0.012825064 0.045560084 -0.025665052 -0.016599178 -0.011224717
-0.046882257 0.053362094 -0.06511533 0.03722123 0.04112994 -0.06798033 0.021149091 -0.065433785
-0.066456504 0.028551199 -0.08702287 0.034454413 -0.05274518 0.062002696 0.02565676 0.069281854
0.042603098 0.014144622 0.059550785 0.039317273 -0.013177097 0.05100099 0.065947495 -0.083236955
-0.03730392 -0.07563609 0.0103807375 0.07282946 -0.07600951 -0.030888181 0.077895485 0.07472686
-0.073636904 0.01944153 -0.08108167 -0.022408038 0.042649023 0.02083008 -0.046141643 -0.004290737
0.03513497 0.056947522 0.023713723 -0.022823803 0.055725895 0.03457819 -0.06620688 0.025704175
0.006114982 0.007860683 -0.036294505 -0.041904073 -0.04640743 0.05066099 0.0024442102 -0.022190072
-0.0009314805 0.0024040868 0.02702909 -0.07498781 -0.026106644 0.06156849 -0.026888803 0.038769044
-0.025946189 -0.0005996743 -0.041567538 0.065449394 0.009570882 -0.024892591 -0.012744851 -0.0653893
0.033302903 0.004786566 0.054331876 0.049182333 0.019008808 0.08639241 0.02775862 -0.08711442
-0.018314108 -0.06453705 -0.0825752 -0.017789133 0.06805401 0.01548861 -0.039839454 0.019613132
0.058649905 0.038281225 -0.0050285757 0.068816535 0.0768271 0.06686195 -0.08371781 0.07955261
0.086686306 -0.043133978 0.0481899 0.007129848 -0.080786996 -0.028222434 0.081830956 -0.053268284
0.01776871 -0.038816594 0.03475097 0.0015047379 0.062232755 -0.07780434 0.017291851 0.02282872
-0.020306826 0.083231725 0.06538945 0.018395483 -0.0125242695 0.03210166 0.083721735 -0.066644005
-0.016673759 0.016892664 0.07131239 0.021440417 0.052112825 0.06437784 0.05240684 0.04542444
0.07095111 0.05690656 0.04224495 -0.03881695 -0.054670732 -0.06769005 0.02304466 -0.04467533
-0.041138906 -0.078933574 0.02902013 -0.009355739 -0.002174064 0.05477909 -0.04793619 0.04972709
0.035935022 0.049000256 -0.033517346 -0.0423595 0.059026517 0.06513549 -0.026141793 -0.047613453
0.006824374 0.013436027 0.008929908 0.024801426 0.07343999 -0.011611126 -0.0098581165 -0.07974361
-0.0039699897 0.009663239 -0.07148618 -0.0041814446 0.019856572 0.053869076 -0.00627394 -0.028241958
0.026378594 -0.04810031 -0.08250989 -0.07798523 0.0616109 0.037280448 0.08678139 0.0877875
00000000: b09a de3b 3ea0 393d 5dfc 58bd 4f19 a03d
00000010: e0eb eebb 30e3 87bb 3b72 5fbd 708f 7abc
00000020: 1670 5fbb 9251 4cbd 288c 70bc f002 553c
00000030: d2a4 76bd 6f61 b23d 6116 66bd 70a8 1ebc
00000040: 915f adbd 505e 9fbc 0ed8 293d 3db9 44bd
00000050: e5ad aabd e386 a43d ab54 983d 58f9 4dbc
00000060: b88b 69bc c9a7 8e3d f269 043d 802e bc3b
00000070: 020e 4abd 587b 5f3c 3e33 a4bd ec50 0e3d
00000080: 8887 323c faae 65bd 42c6 5b3d 5248 303d
00000090: 8802 78bc a0dd 9cbc 78a1 00bc f000 a0bd
000000a0: b000 8cbd acc6 1cbd 8887 ef3c 1086 433c
000000b0: 9a08 79bd 0743 05bd 9ca3 c4bc e81c 73bb
000000c0: 3b5a 8a3d 69fe b33d 862c f4bc 6f6d a53d
000000d0: cbf4 a8bd 5255 0e3d 043c a8bd 39f5 853d
000000e0: cdfe 873d 05e0 b23d 6014 04bd 6df3 e6ba
000000f0: f925 943d 20a4 3fbc 1e39 093d 366c 96bd
00000100: d030 d73b 46a5 eebc e85f 693c 7d83 9ebd
00000110: 875f 22bd 706b dbbc 3f93 5abd b003 c5bc
00000120: 8935 8e3d 00e7 9abb a2ee 21ba 3820 52bc
00000130: 369d 3a3d 843f d2bc 00fb 87bc e0e7 37bc
00000140: 9c07 40bd 3692 5a3d 305b 85bd 4a75 183d
00000150: de77 283d 4539 8bbd dc40 ad3c 2602 86bd
00000160: 591a 88bd 34e4 e93c 0c39 b2bd 1220 0d3d
00000170: 540b 58bd 8af6 7d3d 202e d23c a5e3 8d3d
00000180: 9680 2e3d d8be 673c 86eb 733d 260b 213d
00000190: c0e4 57bc 6ae6 503d 7b0f 873d 2378 aabd
000001a0: ffcb 18bd 18e7 9abd f813 2a3c 9d27 953d
000001b0: e0aa 9bbd 3609 fdbc ab87 9f3d 650a 993d
000001c0: f2ce 96bd d843 9f3c 260e a6bd 1091 b7bc
000001d0: beb0 2e3d d8a3 aa3c 05ff 3cbd 5099 8cbb
000001e0: b0e9 0f3d ce41 693d 4843 c23c fcf8 babc
000001f0: d640 643d dca1 0d3d 7997 87bd 9091 d23c
00000200: 3060 c83b 18ca 003c 8ca9 14bd 9ba3 2bbd
00000210: b815 3ebd e681 4f3d 0b2f 203b f4c7 b5bc
00000220: 992e 74ba e28d 1d3b 1c6c dd3c 3593 99bd
00000230: 9add d5bc 3e2f 7c3d e845 dcbc 4acc 1e3d
00000240: 1a8d d4bc 7633 1dba b942 2abd 550a 863d
00000250: 30cf 1c3c 8ceb cbbc c8cf 50bc d3ea 85bd
00000260: a068 083d a0d8 9c3b 1a8b 5e3d 6a73 493d
00000270: 5cb8 9b3c 81ee b03d 0c66 e33c 0c69 b2bd
00000280: 7807 96bc 002c 84bd 301d a9bd 84ba 91bc
00000290: e75f 8b3d f0c3 7d3c b22e 23bd b8ab a03c
000002a0: e23a 703d c6cc 1c3d c0c6 a4bb afef 8c3d
000002b0: 8757 9d3d ebee 883d 3e74 abbd 7bec a23d
000002c0: 9788 b13d 41ad 30bd c662 453d 80a1 e93b
000002d0: a773 a5bd bc32 e7bc fd96 a73d d82f 5abd
000002e0: b08f 913c 26fe 1ebd 0857 0e3d a03a c53a
000002f0: c6e7 7e3d e257 9fbd a4a7 8d3c 4c03 bb3c
00000300: 805a a6bc 6575 aa3d e7ea 853d 20b2 963c
00000310: 9832 4dbc 087d 033d 4d76 ab3d a77c 88bd
00000320: 6897 88bc 7c62 8a3c 3b0c 923d d0a3 af3c
00000330: 4274 553d 87d8 833d 8ea8 563d fa0e 3a3d
00000340: d14e 913d da16 693d 0a09 2d3d 86fe 1ebd
00000350: 6bee 5fbd 15a1 8abd 28c8 bc3c 7bfd 36bd
00000360: 4581 28bd eda7 a1bd a0bb ed3c d048 19bc
00000370: be7a 0ebb 0a60 603d bd58 44bd a2ae 4b3d
00000380: 9a30 133d 7eb4 483d 7c49 09bd 2881 2dbd
00000390: cac5 713d c165 853d 5027 d6bc 5306 43bd
000003a0: 009f df3b c822 5c3c c04e 123c 5c2c cb3c
000003b0: b567 963d 983c 3ebc f083 21bc 9e50 a3bd
000003c0: b016 82bb 9052 1e3c 5967 92bd 8004 89bb
000003d0: 40aa a23c d2a5 5c3d a095 cdbb ae5b e7bc
000003e0: ec17 d83c d504 45bd f2fa a8bd b8b6 9fbd
000003f0: b65b 7c3d 62b3 183d 71ba b13d efc9 b33d

weight f4 [128, 512]
0.0373845 -0.014067359 -0.037354633 -0.016404191 0.041621763 -0.044154137 0.027977418 0.007162999
0.010881748 -0.024257919 -0.018109657 0.037773963 -0.0012499939 0.016092036 0.018036164 0.04143245
0.024672303 -0.042988352 0.0017003511 -0.00802939 -0.005087386 0.036515426 0.0003039805 0.014742613
-0.04103138 -0.03713146 0.04299933 0.013381697 -0.035165764 0.03186919 -0.012349945 -0.0011233881
0.0337482 0.023442175 0.03685149 -0.029590564 -0.00067994004 0.029533457 0.0413982 -0.012846716
-0.03406737 0.024730232 0.0017558613 0.039303426 -0.009959269 -0.015132863 -0.010272287 -0.027676791
-0.022750216 0.026117448 0.0066062124 -0.024471508 -0.0143672805 0.008996829 0.034086514 -0.038229097
-0.002934138 0.0064562634 0.036732893 -0.04133155 -0.0064236484 -0.034914028 -0.028108424 0.020639677
0.023766663 0.004737571 0.011019457 0.005439825 0.003979932 -0.01946842 0.027049448 -0.023171447
0.010407191 -0.035516404 -0.042723544 0.010514546 -0.024636107 0.035638724 -0.005180318 0.016232483
0.0032956686 -0.033835538 -0.035162177 0.0110578835 0.026301827 0.004822098 -0.015679507 -0.042711142
-0.031007694 -0.015988601 -0.027305184 -0.018187229 -0.040522963 -0.041153256 -0.015164647 0.037319493
-0.017313978 -0.023801912 0.032284606 0.015397638 -0.022715919 -0.037779313 -0.018174058 0.02391519
-0.0194957 -0.019224763 0.016568907 0.032692697 -0.01594224 0.0043689534 -0.02444544 -0.013403809
-0.027401416 -0.01931293 -0.03842387 -0.03693046 -0.013018709 0.010155361 0.01900239 -0.032816056
-0.0046918243 0.00018671219 0.02523293 0.022670303 0.03590015 0.032141816 -0.016369719 0.033904802
0.027127434 0.020853933 0.027903508 -0.009232994 -0.038796715 0.010947134 0.02450407 0.03390118
-0.009774558 0.022811804 -0.027278947 -0.010123268 0.0007290807 -0.039026633 -0.016257051 0.022898916
0.0048632775 -0.03232298 0.035036083 0.022048507 -0.026907317 -0.03740753 -0.02737079 0.022176478
0.010163855 -0.013729863 -0.03822748 -0.005046242 -0.029872363 0.019242588 -0.024739552 -0.016746381
-0.03065709 -0.0010222618 0.02612489 -0.03874538 -0.011184514 0.037557002 -0.017723914 -0.023971625
0.029110756 -0.00071974494 -0.016632563 -0.02219599 -0.008395709 -0.0022592407 -0.0357071 -0.025955103
0.026364278 -0.0052975677 -0.01602744 -0.041088488 0.009074017 0.04081725 0.043367524 -0.04350173
-0.035777647 -0.007899512 -0.03965501 0.0046881475 0.020885486 0.040577162 -0.025945768 0.029571306
-0.020080728 -0.039426744 0.0028455257 -0.011256017 0.018893357 -0.03504918 0.028588835 0.017235175
0.008106463 -0.043944318 -0.042985123 -0.027999021 -0.03881474 0.012820132 -0.038173668 -0.020430716
0.0018312917 -0.019802881 -0.0033121174 0.038400177 0.0069767153 0.01894373 -0.0066350927 0.022669073
0.037266213 -0.015695723 0.007089092 -0.036890578 -0.01401104 0.0063490532 -0.012671441 -0.009845663
0.034011994 -0.026650095 0.0069375257 0.027794164 -0.0005189431 0.034159545 -0.00096129475 0.003759241
0.03295142 -0.03890622 -0.03924409 -0.018365178 -0.025225852 -0.012479998 0.03833383 -0.03220525
0.020121094 -0.00074762 0.042233583 -0.032245878 -0.042359482 -0.013135012 0.026026104 -0.026975906
-0.0058058617 -0.03663816 0.037397694 -0.007453044 0.025613163 0.0027433117 -0.037291426 -0.015784057
00000000: 7d20 193d c87a 66bc 2c01 19bd 1562 86bc
00000010: 957b 2a3d f8da 34bd e630 e53c 97b7 ea3b
00000020: 5c49 323c 8bb8 c6bc b45a 94bc dfb8 1a3d
00000030: d6d6 a3ba 72d3 833c 94c0 933c 13b5 293d
00000040: 921d ca3c 8e14 30bd 51de de3a b48d 03bc
00000050: 16b4 a6bb 3391 153d 925f 9f39 008b 713c
00000060: 8510 28bd 2817 18bd 1120 303d e83e 5b3c
00000070: fa09 10bd 4589 023d 6c57 4abc a63e 93ba
00000080: 8d3b 0a3d ce09 c03c 97f1 163d e967 f2bc
00000090: 013e 32ba 26f0 f13c 2991 293d 087b 52bc
000000a0: 3a8a 0bbd 0e97 ca3c ee24 e63a a1fc 203d
000000b0: 342c 23bc d4ef 77bc 184d 28bc 70ba e2bc
000000c0: a95e babc 42f4 d53c ed78 d83b 7978 c8bc
000000d0: be64 6bbc 7067 133c 4d9e 0b3d 1d96 1cbd
000000e0: ab4a 40bb 108f d33b 3b75 163d 454b 29bd
000000f0: 787d d2bb 0302 0fbd a343 e6bc 8a14 a93c
00000100: 4eb2 c23c a03d 9b3b f48a 343c 8f40 b23b
00000110: 176a 823b 3c7c 9fbc ce96 dd3c 0cd2 bdbc
00000120: ec82 2a3c a679 11bd e2fe 2ebd 3445 2c3c
00000130: a9d1 c9bc e9f9 113d a8bf a9bb fcf9 843c
00000140: 25fc 573b 2297 0abd 3706 10bd 202c 353c
00000150: ee76 d73c b102 9e3b 4f72 80bc e1f1 2ebd
00000160: d903 febc 87fa 82bc 1faf dfbc 62fd 94bc
00000170: 68fb 25bd 5190 28bd 2475 78bc 53dc 183d
00000180: 0bd6 8dbc 3afc c2bc dd3c 043d 6046 7c3c
00000190: bc16 babc 7bbe 1abd c3e1 94bc cae9 c33c
000001a0: 72b5 9fbc 407d 9dbc 84bb 873c c7e8 053d
000001b0: 4d99 82bc 7029 8f3b ce41 c8bc a69b 5bbc
000001c0: ef78 e0bc 2636 9ebc 5962 1dbd 6544 17bd
000001d0: 6c4c 55bc ac62 263c e6aa 9b3c 216a 06bd
000001e0: e0bd 99bb 2cc8 4339 4ab5 ce3c 12b7 b93c
000001f0: 090c 133d 23a7 033d ca19 86bc c3df 0a3d
00000200: 5a3a de3c ded5 aa3c e695 e43c fc45 17bc
00000210: 4ee9 1ebd 9c5b 333c c2bc c83c f7db 0a3d
00000220: 7825 20bc d2df ba3c 1978 dfbc 10dc 25bc
00000230: c71f 3f3a 64da 1fbd 822d 85bc 8296 bb3c
00000240: 215c 9f3b 1a65 04bd ff81 0f3d 129f b43c
00000250: bc6c dcbc a338 19bd b538 e0bc 72ab b53c
00000260: 4c86 263c 38f3 60bc 6b94 1cbd f25a a5bb
00000270: e3b6 f4bc a2a2 9d3c 9aaa cabc b52f 89bc
00000280: 9424 fbbc 6afd 85ba de03 d63c 7ab3 1ebd
00000290: 403f 37bc 5fd5 193d be31 91bc 2460 c4bc
000002a0: ae79 ee3c 44ad 3cba 0341 88bc 5dd4 b5bc
000002b0: 288e 09bc c50f 14bb 9c41 12bd cc9f d4bc
000002c0: e6f9 d73c 3897 adbb fa4b 83bc 674c 28bd
000002d0: 30ab 143c fd2f 273d 25a2 313d df2e 32bd
000002e0: 958b 12bd f46c 01bc 4b6d 22bd 089f 993b
000002f0: 0a18 ab3c 3d34 263d 388c d4bc 863f f23c
00000300: 5780 a4bc f07d 21bd 007c 3a3b 286b 38bc
00000310: 3ec6 9a3c bb8f 0fbd 2233 ea3c c830 8d3c
00000320: f8d0 043c f5fe 33bd 2b11 30bd 345e e5bc
00000330: 34fc 1ebd 880b 523c fe5b 1cbd 515e a7bc
00000340: f407 f03a a739 a2bc 1c10 59bb 8149 1d3d
00000350: ee9c e43b e22f 9b3c 316b d9bb 7eb4 b93c
00000360: 75a4 183d 5194 80bc 9d4b e83b 931a 17bd
00000370: 908e 65bc b80b d03b e09b 4fbc b44f 21bc
00000380: 2950 0b3d 4d51 dabc 2f54 e33b 96b0 e33c
00000390: af09 08ba e1ea 0b3d 66ff 7bba 995d 763b
000003a0: 11f8 063d 215c 1fbd 69be 20bd 9272 96bc
000003b0: 72a6 cebc e878 4cbc ef03 1d3d a7e9 03bd
000003c0: fed4 a43c eefb 43ba 1ffd 2c3d 4114 04bd
000003d0: 2381 2dbd 3c34 57bc b234 d53c 93fc dcbc
000003e0: 193f bebb e511 16bd 532e 193d aa38 f4bb
000003f0: b2d2 d13c 22c9 333b e5be 18bd 914d 81bc

bias f4 [128]
0.037050728 0.04095448 0.016232926 -0.016259648 -0.03798196 -0.02157652 0.04391064 0.0036677623
0.020557862 -0.030247793 0.015391398 -0.016560566 0.0053201057 0.040738802 -0.019967312 0.032212194
-0.03611247 0.011235785 -0.029791005 -0.027427778 -0.002798642 -0.041345783 0.027078483 0.0038872743
0.012924131 -0.03328014 -0.023672335 0.014699839 0.009394262 -0.00043328115 0.03998172 -0.037265442
-0.020378727 -0.0036829924 0.005817067 -0.0055078752 0.030468848 -0.022134844 0.006768506 0.012585342
0.03900222 -0.03664314 0.016297653 -0.04389098 0.011310048 -0.04389275 -0.03971117 0.037438694
-0.016948806 0.0078034587 -0.01855249 -0.0012939638 0.031320672 -0.032858133 0.037825044 -0.042274978
-0.013205035 0.00085398485 -0.024335643 0.018448431 0.04396235 0.008033421 0.019273166 0.028442431
0.035328154 -0.024743535 -0.00011430155 -0.0009951695 0.04412521 0.008140862 -0.031752665 0.0011282504
-0.0049123876 0.01631606 -0.012111988 -0.008086711 -0.026777674 0.014097735 0.03491367 -0.022353487
-0.039650563 -0.00973716 -0.014546178 0.031370793 0.0358355 0.018066298 0.030993003 -0.012955489
0.030144107 -0.0071370304 -0.0319249 0.029135924 -0.022198197 0.02911288 0.01572758 -0.042686295
-0.0363954 0.006572131 -0.015716812 -0.035261612 0.02656066 -0.037381124 0.0066270977 0.043971386
0.0031189532 -0.006737765 0.006259188 -0.014355533 7.640813e-05 0.036292914 -0.028554242 -0.0057637617
-0.007485315 -0.016466841 0.0044410974 -0.02104154 -0.031497866 0.01797907 0.022642609 0.034646165
0.021566588 -0.00043302518 0.030875888 -0.041926414 -0.04101757 -0.013665574 -0.035478756 -0.03367279
00000000: 81c2 173d e3bf 273d eafa 843c f432 85bc
00000010: f992 1bbd 3ec1 b0bc a5db 333d d75e 703b
00000020: f668 a83c 38ca f7bc 342c 7c3c 06aa 87bc
00000030: 4854 ae3b bbdd 263d 7d92 a3bc eff0 033d
00000040: abea 13bd 4c16 383c 440c f4bc 38b0 e0bc
00000050: 6c69 37bb 325a 29bd b2d3 dd3c a4c1 7e3b
00000060: bcbf 533c c250 08bd 7cec c1bc 98d7 703c
00000070: 64ea 193c 032a e3b9 dfc3 233d a6a3 18bd
00000080: 4af1 a6bc 5c5e 71bb 189d be3b 687b b4bb
00000090: ce99 f93c 2254 b5bc 58ca dd3b c032 4e3c
000000a0: cbc0 1f3d 1e17 16bd a882 853c 07c7 33bd
000000b0: c84d 393c e2c8 33bd 2ea8 22bd 5159 193d
000000c0: 39d8 8abc 28b4 ff3b 64fb 97bc 389a a9ba
000000d0: 1b4a 003d 4096 06bd 6fee 1a3d 8728 2dbd
000000e0: ee59 58bc f4dd 5f3a 8b5b c7bc 2a21 973c
000000f0: dd11 343d 9c9e 033c c2e2 9d3c 1a00 e93c
00000100: 41b4 103d f4b2 cabc 2db5 efb8 5970 82ba
00000110: a3bc 343d 4061 053c 150f 02bd cde1 933a
00000120: 18f8 a0bb 42a9 853c 5c71 46bc 207e 04bc
00000130: da5c dbbc 30fa 663c a301 0f3d a91e b7bc
00000140: a168 22bd 9c88 1fbc 1853 6ebc a97e 003d
00000150: 3fc8 123d c6ff 933c 0ae5 fd3c 4243 54bc
00000160: c6f0 f63c c0dd e9bb afc3 02bd 76ae ee3c
00000170: fed8 b5bc 227e ee3c 20d7 803c d3d7 2ebd
00000180: 5813 15bd 085b d73b 8bc0 80bc 7b6e 10bd
00000190: be95 d93c f31c 19bd 2028 d93b 571b 343d
000001a0: 5a67 4c3b 78c8 dcbb e019 cd3b 7833 6bbc
000001b0: 4d3d a038 e1a7 143d 96ea e9bc f0dd bcbb
000001c0: 6047 f5bb 78e5 86bc a086 913b 4f5f acbc
000001d0: e803 01bd d848 933c fe7c b93c 23e9 0d3d
000001e0: 6aac b03c a807 e3b9 6eef fc3c 08bb 2bbd
000001f0: 0a02 28bd 92e5 5fbc 2c52 11bd 7bec 09bd

weight f4 [1, 128]
0.0020667214 0.016568601 -0.0112077445 0.022794925 0.068956606 0.08357545 -0.03148414 0.025817834
0.0808099 -0.010761701 -0.08830338 -0.050289314 -0.043266427 -0.026386391 -0.074339524 0.011824422
-0.03888189 0.07159374 -0.04075689 0.03810408 -0.07098426 -0.025950845 -0.041975595 -0.031069908
0.013750881 0.03903825 0.08175034 -0.057027012 0.067538075 -0.07894096 -0.036752105 -0.061379846
0.018677257 0.078644685 0.06308562 0.0687361 -0.027966637 -0.06483559 -0.025492966 -0.018765874
0.049067877 0.030505702 -0.008359872 -0.086551584 0.0076414794 -0.07947985 -0.011035152 0.009397946
-0.004054345 -0.06723241 0.04168188 -0.08328338 -0.0077951327 0.009250581 -0.03010898 -0.08195023
-0.08642355 -0.08217571 0.037217863 0.075595655 0.0153696835 0.02902297 0.07015457 0.07726253
-0.074779645 0.025626123 -0.07815074 0.06535437 -0.052818526 -0.0682809 0.044308133 -0.070528515
0.055906065 0.04923723 0.06419202 -0.041415222 -0.060578667 0.0015114911 0.06277729 -0.012746282
0.007596945 0.032887526 0.0737732 0.051031925 0.070097916 -0.031915646 0.013611026 0.04752869
0.08108289 -0.058499128 -0.019331135 -0.06420293 0.04934662 0.07582509 0.058256738 -0.077377275
-0.07035236 -0.045659333 -0.06661795 -0.07024817 0.053463288 -0.06847222 0.06312659 -0.08465865
0.037801467 0.0018311704 -0.07960397 0.01826188 0.037811883 -0.0026817124 -0.08153881 -0.015952311
-0.034589726 -0.07507699 0.0035431173 -0.043127563 -0.03291634 -0.043649722 -0.07858154 -0.014732353
0.01342196 -0.009988405 0.009401917 -0.005786859 0.08206994 -0.05023369 0.04956744 0.08238386
00000000: d571 073b e0ba 873c b0a0 37bc 6cbc ba3c
00000010: 1f39 8d3d 9b29 ab3d 83f5 00bd ec7f d33c
00000020: a97f a53d d851 30bc 67d8 b4bd 2bfc 4dbd
00000030: 2338 31bd 4628 d8bc 523f 98bd 38bb 413c
00000040: 9e42 1fbd bd9f 923d b2f0 26bd 0613 1c3d
00000050: 3260 91bd de96 d4bc 9aee 2bbd 5286 febc
00000060: 604b 613c 92e6 1f3d b96c a73d 2895 69bd
00000070: 6751 8a3d ccab a1bd 6089 16bd 6f69 7bbd
00000080: 0c01 993c 7710 a13d 0933 813d 83c5 8c3d
00000090: 4a1a e5bc 86c8 84bd a0d6 d0bc e4ba 99bc
000000a0: 66fb 483d 18e7 f93c d8f7 08bc f541 b1bd
000000b0: 6065 fa3b 55c6 a2bd c8cc 34bc d8f9 193c
000000c0: 50da 84bb 25b1 89bd 9eba 2a3d 7a90 aabd
000000d0: 506e ffbb c08f 173c 1ca7 f6bc 86d5 a7bd
000000e0: d5fe b0bd bd4b a8bd c271 183d e5d1 9a3d
000000f0: 20d1 7b3c 94c1 ed3c 33ad 8f3d d13b 9e3d
00000100: 1226 99bd e0ed d13c 7f0d a0bd 83d8 853d
00000110: 3d58 58bd dbd6 8bbd 727c 353d 4171 90bd
00000120: c2fd 643d faac 493d 1b77 833d 02a3 29bd
00000130: 5621 78bd 3a1d c63a 6191 803d c8d5 50bc
00000140: cbef f83b 12b5 063d 6716 973d da06 513d
00000150: 7f8f 8f3d fbb9 02bd c800 5f3c 72ad 423d
00000160: c90e a63d c89c 6fbd 545c 9ebc d37c 83bd
00000170: ae1f 4a3d 2f4a 9b3d 9e9e 6e3d fa77 9ebd
00000180: e614 90bd 4805 3bbd fe6e 88bd 46de 8fbd
00000190: 52fc 5a3d 2a3b 8cbd 8348 813d 8461 adbd
000001a0: b6d5 1a3d e203 f03a 6807 a3bd f099 953c
000001b0: a2e0 1a3d abbf 2fbb d2fd a6bd 6cae 82bc
000001c0: f5ad 0dbd f7c1 99bd a533 683b 87a6 30bd
000001d0: 49d3 06bd 0dca 32bd 5cef a0bd f85f 71bc
000001e0: c8e7 5b3c 68a6 23bc 800a 1a3c b19f bdbb
000001f0: 4914 a83d d7c1 4dbd 3a07 4b3d dfb8 a83d
