memory/central_critic.pth (torch, 566209 bytes, 11 tensors)

weight f4 [32, 5]
0	0x3ea5597e	0.3229484
1	0xbec32697	-0.3811538
2	0x3e98ab39	0.29818133
3	0x3eaab3ff	0.3334045
4	0x3e769151	0.24078871
5	0xbdd6b7fc	-0.10484311
6	0x3ec049dc	0.3755635
7	0x3d4a80ab	0.049439114
8	0xbdcb5141	-0.09927607
9	0x3e4c9789	0.19979681
10	0xbe943bd6	-0.289519
11	0x3e358579	0.17726697
12	0xbc6ea181	-0.014564873
13	0x3e3347be	0.17507836
14	0x3e574061	0.21020652
15	0xbe8da652	-0.27665955
16	0xbd5e0d18	-0.054211706
17	0xbdda6944	-0.10664609
18	0xbe7f98f4	-0.2496069
19	0x3e836464	0.2566253
20	0xbd958ccc	-0.073022455
21	0xbe792121	-0.24329044
22	0xbdfaf472	-0.122536555
23	0x3ded0f61	0.11575199
24	0x3e1fa1bc	0.1558904
25	0xbe31da86	-0.17368516
26	0xbe47a868	-0.19497836
27	0xbeb0c6d4	-0.34526694
28	0xbd81ca70	-0.0633744
29	0x3e9414e6	0.28922194
30	0x3ee15833	0.44012603
31	0xbd529fe9	-0.051422033
32	0xbea61f55	-0.3244578
33	0xbeade930	-0.3396697
34	0x3e92db5c	0.28682983
35	0xbe4f9bd0	-0.20274282
36	0xbedb9fba	-0.428953
37	0x3ed9bf30	0.42528677
38	0xbeb61810	-0.35565233
39	0xbee4c873	-0.4468418
40	0x3ee1420e	0.43995708
41	0xbded7aa4	-0.115956575
42	0xbed09798	-0.40740657
43	0xbea39e35	-0.3195664
44	0xbed44fe5	-0.41467205
45	0xbe9d2d6e	-0.30698723
46	0xbdcbda5e	-0.099537596
47	0x3e6fcbf4	0.23417646
48	0xbd17091e	-0.03687393
49	0x3eb0a603	0.34501657
50	0x3eaed9ac	0.34150445
51	0x3e42699a	0.18985596
52	0x3eb2e8e6	0.34943312
53	0xbca37fff	-0.019958494
54	0xbe8c9a66	-0.27461547
55	0x3eb891b8	0.36048675
56	0xbd8465f3	-0.06464758
57	0xbdc6aa87	-0.09700494
58	0x3eadc763	0.33941182
59	0xbecb68f7	-0.3972852
60	0x3dfe7fa8	0.12426692
61	0xbe4ec0f5	-0.20190795
62	0xbe5db0f8	-0.2164954
63	0xbe5000a2	-0.20312741
64	0xbe934759	-0.2876537
65	0x3ec90747	0.39263365
66	0xbe0f43e8	-0.13990748
67	0x3de97341	0.11398936
68	0xbe8183cb	-0.25295863
69	0x3e8797da	0.2648304
70	0xbd682917	-0.05667981
71	0x3df8dfd2	0.12152065
72	0x3eb6d28b	0.35707507
73	0xbedda7f7	-0.4329221
74	0xbc8d5cb2	-0.017256115
75	0x3ea8e8da	0.32990152
76	0x3e3ef793	0.1864913
77	0x3eb1afce	0.3470444
78	0xbde64558	-0.11243695
79	0xbeca8544	-0.395548
80	0xbe6c37df	-0.23068188
81	0x3e0e9548	0.13924134
82	0x3d036940	0.032082796
83	0xbebb124f	-0.36537406
84	0xbee105a5	-0.4394962
85	0x3eb8a594	0.36063826
86	0xbe6a7f0f	-0.22900032
87	0xbe04d362	-0.12971261
88	0x3ea5ea7a	0.32405454
89	0xbeb45ae0	-0.35225582
90	0x3e41f4e0	0.18941069
91	0xbecb79ca	-0.39741355
92	0x3ea21936	0.3165986
93	0x3d325b10	0.043543875
94	0xbea438b1	-0.32074502
95	0x3eaf560a	0.3424533
96	0x3bdeee01	0.0068032746
97	0xbe2dd92b	-0.16977374
98	0xbea9fdb3	-0.3320137
99	0x3edd0b95	0.431729
100	0xbe90b334	-0.2826172
101	0xbe7a6616	-0.24453005
102	0xbe4a04c6	-0.19728383
103	0xbebfd426	-0.37466544
104	0x3e235f30	0.1595428
105	0x3e24b108	0.16083157
106	0xbe4dc356	-0.20094046
107	0x3ebc7c9a	0.36813813
108	0x3e8a6d5f	0.2703657
109	0x3ea2600a	0.31713897
110	0x3e17c8b0	0.1482265
111	0xbe322df8	-0.17400348
112	0xbe6a0a6f	-0.22855543
113	0xbd5ccf40	-0.053908587
114	0xbe72df12	-0.23717907
115	0x3e152860	0.14566183
116	0xbd313f80	-0.04327345
117	0x3e992e14	0.29917967
118	0x3e6abf29	0.22924484
119	0x3df9da37	0.12199824
120	0xbe0ad508	-0.13557827
121	0xbdb2955c	-0.08719894
122	0xbce72de0	-0.028220117
123	0x3c4f5580	0.012654662
124	0x3e4e0884	0.20120436
125	0x3e31fb84	0.17381102
126	0x3e6cf7f8	0.23141468
127	0xbd518484	-0.051151767
128	0x3dc3bd1a	0.09557553
129	0x3ea09fd4	0.3137194
130	0x3dc8dea8	0.09808093
131	0xbea3698a	-0.31916457
132	0x3de75b08	0.1129666
133	0xbed00dd3	-0.40635547
134	0x3e4ecc3c	0.20195097
135	0xbec88702	-0.39165503
136	0xbec3d78e	-0.38250393
137	0x3ead73d4	0.33877432
138	0x3ec4e9e6	0.384597
139	0x3ecf2794	0.40459883
140	0xbdeda788	-0.1160422
141	0xbeacdfd3	-0.33764514
142	0xbe3b7034	-0.18304521
143	0xbec315a6	-0.38102454
144	0xbea03dce	-0.31297153
145	0xbe81f363	-0.25381002
146	0x3ecc6a66	0.39924926
147	0xbeac91a9	-0.3370488
148	0x3d992ee8	0.0747965
149	0x3dc78dd5	0.09743849
150	0x3e7c6dae	0.24651214
151	0xbdf23dbd	-0.11828182
152	0x3ea6786b	0.32513747
153	0xbe855f8b	-0.26049456
154	0x3eab7977	0.33491108
155	0xbe299eaa	-0.16564432
156	0x3b56db04	0.0032784352
157	0x3ec688ce	0.3877625
158	0x3c6b6fcd	0.014369917
159	0x3ed1c7c0	0.4097271

bias f4 [32]
0	0x3e43c2d0	0.19117284
1	0xbe89db80	-0.26925278
2	0x3b77a035	0.00377847
3	0x3eb370a2	0.3504687
4	0x3ed32100	0.41236115
5	0xbdb1a144	-0.08673337
6	0x3ed3a294	0.41334975
7	0x3d67f250	0.05662757
8	0xbd84a36c	-0.06476483
9	0x3e020edf	0.12700985
10	0xbea29527	-0.3175442
11	0xbc013b69	-0.0078877
12	0x3e0b86b4	0.13625604
13	0xbed5b6c4	-0.41741002
14	0x3e3f6c5e	0.18693683
15	0x3e9189c4	0.2842542
16	0xbe8e9ef5	-0.2785565
17	0xbebdab9f	-0.37045
18	0xbedc6eef	-0.43053386
19	0xbd9ca3e2	-0.07648446
20	0x3ed055fe	0.40690607
21	0x3daf758c	0.08567342
22	0xbebd0570	-0.3691821
23	0x3e416f95	0.18890221
24	0xbe885cd6	-0.26633328
25	0x3df20e53	0.118191384
26	0x3d377780	0.0447917
27	0x3ebcdf5b	0.36889157
28	0xbe744608	-0.2385484
29	0x3e9ef474	0.31045878
30	0xbeadddf5	-0.33958402
31	0xbe8044ea	-0.25052577

weight f4 [32, 2]
0	0x3ed0839e	0.40725416
1	0x3e879e64	0.2648803
2	0x3f216dc1	0.63058096
3	0xbeac422f	-0.33644244
4	0x3e5720c6	0.21008596
5	0xbe9c58b2	-0.3053642
6	0xbf0e14b0	-0.55500317
7	0x3e32bca4	0.17454773
8	0x3f0452e3	0.51688975
9	0x3e1f354c	0.15547675
10	0x3ede6f1a	0.4344414
11	0x3d2aee80	0.041731358
12	0x3ecce98e	0.40021938
13	0x3e310100	0.17285538
14	0x3e93786c	0.28802812
15	0x3f15e3ad	0.5855053
16	0x3f2c8139	0.6738468
17	0x3ef3455a	0.4751385
18	0x3ebaebca	0.36508018
19	0x3f3173a5	0.69317085
20	0xbeb3e54b	-0.35135874
21	0xbeb0fa82	-0.34566122
22	0xbeb001ae	-0.34376281
23	0xbef9d034	-0.4879166
24	0x39ff45f0	0.00048689498
25	0x3e47d73c	0.19515699
26	0xbf1272b7	-0.5720629
27	0x3f22d1db	0.63601464
28	0xbe64a762	-0.22329476
29	0xbf05498e	-0.5206536
30	0x3f05280d	0.5201424
31	0x3d87b448	0.06626183
32	0xbf1302c3	-0.5742609
33	0xbeaeaeab	-0.34117636
34	0xbf25f886	-0.6483234
35	0xbe0bd8f4	-0.1365698
36	0x3f1dd9ab	0.6166026
37	0x3ea9975a	0.33123285
38	0xbf13f2a7	-0.57792133
39	0x3e8f1860	0.27948284
40	0x3edda22a	0.43287784
41	0x3e995da2	0.2995425
42	0x3d93c52a	0.072153404
43	0xbed5a8cc	-0.41730344
44	0xbe2fbfa2	-0.17162946
45	0x3e17cb5c	0.14823669
46	0xbe2e9691	-0.17049624
47	0x3d8bcd68	0.068262875
48	0x3d816638	0.06318325
49	0x3e22166c	0.15828866
50	0x3e8f86d0	0.2803254
51	0xbf2ad79a	-0.6673523
52	0x3ead7696	0.33879536
53	0x3f298083	0.6621172
54	0xbf1a86a5	-0.603617
55	0xbf32bebf	-0.69822305
56	0xbe9d4dd0	-0.3072343
57	0x3f0d24d9	0.5513435
58	0xbe8f1e8e	-0.27953
59	0x3ef6ddb2	0.48216015
60	0x3e80478e	0.25054592
61	0x3ee7286e	0.45148033
62	0x3f190531	0.59773546
63	0x3f06bb6f	0.5262975

bias f4 [32]
0	0xbebea3c2	-0.37234312
1	0x3d155bd0	0.036464512
2	0x3f027246	0.5095562
3	0x3ef0f371	0.4706073
4	0xbeb41a85	-0.35176483
5	0x3ec69e2e	0.38792557
6	0xbef3b991	-0.47602513
7	0x3c03fb00	0.0080554485
8	0xbf10f5ed	-0.5662525
9	0x3e0c853c	0.137227
10	0xbe89da37	-0.26924297
11	0x3db4fe2f	0.08837544
12	0x3d26cfc3	0.04072548
13	0x3ec5aea9	0.38609818
14	0xbeaae19b	-0.33375248
15	0xbcaad600	-0.020853996
16	0xbed5aebc	-0.41734874
17	0xbf2b9632	-0.67026055
18	0xbf2e2ad1	-0.6803408
19	0x3e8caea9	0.27477005
20	0xbe2f7088	-0.17132771
21	0x3f0c7fbe	0.5488242
22	0xbe21da63	-0.15805964
23	0xbe159f55	-0.14611562
24	0xbe836723	-0.25664625
25	0x3e27a4e9	0.16371502
26	0xbd7659e0	-0.060144305
27	0x3edf14bf	0.43570516
28	0xbea62bc8	-0.32455277
29	0x3efe10fa	0.49622327
30	0xbf24f644	-0.6443827
31	0x3ecad358	0.39614367

weight f4 [128, 64]
0	0xbd95a0d2	-0.07306065
1	0x3da4150e	0.08011828
2	0xbdbf76c1	-0.093488224
3	0xbdd8092a	-0.10548623
4	0x3df05147	0.117342524
5	0x3d10ae26	0.03532233
6	0x3c9a609d	0.018844897
7	0xbcb9e91a	-0.02269416
8	0xbc67caed	-0.014147502
9	0xbd32e2d0	-0.043673337
10	0xbdeece3c	-0.1166043
11	0xbdfe1bc2	-0.12407638
12	0x3ddf078d	0.10890112
13	0x3c154188	0.009109862
14	0xbcff6b46	-0.031179082
15	0x3d758e14	0.05994995
16	0x3bb6d46e	0.005579523
17	0xbdd6b25a	-0.104832366
18	0xbc0a5339	-0.008442693
19	0x3db8a0e0	0.090150595
20	0xbd7ecad3	-0.062205147
21	0x3df53ada	0.11974116
22	0x3de4f266	0.11179046
23	0x3cb6b13b	0.022301307
24	0x3d41ce21	0.04731572
25	0xbb4abb37	-0.0030934343
26	0xbd82afbf	-0.06381177
27	0xbc6ea0db	-0.014564718
28	0x3d44f3da	0.048084117
29	0xbdf1550e	-0.11783801
30	0xbded685e	-0.11592172
31	0x3d5dc7d8	0.054145664
32	0x3d95fd90	0.07323754
33	0x3cac2c83	0.021017319
34	0xbdf87725	-0.121321
35	0xbd0c5321	-0.034258965
36	0x3daf1e93	0.085507534
37	0x3d205e93	0.039152693
38	0x3cab39df	0.020901619
39	0x3da53436	0.08066599
40	0xbd1abddc	-0.03777872
41	0x3d77bed2	0.060484715
42	0x3d3af041	0.04563928
43	0x3da09775	0.07841388
44	0xbd97df8f	-0.07415687
45	0x3d4646bd	0.048407305
46	0xbda65237	-0.0812115
47	0xbc216415	-0.009850522
48	0xbdc0802c	-0.09399447
49	0x3dd89498	0.10575217
50	0xbd4cf133	-0.050034713
51	0x3da4f3ef	0.08054339
52	0x3da64837	0.08119243
53	0x3cbf974b	0.023387572
54	0x3dd98d09	0.106226034
55	0x3c64de1c	0.013968971
56	0xbbc0225f	-0.0058634724
57	0xbde9fc70	-0.11425102
58	0x3de0a34a	0.10968645
59	0x3d4e7697	0.050406065
60	0xbd40cf52	-0.047072716
61	0x3d277452	0.040882416
62	0xbc643855	-0.013929446
63	0xbd86a1a8	-0.06573802
64	0x3d9948ad	0.07484565
65	0xbd11a7f6	-0.03556057
66	0x3dfd69d6	0.12373702
67	0x3d07d3da	0.03316102
68	0x3ce2d253	0.027688181
69	0x3c21698b	0.009851824
70	0x3ddc6f4e	0.10763417
71	0xbd31523a	-0.043291308
72	0xbd871a3e	-0.06596802
73	0x3b6ed709	0.003644409
74	0x3d647460	0.055775046
75	0x3dfcdc70	0.123467326
76	0x3d55a517	0.052159395
77	0x3dd6b0bf	0.104829304
78	0x3dbb84c9	0.09156186
79	0x3db17158	0.08664197
80	0xbdcef324	-0.10104969
81	0x3d15d995	0.036584456
82	0x3aeab81d	0.0017907653
83	0xbcd7e5b7	-0.026354654
84	0xbd2c3531	-0.042042915
85	0xbdea5034	-0.11441079
86	0x3d6fc488	0.058537036
87	0x3d50f81e	0.051017873
88	0xbd8f79a8	-0.07005626
89	0x3dc738bd	0.09727619
90	0xbda9510f	-0.08267414
91	0x3d1641c9	0.03668383
92	0x3d850d69	0.064966984
93	0x3c7609ca	0.015016982
94	0x3d9cf637	0.07664149
95	0x3de08c75	0.1096429
96	0xbb42fa7c	-0.002975135
97	0x3d2562fa	0.040377595
98	0x3d9ebe8f	0.0775119
99	0x3e002c26	0.12516841
100	0x3dd11d4a	0.102106646
101	0xbd889b0c	-0.06670198
102	0xbd327985	-0.04357292
103	0x3cf5ca4f	0.030003695
104	0xbca7606b	-0.020431718
105	0xbda413d2	-0.08011593
106	0x3c956105	0.01823474
107	0xbdbaac55	-0.09114901
108	0xbdf80590	-0.12110436
109	0x3d17d29e	0.037066095
110	0xbd925ffe	-0.07147215
111	0x3d7f62be	0.062350027
112	0xbd3fb34a	-0.046801843
113	0xbd9f6a00	-0.0778389
114	0xbcfcd4a3	-0.030863112
115	0x3d86cab0	0.06581628
116	0x3d1f16e0	0.038840175
117	0x3d9bc92c	0.0760673
118	0xbbc6315a	-0.0060483636
119	0x3db58198	0.08862609
120	0xbbc5facb	-0.0060418597
121	0xbba867a8	-0.00513931
122	0xbcf31b97	-0.029676242
123	0xbc30be43	-0.010787549
124	0x3d507348	0.05089119
125	0xbdab63a5	-0.08368615
126	0xbdb1a7ce	-0.08674584
127	0xbdf81f08	-0.12115294
128	0xbd9c1df9	-0.07622904
129	0xbddab6df	-0.10679411
130	0x3d4b190c	0.049584433
131	0xbdd78786	-0.10523896
132	0xbb9295b3	-0.004473412
133	0xbdd34602	-0.10316087
134	0xbc5ad84b	-0.013357232
135	0x3d0cf609	0.034414325
136	0x3dcbff64	0.09960821
137	0x3dd4c5f4	0.10389319
138	0x3d4a9a8f	0.049463805
139	0xbdc66f76	-0.09689228
140	0xbcb53432	-0.022119615
141	0xbd0172bb	-0.031603556
142	0xbdc3cb7a	-0.095602944
143	0xbbb52d57	-0.0055290866
144	0xbc569714	-0.013097543
145	0xbd202d28	-0.039105564
146	0xbdf73e0d	-0.12072382
147	0x3decd170	0.115633845
148	0xbdbe5b42	-0.0929475
149	0xbcfec4a4	-0.031099625
150	0x3d73382c	0.05937974
151	0x3d902302	0.07037927
152	0xbdaaa5a3	-0.08332374
153	0xbd7f8955	-0.06238683
154	0xbc883596	-0.016627114
155	0x3d8352f4	0.064123064
156	0xbc0d3660	-0.008618921
157	0x3dd6b0f3	0.10482969
158	0x3d918ffb	0.0710754
159	0x3dd2750f	0.102762334
160	0x3d08c8e8	0.033394724
161	0x3d311525	0.043233056
162	0xbdf2a1e3	-0.11847284
163	0xbdba3794	-0.09092632
164	0x3dbf83da	0.093513206
165	0xbdaf63ec	-0.085639805
166	0x3d28925a	0.041155197
167	0xbd599a22	-0.053125508
168	0xbd32a525	-0.043614525
169	0x3d909406	0.07059483
170	0xbd268f92	-0.040664263
171	0x3dd15895	0.10221974
172	0xbdabda42	-0.08391239
173	0x3decfae6	0.115712926
174	0xbd83a072	-0.06427087
175	0xbde72d70	-0.112879634
176	0x3c9995a4	0.018748112
177	0x3cc9bc64	0.024625964
178	0xbb505923	-0.003179141
179	0x3de5a8af	0.112138145
180	0xbdf3bb25	-0.11900929
181	0xbdb7bb19	-0.08971233
182	0xbdb53954	-0.08848825
183	0xbd61a6a4	-0.05509056
184	0xbd801319	-0.062536426
185	0x3c81515c	0.015785865
186	0xbd1d1f49	-0.038359914
187	0xbdb8c248	-0.09021431
188	0xbbba2048	-0.0056801178
189	0x3da123fb	0.07868191
190	0xbdcf2753	-0.101149224
191	0x3ded243d	0.115791775
192	0xbc26b283	-0.010174396
193	0x3d84aefa	0.06478687
194	0xbddf5d49	-0.109064646
195	0x3ddc87cc	0.10768089
196	0x3cb11c91	0.021620067
197	0xbdbeaefb	-0.093107186
198	0x3df9fa8e	0.12205993
199	0xbac5c058	-0.001508723
200	0xbddeaaba	-0.10872407
201	0x3c98bf52	0.018645916
202	0x3cb3f341	0.021966578
203	0xbddadd84	-0.10686782
204	0x3d161892	0.036644526
205	0xbd52fedd	-0.051512588
206	0x3b948040	0.00453189
207	0xbd1a8353	-0.037722897
208	0xbc62a023	-0.013832125
209	0xbda87de9	-0.082271405
210	0x3dfca61b	0.123363696
211	0x3dc861de	0.09784292
212	0x3dea4d5b	0.11440536
213	0xbdb3bc29	-0.08776123
214	0x3d52ae71	0.05143589
215	0x3d5b4404	0.05353166
216	0x3dd64ca7	0.10463839
217	0x3d9c75a9	0.076396294
218	0x3dc3a046	0.09552054
219	0x3d9e8aff	0.07741355
220	0x3d720b3c	0.059092745
221	0x3d764bf7	0.06013104
222	0x3d866f23	0.065641664
223	0xbd710c4d	-0.05884962
224	0xbd7490af	-0.059708294
225	0xbb649a9a	-0.0034882189
226	0x3b953ec7	0.004554603
227	0x3d75a094	0.059967592
228	0x3de85238	0.11343807
229	0x3d8acac3	0.06776955
230	0xbcf8cdd6	-0.030371588
231	0xbdde8af7	-0.10866349
232	0x3d9b26ff	0.07575797
233	0x3c137a0f	0.009001269
234	0x3d8a4741	0.06751872
235	0x3b81d043	0.0039615943
236	0xbc956830	-0.018238157
237	0x3c720a36	0.014772942
238	0x3d4051e5	0.0469531
239	0xbcb99ac0	-0.022656798
240	0x3b21db62	0.0024697413
241	0xbcf15b55	-0.029462496
242	0x3d89f09f	0.06735348
243	0xbdf01881	-0.11723424
244	0x3d3508a9	0.044197712
245	0xbcaa3563	-0.02077741
246	0x3cac59d1	0.021038922
247	0xbd5e4412	-0.054264136
248	0x3dd6d60c	0.10490045
249	0xbccb2266	-0.024796676
250	0xbd87eed7	-0.06637352
251	0xbd07bed5	-0.033140976
252	0x3c1422be	0.009041486
253	0xbdcd410d	-0.10022173
254	0xbdd82377	-0.105536394
255	0x3c5e6d06	0.013575798

bias f4 [128]
0	0xbdf1bbb3	-0.11803379
1	0xbd3b5bed	-0.045741964
2	0x3c3d7c53	0.011565286
3	0x3de49c91	0.11162675
4	0x3d57b11a	0.05265913
5	0x3def9aee	0.11699472
6	0x3d263690	0.04057938
7	0xbd7120e6	-0.058869265
8	0x3ba5d94c	0.005061304
9	0x3da1865d	0.07886956
10	0xbdc0b7a9	-0.094100304
11	0x3d67ab82	0.056560047
12	0xbd61356d	-0.05498259
13	0xbd3c67a7	-0.045997288
14	0x3d9b5775	0.075850405
15	0x3dd78097	0.105225734
16	0xbd4309b4	-0.047616675
17	0xbddaf83f	-0.106918804
18	0x3e01f073	0.1268938
19	0x3dff4ce6	0.12465839
20	0x3dd8e44f	0.105904214
21	0xbde007e8	-0.10939008
22	0x3dc59f68	0.09649545
23	0xbd911ccf	-0.07085573
24	0x3d349f54	0.04409726
25	0xbc5785e6	-0.0131544825
26	0xbdc2fe56	-0.09521167
27	0x3da7bb68	0.08190042
28	0xbd82f282	-0.06393911
29	0xbd87245d	-0.065987326
30	0xbdfab268	-0.122410595
31	0xbc4045f7	-0.011735431
32	0x3cf05780	0.029338598
33	0x3d93c68f	0.072156064
34	0xbd163149	-0.036668096
35	0x3d9277a0	0.07151723
36	0x3c873812	0.016506229
37	0x3dbcb1fb	0.092136346
38	0x3c3cb907	0.011518723
39	0xbdde3c29	-0.108513184
40	0xbd4fdec0	-0.05074954
41	0xbcccc02f	-0.024993984
42	0xbd65f382	-0.05614043
43	0xbd6b9e55	-0.057524044
44	0x3dc686ed	0.09693704
45	0xbd09c5b4	-0.03363581
46	0x3d12f56f	0.035878595
47	0x3d4aa7e9	0.049476538
48	0xbd094da2	-0.033521302
49	0x3d64bf2b	0.055846374
50	0xbd37afae	-0.044845276
51	0xbd894ba1	-0.06703878
52	0x3db706fc	0.08936879
53	0xbdd9f69a	-0.10642739
54	0xbc0a7cd9	-0.008452618
55	0x3cfb9236	0.030709367
56	0x3c9e922b	0.019356808
57	0xbd5c4cb7	-0.0537841
58	0x3b1113df	0.0022137088
59	0xbb983cdd	-0.0046459273
60	0x3d74dc69	0.059780512
61	0xbdc40166	-0.09570579
62	0x3ce81132	0.028328512
63	0x3d3bc301	0.045840267
64	0x3da3f150	0.08005011
65	0x3c307a27	0.010771311
66	0x3beec882	0.007287086
67	0xbd1aaf7f	-0.037765022
68	0xba64c130	-0.0008726297
69	0xbdec06cc	-0.11524734
70	0xbd5e7365	-0.054309268
71	0xbda8647b	-0.0822229
72	0xbdd58a33	-0.1042675
73	0xbcacd9f4	-0.021100022
74	0x3ce4189e	0.02784377
75	0xbba943f7	-0.0051655727
76	0xbd65521c	-0.05598651
77	0x3db67da0	0.0891068
78	0xbca5fe2a	-0.020262796
79	0x3d737f9f	0.05944788
80	0x3de84e91	0.1134311
81	0x3d222a34	0.03959103
82	0x3dc43787	0.095809035
83	0xbd873de0	-0.066035986
84	0x3bed0e38	0.007234361
85	0x3c89619e	0.01677018
86	0xbd80a32a	-0.06281121
87	0xbdeec511	-0.11658681
88	0xbc9a062c	-0.018801771
89	0x3dd6f6bd	0.1049628
90	0x3cdca680	0.026934862
91	0x3d03088c	0.031990573
92	0xbddf29fe	-0.10896681
93	0xbc8d1c04	-0.017225273
94	0xbdad1904	-0.08452037
95	0xbc85af43	-0.016318923
96	0x3d0a3a8e	0.03374725
97	0x3b3d6f3c	0.0028905412
98	0xbc907950	-0.017635971
99	0x3ddccf2a	0.10781701
100	0xbc5da1fb	-0.013527389
101	0x3dd6a2dd	0.104802825
102	0xbdcdee24	-0.10055187
103	0x3de7e23e	0.11322449
104	0xbd9a92db	-0.07547542
105	0xbd5b5145	-0.0535443
106	0xbc641499	-0.0139209265
107	0x3d172afe	0.036906235
108	0xbcb8c2b7	-0.022553785
109	0x3bfd9139	0.007738259
110	0xbdd5bc3f	-0.10436296
111	0xbdd87f63	-0.10571172
112	0xbd2f9a23	-0.042871606
113	0x3d43b97a	0.047784306
114	0xbdc0169f	-0.09379315
115	0x3d273ed9	0.04083142
116	0x3dfd8e8b	0.123807035
117	0x3d38f682	0.045156963
118	0xbdf5c05e	-0.11999582
119	0x3cd0016b	0.025391301
120	0x3ded2547	0.11579376
121	0xbd821456	-0.06351535
122	0xbd14e5d9	-0.036352012
123	0x3d79f153	0.06102116
124	0xbc66f6bc	-0.014096912
125	0xbdaaaf92	-0.08334269
126	0xbdc02776	-0.093825266
127	0x3da5b8a3	0.08091857

weight f4 [512, 128]
0	0x395079ca	0.00019881796
1	0x3d802dd6	0.062587425
2	0xbd6270c8	-0.055283338
3	0x3d9793da	0.07401247
4	0xbd89a8fd	-0.06721685
5	0xbd9b75f7	-0.075908594
6	0xbd2d4298	-0.042299837
7	0x3d9e4028	0.077270806
8	0x3d8143c8	0.06311756
9	0x3d8c50c8	0.06851345
10	0x3d88be5d	0.06676934
11	0xbd3a8903	-0.04554082
12	0xbb87e9fe	-0.004147767
13	0x3d87475a	0.06605406
14	0xbc3d02b2	-0.011536287
15	0xbba37373	-0.004988128
16	0x3ba5a24c	0.0050547477
17	0xbce7dd8a	-0.02830388
18	0xbd12c8b6	-0.035835944
19	0x3cc70809	0.024295824
20	0xbc12364c	-0.008924078
21	0xbda39da3	-0.07989051
22	0x3d39dcee	0.04537671
23	0x3d24c6e4	0.04022874
24	0xbda948fd	-0.082658745
25	0x3d90a147	0.07062011
26	0x3da2a4b8	0.07941574
27	0xbd96f896	-0.07371633
28	0xbd8ae20e	-0.06781398
29	0x3d793c26	0.060848378
30	0xbda4b1ed	-0.08041749
31	0xbd71428d	-0.05890136
32	0x3d36eac0	0.04465747
33	0x3cafa42e	0.021440592
34	0xbd83ff8e	-0.064452276
35	0x3d1a806a	0.03772012
36	0x3d3e36a6	0.046438836
37	0x3ae93db5	0.0017794879
38	0x3d7d8078	0.061890095
39	0xbd086003	-0.03329469
40	0x3d920d63	0.071314596
41	0x3d3770fa	0.044785477
42	0xbb81e87b	-0.0039644814
43	0xbd9b673b	-0.07588049
44	0xbdb0b7f6	-0.08628838
45	0x3d647886	0.055779003
46	0xbd5409e2	-0.051767237
47	0x3d8706d4	0.06593099
48	0xbd999882	-0.07499792
49	0x3d57994c	0.05263643
50	0x3bfc9a00	0.007708788
51	0x3d995db7	0.07488578
52	0xbcdc942f	-0.026926128
53	0xbc8f9f89	-0.017532127
54	0x3d929029	0.071564026
55	0x3daadf8b	0.08343419
56	0x3d3bbff2	0.04583735
57	0xbd7d0a04	-0.06177713
58	0x3cf96e45	0.030448088
59	0x3c66385d	0.014051524
60	0xbbf9cb85	-0.0076231384
61	0xbd0c35ec	-0.03423111
62	0xbd92972b	-0.07157739
63	0xbdaad3b1	-0.08341158
64	0xbd8daed5	-0.06918112
65	0xbc523fd0	-0.012832597
66	0x3c0f9123	0.008762631
67	0xbcac3e0f	-0.021025686
68	0xbd6523c8	-0.055942327
69	0x3d8ac842	0.067764774
70	0x3d00e052	0.03146393
71	0xbd9488d7	-0.07252663
72	0xbc5c3819	-0.013441109
73	0x3d33e229	0.043916855
74	0xbd896b98	-0.06709975
75	0xbd290824	-0.04126753
76	0xbd0872b6	-0.033312522
77	0xbb921a87	-0.0044587287
78	0xbd979211	-0.07400907
79	0xbbb0d9de	-0.0053970655
80	0xbd9a7633	-0.07542076
81	0x3db40a2e	0.08791004
82	0x3d52a900	0.051430702
83	0xbda785b6	-0.081798
84	0x3c7fc9e3	0.015612098
85	0x3cec9e81	0.028884174
86	0x3d9b6d14	0.075891644
87	0xbca6c0ed	-0.020355666
88	0x3d3c1527	0.04591861
89	0xbd1e0567	-0.03857937
90	0xbbd3e5b3	-0.0064665913
91	0x3d8474eb	0.06467613
92	0xbce928c1	-0.028461816
93	0x3cc645b7	0.024203165
94	0x3d1d2cc3	0.038372766
95	0x3d270ede	0.040785663
96	0x3d7fadc3	0.06242157
97	0x3d4b81eb	0.049684446
98	0x3da90cd4	0.082544
99	0xbdaaf124	-0.08346775
100	0xbd85ec5c	-0.065392226
101	0xbd499971	-0.0492186
102	0x3da2a947	0.07942443
103	0xbd835e70	-0.06414497
104	0xbd7fff83	-0.062499534
105	0x3d9b495a	0.0758235
106	0x3d290192	0.041261263
107	0xbdb0750f	-0.08616077
108	0xbb321538	-0.0027173292
109	0xbc467511	-0.012112872
110	0xbcfb5779	-0.030681359
111	0x3d34d44a	0.044147767
112	0x3d32cb5b	0.043650966
113	0x3d4d64e3	0.05014504
114	0x3a3b25ae	0.00071390986
115	0xbd8b4da0	-0.06801915
116	0x3d38a13f	0.04507565
117	0xbd4d5776	-0.050132237
118	0x3d1f0dcc	0.038831517
119	0xbd4a7925	-0.04943194
120	0x3d3dc550	0.04633075
121	0xbd802691	-0.06257356
122	0xbd0daeae	-0.034590416
123	0xbd1b5616	-0.037923895
124	0xbcc891f4	-0.024483658
125	0xbcfdd505	-0.030985365
126	0x3db3557f	0.087565415
127	0xbd213d17	-0.0393649
128	0xbd56f58b	-0.05248026
129	0xbdad8d9c	-0.084742755
130	0xbd50e694	-0.051001146
131	0xbdab532b	-0.083654724
132	0x3dab7f66	0.08373909
133	0x3d9bdd55	0.07610575
134	0xbd805068	-0.06265336
135	0x3d20e09b	0.0392767
136	0xbd26cf5d	-0.0407251
137	0x3d25b0f0	0.040451944
138	0xbd3ac6f6	-0.0455999
139	0x3d9c1b2d	0.07622371
140	0x3d2947b6	0.041328155
141	0xbd8b59e8	-0.06804258
142	0x3d36474f	0.0445016
143	0xbda0a88e	-0.07844649
144	0x3d525e45	0.051359434
145	0xbce59e12	-0.028029475
146	0xbc26040e	-0.010132803
147	0x3c46a5ad	0.012124461
148	0xbd92226a	-0.0713547
149	0x3da80641	0.08204318
150	0xbcead40b	-0.028665563
151	0xbc50a836	-0.012735417
152	0xbc3e2f15	-0.011607905
153	0xbca22b13	-0.01979593
154	0xbca65b94	-0.02030734
155	0x3d8d60fb	0.06903263
156	0x3d1f8526	0.03894534
157	0xbcf46cff	-0.02983713
158	0x3cff48f9	0.031162726
159	0x3c764b75	0.015032639
160	0x3cee6e38	0.02910529
161	0x3d9410c4	0.0722976
162	0xbd97f786	-0.07420258
163	0xbd5c4faf	-0.05378693
164	0xbdadb3c0	-0.0848155
165	0x3c97a180	0.018509626
166	0x3d05144b	0.032490056
167	0x3d821331	0.06351317
168	0xbd4e8cff	-0.050427433
169	0xbcad6084	-0.021164186
170	0x3d57db17	0.052699175
171	0xbcea8e20	-0.028632224
172	0xbd6929d9	-0.056924675
173	0xbd980280	-0.07422352
174	0xbdae591d	-0.08513091
175	0xbd6fdaf2	-0.058558412
176	0x3d8312e1	0.06400085
177	0x3d80c6c1	0.06287909
178	0x3b4f22ca	0.003160643
179	0xbd7cea51	-0.0617469
180	0xbca18007	-0.019714369
181	0xbd27bbcf	-0.040950593
182	0xbd069280	-0.032854557
183	0xbda25d86	-0.079279944
184	0x3cebb8c6	0.02877463
185	0x3d28f643	0.04125048
186	0x3cd0022f	0.025391666
187	0x3af16c80	0.0018419176
188	0xbd8ff41b	-0.07028981
189	0x3d6f5c2c	0.05843751
190	0xbdafb560	-0.085795164
191	0x3d4790dc	0.048722133
192	0xbb00bc7b	-0.0019643593
193	0x3d33090a	0.043709792
194	0xbc689800	-0.014196396
195	0x3db5c412	0.08875288
196	0xbd7dae79	-0.06193397
197	0x3d95137f	0.07279109
198	0xbd228490	-0.039677203
199	0x3b8946a1	0.004189328
200	0xbcb820b3	-0.02247653
201	0xbc7c2707	-0.015390164
202	0x3d45afd8	0.0482634
203	0xbd79542e	-0.060871296
204	0xbd547601	-0.05187035
205	0x3d52edec	0.05149643
206	0x3cb0f886	0.02160288
207	0xbd599216	-0.053117834
208	0xbd24c6ad	-0.040228534
209	0x3da27f01	0.0793438
210	0xbd03e3b0	-0.03219956
211	0xbd9daefc	-0.07699391
212	0x3cb7347d	0.022363896
213	0x3cd848be	0.026401874
214	0x3d485c94	0.048916414
215	0xbdafcca1	-0.08583952
216	0x3d78c4fc	0.060734734
217	0xbd7ca22c	-0.061678097
218	0x3d7d90f8	0.06190583
219	0xbd0b6513	-0.03403194
220	0xbd33286e	-0.04373973
221	0xbd916392	-0.0709907
222	0x3d6e0f45	0.05812003
223	0x3c965031	0.018348785
224	0xbd9dce9a	-0.07705422
225	0xbd780e8d	-0.06056075
226	0xbd9c9938	-0.07646412
227	0xbc62346d	-0.013806445
228	0x3d7089c9	0.058725152
229	0xbd86f115	-0.065889515
230	0x3c411293	0.011784214
231	0x3d8be8b9	0.06831498
232	0x3b636863	0.003469967
233	0x3c79f39a	0.015255833
234	0xbd658ee2	-0.056044467
235	0x3da322ff	0.07965659
236	0xbd461bd8	-0.048366398
237	0xbd1232ec	-0.035693094
238	0x3bbe1c71	0.0058017303
239	0xbd64b08a	-0.055832423
240	0x3d9d0bd2	0.0766827
241	0xbd2619dc	-0.040552005
242	0xbc14e71a	-0.009088302
243	0xbc2b21e2	-0.01044509
244	0xbd63ed54	-0.055646256
245	0xbcd4fcc1	-0.025999429
246	0x3da83c6a	0.08214648
247	0x3d3ce870	0.046120107
248	0xbd8845ce	-0.06653939
249	0xbbbfc530	-0.005852364
250	0xbcbce4ce	-0.023058321
251	0xbd446f53	-0.04795773
252	0xbd9a1767	-0.07523995
253	0xbdb07523	-0.08616092
254	0x3d95d818	0.07316607
255	0xbc4c09a8	-0.012453474

bias f4 [512]
0	0x3d56f493	0.052479338
1	0x3b97711c	0.004621638
2	0x3db01f50	0.085997224
3	0xbd112ddd	-0.03544413
4	0xbd0775d7	-0.033071365
5	0x3c700030	0.014648482
6	0xbd884a3e	-0.066547856
7	0x3d915f8d	0.07098303
8	0xbc595d80	-0.013266921
9	0x3d577b41	0.05260778
10	0x3aaa9baf	0.0013016368
11	0x3d896f08	0.06710631
12	0xbc94c3d3	-0.018159783
13	0x3d400309	0.046877895
14	0x3c4b522f	0.012409731
15	0x3b1ebff5	0.0024223302
16	0xbd9dd000	-0.077056885
17	0xbd9c7825	-0.07640103
18	0xbc0112b2	-0.0078779925
19	0xbdad37d6	-0.084579155
20	0x3c413052	0.011791306
21	0x3c15e7c6	0.009149497
22	0xbce662ed	-0.028123343
23	0xbd1348a1	-0.035957936
24	0xbd7a5221	-0.06111348
25	0x3c622475	0.013802637
26	0xbcc87631	-0.02447042
27	0xbd87549e	-0.06607936
28	0x3d72f461	0.05931509
29	0xbd96728b	-0.07346066
30	0x3d262c31	0.040569488
31	0x3ced7662	0.028987113
32	0xbd3a9ee8	-0.0455617
33	0x3dac0047	0.083984904
34	0xbd9da38c	-0.0769721
35	0xbd9a23d2	-0.075263634
36	0x3d943823	0.0723727
37	0x3db0bd73	0.086298846
38	0x3dad536b	0.08463176
39	0xbdabb9cb	-0.083850466
40	0x3d9e31ef	0.07724368
41	0xbd04bd25	-0.032406945
42	0x3d3e5167	0.04646435
43	0x3c3beb97	0.011469743
44	0x3d01d38a	0.03169588
45	0x3d7f5f7a	0.062346913
46	0x3c62ba2c	0.013838332
47	0xbd798dab	-0.06092612
48	0x3d7e325a	0.062059738
49	0x3d7b4579	0.06134555
50	0xbd8fe200	-0.07025528
51	0xbc18a3f7	-0.009316436
52	0x3c1eba61	0.009687991
53	0xbc6a42c6	-0.014298147
54	0x3910dcfa	0.0001381523
55	0x3d86a2f4	0.065740496
56	0x3d8c366a	0.06846316
57	0xbd827e73	-0.063717745
58	0x3d48c93e	0.049020045
59	0xbd2b7fee	-0.04187005
60	0x3d3e1c63	0.04641379
61	0x3d5885dc	0.052862033
62	0xbda3f404	-0.08005527
63	0x3d95a1ed	0.073062755
64	0x3d3ee704	0.046607032
65	0xbda2d8d1	-0.07951511
66	0xbd9f992b	-0.07792886
67	0xbdb047af	-0.086074226
68	0xbce8cfcc	-0.028419398
69	0xbb816a8b	-0.0039494685
70	0xbbb3a89d	-0.0054827468
71	0x3d0cbe49	0.034361158
72	0x3d862105	0.06549267
73	0xbd9d849c	-0.07691309
74	0xbb2a8a3e	-0.002602234
75	0xbd9d2c15	-0.076744236
76	0xbd9aef53	-0.07565179
77	0xbd011cd2	-0.031521626
78	0xbc0de6c9	-0.0086609805
79	0xbd300715	-0.042975504
80	0x3ca5a0d4	0.02021829
81	0xba8b70ce	-0.0010638477
82	0x3cbb9c5b	0.022901705
83	0xbce9c650	-0.028536946
84	0xbda9a93b	-0.08284231
85	0x3d96051a	0.07325192
86	0x3c0767ed	0.008264524
87	0xbd9506e3	-0.07276704
88	0x3d209354	0.039203003
89	0x3da6070e	0.08106814
90	0x3d7a5c67	0.061123278
91	0xbd5648c4	-0.05231549
92	0x3d374d42	0.044751413
93	0xbd68ea74	-0.056864217
94	0xbc185327	-0.009297169
95	0xbc8f2531	-0.017473789
96	0xbd82e913	-0.06392112
97	0xbc356763	-0.011072013
98	0x3d6948be	0.056954138
99	0xbd3da80c	-0.04630284
100	0xbbc2af4c	-0.005941307
101	0xbd896bdd	-0.067100264
102	0xbd93f018	-0.072235286
103	0x3d8f9865	0.07011489
104	0xbd3ec727	-0.046576645
105	0xbdae0287	-0.08496576
106	0x3d5aba7b	0.053400498
107	0xbd468dbf	-0.048475023
108	0x3db11295	0.08646122
109	0xbcab0003	-0.020874029
110	0x3d2f82f6	0.042849503
111	0x3c25f86f	0.010130032
112	0x3dabe71b	0.08393689
113	0xbd691b2f	-0.05691069
114	0x3d1582e1	0.03650177
115	0x3d0fafc4	0.035079733
116	0xbd80e41f	-0.06293511
117	0x3d851a84	0.06499198
118	0xbd8797fa	-0.06620784
119	0x3dac5243	0.08414128
120	0xbd2f97a2	-0.042869218
121	0x3db342c5	0.0875297
122	0x3cfc5ccf	0.030805973
123	0x3d93d6e7	0.07218724
124	0x3db0c4d7	0.08631294
125	0xbd2083a3	-0.03918804
126	0xbd7faec5	-0.062422533
127	0xbc977b06	-0.01849128
128	0x3ccc653f	0.024950622
129	0x3bed333a	0.0072387727
130	0x3cd98ec4	0.026557334
131	0x3d890f7f	0.06692409
132	0xbd629f4c	-0.0553277
133	0xbda963e9	-0.082710095
134	0xbd644685	-0.055731315
135	0xbd3df568	-0.046376616
136	0xbc9e15be	-0.019297477
137	0x3d97e486	0.07416634
138	0xbcf5f98d	-0.030026222
139	0x3da04011	0.0782472
140	0xbd00f661	-0.031484965
141	0xbd8061c7	-0.062686495
142	0xbc5dc034	-0.013534594
143	0x3cc3866a	0.023867805
144	0xbd46eed5	-0.04856761
145	0xbd5f3bc5	-0.05450036
146	0x3d8143c3	0.06311753
147	0xbc7d9ff9	-0.015480035
148	0xbd9267e2	-0.0714872
149	0xbd893ffd	-0.06701658
150	0x3c67784d	0.014127803
151	0xbce63647	-0.028102053
152	0xbb82c9cd	-0.0039913417
153	0xbc45c08c	-0.0120698325
154	0xbc3c3bf1	-0.0114889005
155	0xbcfdfdd4	-0.031004824
156	0xbd8c5c37	-0.06853526
157	0xbc2e19cc	-0.010626268
158	0x3cdc4b3f	0.026891349
159	0xbd6c9169	-0.05775586
160	0x3c2483da	0.0100412015
161	0xbd09c08c	-0.033630893
162	0x3aece86d	0.0018074639
163	0x3b99c13d	0.0046922253
164	0x3c2ba6f9	0.010476821
165	0x3cd7c840	0.026340604
166	0xbd846979	-0.0646543
167	0xba98e19e	-0.0011663919
168	0x3d271ac8	0.040797025
169	0xbd0628d4	-0.03275378
170	0x3cf2abb7	0.029622896
171	0xbcc55fa5	-0.024093458
172	0x3d8a5286	0.06754021
173	0x3d6982d0	0.05700952
174	0x3d0084c1	0.031376604
175	0x3cedc9f9	0.029026972
176	0xbc8cd617	-0.01719193
177	0xbdac28fc	-0.08406255
178	0xbd8608a8	-0.0654462
179	0xbd990510	-0.07471669
180	0xbd6c76e9	-0.05773059
181	0x3d8c6ff7	0.06857293
182	0xbd1ee1f3	-0.0387897
183	0x3d378a97	0.044809904
184	0x3d49fcd0	0.049313366
185	0xbd77f22c	-0.060533687
186	0x3da604a1	0.08106352
187	0x3c673ec8	0.014114089
188	0x3d4c16de	0.049826495
189	0xbd37d54e	-0.044881158
190	0x3d96c0cd	0.073609926
191	0xbc9f4929	-0.019444065
192	0x3d737ac3	0.059443247
193	0xbd25ae8b	-0.04044966
194	0xbda54407	-0.08069616
195	0x3c802111	0.015640767
196	0xbd7d60aa	-0.061859764
197	0x3dad8011	0.08471692
198	0xbd88ec10	-0.0668565
199	0x3d8263f0	0.06366718
200	0xbb902d74	-0.0043999497
201	0xbd8aa7d0	-0.06770289
202	0x3d548182	0.05188132
203	0x3d369e94	0.044584826
204	0x3d88f04f	0.0668646
205	0x3ce6b200	0.028161049
206	0xbc240feb	-0.010013561
207	0xbda25fbd	-0.07928417
208	0xbc5b51cb	-0.0133862
209	0x3d8b3986	0.06798081
210	0x3ba1f984	0.0049430747
211	0xbd93a139	-0.07208485
212	0xbceb0fea	-0.028694112
213	0xbd65528e	-0.055986933
214	0x3d923d7b	0.07140633
215	0xbc216a62	-0.009852024
216	0x3cb7cd44	0.022436745
217	0x3c53b774	0.012922157
218	0xbd9256b7	-0.07145446
219	0x3d860796	0.06544416
220	0xbb5763c1	-0.0032865854
221	0x3a53769b	0.0008066685
222	0x3da359d1	0.079761155
223	0xbb07954a	-0.0020688348
224	0x3ceaec12	0.02867702
225	0x3db8dd88	0.09026629
226	0x3d836aba	0.06416841
227	0xbb2d0ab4	-0.0026404085
228	0x3da8111f	0.082063906
229	0xbcfbc897	-0.030735297
230	0xbd8e4e0b	-0.06948479
231	0xbc26709c	-0.010158684
232	0xbda3c227	-0.07996016
233	0xbcb97d04	-0.02264262
234	0xbda21d9d	-0.079158045
235	0xbd68c0ba	-0.056824423
236	0xbc347d7f	-0.011016249
237	0x3da94a8c	0.08266172
238	0x3da91a54	0.08256975
239	0x3d900bba	0.07033487
240	0xbd552d42	-0.052045114
241	0xbcc78376	-0.024354678
242	0x3d76de2d	0.060270477
243	0xbda43255	-0.080174126
244	0xbd434d1f	-0.04768097
245	0xbd896cb1	-0.06710184
246	0x3cc3922c	0.023873411
247	0xbd94df30	-0.07269132
248	0xbd5f749f	-0.054554578
249	0x3d8529d0	0.06502116
250	0xbd737282	-0.059435375
251	0x3c4d06d4	0.012513835
252	0xbc5837e0	-0.013196915
253	0x3d825586	0.063639686
254	0x3d37f983	0.044915687
255	0xbc4e2700	-0.0125825405

weight f4 [128, 512]
0	0x3cc5f3c7	0.024164094
1	0x3afcebb3	0.0019296318
2	0x3bdefa17	0.0068047154
3	0xbc93e816	-0.018055003
4	0xbd2d747d	-0.04234742
5	0xbc9fe11b	-0.019516518
6	0x3d2a1c6b	0.041531008
7	0xbca021ac	-0.019547306
8	0x3d01bbfa	0.03167341
9	0xbc882ec2	-0.016623858
10	0xbca19595	-0.019724647
11	0x3d37a109	0.04483131
12	0xbd0ba4cc	-0.03409271
13	0xbd1ef41a	-0.038807012
14	0xbb0187bb	-0.001976474
15	0xbd05afaf	-0.032638248
16	0x3c9db7a0	0.019252598
17	0x3c539e61	0.012916178
18	0x3c980b38	0.018560037
19	0xbc9cd11b	-0.019142678
20	0xbc179ac5	-0.0092532085
21	0xbb8f6ac4	-0.004376741
22	0xbce8943e	-0.028391
23	0x3cae570b	0.02128174
24	0xbb47f866	-0.0030513047
25	0x3d332e17	0.043745127
26	0x3d324721	0.043524865
27	0xbce53462	-0.02797908
28	0xbc4451ff	-0.01198244
29	0xbc1c1881	-0.009527327
30	0xbc892ff3	-0.016746497
31	0x3cd0e159	0.02549808
32	0xbcb6d099	-0.022316264
33	0x3c2345d2	0.009965377
34	0xbb4ac100	-0.003093779
35	0x3c7efd45	0.015563314
36	0x3c33912b	0.010959904
37	0x3ba5b142	0.005056531
38	0xbcaaee1e	-0.020865496
39	0x3cb92a67	0.022603227
40	0x3ce03310	0.027368098
41	0xbc22ef21	-0.009944708
42	0x3c29c846	0.01036269
43	0x3b769199	0.0037623404
44	0xbd0e7778	-0.034781903
45	0x3b802e34	0.003911758
46	0xbd07e700	-0.033179283
47	0x3bbd1ff5	0.005771632
48	0xbcf5e59c	-0.030016713
49	0xbcd31519	-0.025766896
50	0x3d0365e2	0.032079585
51	0x3c3beac1	0.011469544
52	0xbc02b62e	-0.007978005
53	0xbd167248	-0.03673008
54	0x3c92e827	0.017932964
55	0x3cadca68	0.021214679
56	0xbcbbcc09	-0.02292444
57	0x39e79606	0.0004417153
58	0xbcdc1d5e	-0.026869472
59	0x3c85757a	0.016291369
60	0xbd12518d	-0.035722304
61	0x3d26f269	0.040758524
62	0x3d21126b	0.039324205
63	0xbcb784d6	-0.022402208
64	0x3b2b48e2	0.002613597
65	0x3cab1f3b	0.020888915
66	0xbd246c90	-0.040142596
67	0x3cdc4802	0.026889805
68	0xbd0771ff	-0.0330677
69	0x3d2b27e5	0.041786093
70	0x3d325142	0.043534525
71	0xbd0ac5c4	-0.03388001
72	0xbc825981	-0.01591182
73	0xbcdf2134	-0.027237512
74	0x3ca27b46	0.019834172
75	0xbcb55319	-0.02213435
76	0xbc2f3749	-0.010694333
77	0xbd2097f0	-0.0392074
78	0xbcf6ceb2	-0.030127857
79	0xbc8ea8f8	-0.017414555
80	0x3c97e9c8	0.018544093
81	0xbc21d117	-0.009876511
82	0x3cedeac8	0.029042616
83	0xbcb239a6	-0.021756005
84	0x3c91b00b	0.01778414
85	0x3c9ae5ea	0.01890846
86	0x3c94a616	0.018145602
87	0xbbde1d07	-0.0067783627
88	0xbc7ee082	-0.0155564565
89	0x3be05328	0.0068458505
90	0xbcfd4188	-0.030915037
91	0x3b4eeffe	0.0031576152
92	0x3b5e2693	0.0033897504
93	0x3d00c71f	0.031439897
94	0xbc991f7a	-0.018691767
95	0x3d26f42a	0.040760197
96	0x3d2370f9	0.03990266
97	0xbbbdbaad	-0.0057900758
98	0x3cb4860c	0.022036575
99	0xbbe9605b	-0.007122082
100	0xbd128a35	-0.035776336
101	0xbd1b0b35	-0.037852485
102	0xbd0b68f8	-0.034035653
103	0xbc490f8f	-0.012271776
104	0x3c8e4318	0.017365977
105	0xbccde3de	-0.02513307
106	0xbd1553d0	-0.036456883
107	0x3ca348eb	0.019932231
108	0x3d317f09	0.04333404
109	0xbc8b4460	-0.017000377
110	0x3cf969a2	0.030445877
111	0x3bb2c18a	0.0054552006
112	0xbc8aacaa	-0.016928036
113	0x3bd64b49	0.0065397364
114	0x3be71dad	0.007053098
115	0xbcd5e15e	-0.02610844
116	0xbd31de47	-0.04342487
117	0xbc10e114	-0.008842725
118	0xbd0af158	-0.03392157
119	0x3add3c8c	0.0016879006
120	0xbd326867	-0.043556597
121	0x3c95a228	0.018265799
122	0x3a9234ab	0.0011154612
123	0xbca323d1	-0.01991454
124	0x3d33ce57	0.043897953
125	0xbcf53ec8	-0.029937163
126	0x3ccaa4a0	0.024736702
127	0x3ca5afcf	0.020225434
128	0x3cb5240a	0.022111911
129	0xbcf6f533	-0.030146217
130	0x3d2350f4	0.039872125
131	0x3d039113	0.032120775
132	0x3c83044b	0.015993258
133	0x3cf00944	0.029301293
134	0x3cc31734	0.023814775
135	0x3b1f839c	0.002433992
136	0xbd2a9452	-0.041645356
137	0xbcbc75f8	-0.02300547
138	0x3d0b01b0	0.033937156
139	0x3d003cba	0.031307913
140	0x3c15aea4	0.009135876
141	0x3ce6c4ac	0.028169952
142	0xbc9ffc3b	-0.019529453
143	0x3c7f22d1	0.015572266
144	0x3c8678ec	0.016415082
145	0x3ce47891	0.027889522
146	0x3d225d0f	0.03963953
147	0x3cdcf462	0.026972
148	0x3c9d9398	0.019235417
149	0x3d2665d1	0.040624443
150	0xbc1291b7	-0.008945874
151	0xbd14b13a	-0.03630183
152	0x3b8082af	0.0039218287
153	0x3d0fc1f7	0.03509709
154	0xb9bff03e	-0.00036609353
155	0x3b8a6687	0.004223648
156	0x3cde019a	0.027100373
157	0xbd125a2a	-0.03573052
158	0xbd2a48a2	-0.041573174
159	0x3cffb908	0.03121616
160	0x3ca132fc	0.019677632
161	0xbb3be29c	-0.0028669005
162	0xbc72913b	-0.014805133
163	0x3cd14b46	0.025548588
164	0xbcf07f4b	-0.029357573
165	0xbb95340c	-0.0045533236
166	0x3d33644a	0.043796815
167	0x3d31ffc4	0.043456808
168	0x3c0c08e0	0.008547038
169	0xbd066d4a	-0.03281907
170	0x3cf44642	0.029818658
171	0xbc587098	-0.013210438
172	0x3ace4b0e	0.0015738921
173	0x3c61541f	0.013752966
174	0xbbea7757	-0.0071553397
175	0xbd1ad57d	-0.037801255
176	0xbc832329	-0.016007977
177	0xbd18d7db	-0.03731523
178	0xbb3153d1	-0.0027058015
179	0x3d0b0911	0.033944193
180	0xbc3e3da7	-0.011611379
181	0x3a86be8d	0.0010280177
182	0xbc239b97	-0.009985826
183	0x3d19f71b	0.037589174
184	0x3d1485bd	0.036260355
185	0x3d1b4050	0.03790313
186	0xbd21d985	-0.039514083
187	0x3c19d60b	0.009389411
188	0x3cd3da07	0.0258608
189	0x3cd11c79	0.025526272
190	0xbc6d4d64	-0.014483783
191	0xbc8e502a	-0.01737221
192	0xbce012db	-0.027352741
193	0xbd23e4ea	-0.04001323
194	0xbd1a445b	-0.037662845
195	0x3c82a654	0.015948452
196	0xbcf2004d	-0.029541159
197	0xbd01c54c	-0.031682298
198	0x3d0815dd	0.033223975
199	0x3d2f9087	0.04286244
200	0xbcbb4a8a	-0.022862691
201	0xbd10815e	-0.035279624
202	0x3d116145	0.035493154
203	0xbd16118a	-0.03663782
204	0xbc21bb52	-0.009871321
205	0x3bbffbf3	0.005858892
206	0x3c847122	0.016167227
207	0x3d2a699c	0.041604623
208	0x3c2772af	0.010220214
209	0x3b96b4df	0.0045991982
210	0xbc621342	-0.013798537
211	0xbcc9fec8	-0.024657622
212	0x3ccb8f7b	0.02484869
213	0x3b54043c	0.0032351157
214	0xbc838fe0	-0.016059816
215	0x3ca23027	0.019798351
216	0x3d368e0d	0.044569064
217	0xbc06a993	-0.008219141
218	0x3d3717aa	0.044700302
219	0x3cc7d856	0.02439515
220	0xbbedb008	-0.0072536506
221	0x3c0803a6	0.008301651
222	0xbc9c2599	-0.019060897
223	0xbd1e5520	-0.0386554
224	0xbcdaabe6	-0.026693296
225	0xbc33ec7f	-0.010981678
226	0x3d05e7da	0.032691814
227	0x3d2c182e	0.042015247
228	0x3b07c384	0.0020715902
229	0xbc4472fb	-0.011990304
230	0xbd2210ee	-0.039566927
231	0x3d350558	0.04419455
232	0x3d1a6cb8	0.03770134
233	0x3d1f6744	0.03891684
234	0xbc90509e	-0.017616566
235	0xbcc848a6	-0.024448704
236	0xbcc8de8c	-0.024520181
237	0xbcdce02e	-0.026962366
238	0x3d15c644	0.036566034
239	0xbc76c27c	-0.015061017
240	0xbcb7bf43	-0.022430068
241	0x3cbabdf3	0.022795653
242	0x3d0b492d	0.034005333
243	0x3c91fcc4	0.017820723
244	0x3c672a00	0.014109135
245	0x3d24dcfe	0.040249817
246	0xbcc03bd6	-0.023466032
247	0xbd082908	-0.033242255
248	0x3c4eeb92	0.0126294065
249	0x3d0289ae	0.031869583
250	0x3b637887	0.003470929
251	0xbcf98ef6	-0.030463677
252	0x3d12344a	0.035694398
253	0xbb2d8073	-0.0026474267
254	0xbd140712	-0.036139555
255	0xbd1fd071	-0.039017145

bias f4 [128]
0	0x3c295ecb	0.010337542
1	0x3bd84b99	0.006600809
2	0x3d21670d	0.039404918
3	0xbc2c438f	-0.010514154
4	0x3cc8dd89	0.024519699
5	0x3d29712f	0.041367706
6	0x3b13244a	0.002245205
7	0x3cffee48	0.031241551
8	0xbc3fb728	-0.011701383
9	0x3c6f1cf3	0.014594304
10	0x3c9b9bf4	0.018995263
11	0xbcfa0684	-0.030520685
12	0x3d39bccf	0.045346078
13	0xbcc3f24a	-0.023919243
14	0x3c8ebd86	0.017424356
15	0x3c41c0a2	0.011825712
16	0x3d2b476a	0.041816153
17	0xbd25d7cd	-0.040489007
18	0xbc9dd281	-0.019265415
19	0x3cac3a93	0.021024024
20	0x3c7f282f	0.015573545
21	0xbc200c46	-0.009768551
22	0x3cd77aae	0.026303615
23	0xbcb7aef0	-0.022422284
24	0x3d1dfd3a	0.038571574
25	0x3d02ac68	0.0319027
26	0xbb73cd56	-0.0037201247
27	0x3c292746	0.010324305
28	0xbceed931	-0.0291563
29	0xbc9e90e8	-0.019356206
30	0xbcb1a0e1	-0.021683158
31	0xbc7dca74	-0.015490163
32	0xbd0372ca	-0.032091893
33	0xbd021723	-0.031760346
34	0x3c7cbf11	0.015426413
35	0xbc69e405	-0.0142755555
36	0x3cf72998	0.0301712
37	0xbd03425a	-0.0320457
38	0xbd18c923	-0.037301194
39	0xbbd54c70	-0.006509356
40	0x3ce682d6	0.02813856
41	0x379712d9	1.800938e-05
42	0x3c5b703d	0.013393459
43	0x3d1eeb9b	0.03879891
44	0x3c685da6	0.014182484
45	0xbd087c56	-0.0333217
46	0xbca81f9e	-0.020522889
47	0x3cd1f0f5	0.025627593
48	0x3d01355d	0.03154503
49	0xbd2a37d1	-0.041557137
50	0xba05da78	-0.0005106102
51	0xbcee21ce	-0.029068854
52	0x3cdc7e1b	0.0269156
53	0x3c9e2eee	0.019309487
54	0x3ce1d16c	0.02756568
55	0xbc5d301e	-0.013500242
56	0x3c90a78d	0.01765802
57	0xbca2dff0	-0.019882172
58	0x3bcd20ca	0.0062600123
59	0x3d11d5dd	0.035604347
60	0x3ce184ab	0.027529081
61	0x3c842cf3	0.016134715
62	0x3b6a6238	0.003576411
63	0x3ca1ce96	0.019751828
64	0x3cb4c4a4	0.022066422
65	0xbd32ff6a	-0.043700613
66	0x3cf669a8	0.030079678
67	0x3ccf839a	0.025331307
68	0xbcdc9395	-0.026925841
69	0xbd1651d0	-0.036699116
70	0x3bf20aa8	0.007386524
71	0x3bc37784	0.005965175
72	0x3d1ac888	0.037788898
73	0x3c974b64	0.018468566
74	0xbbc41ed1	-0.005985119
75	0xbcb98741	-0.022647502
76	0x3d05d9a4	0.03267826
77	0xbba79428	-0.005114097
78	0x3bed9ffb	0.007251737
79	0xbd160308	-0.036623985
80	0xbc602845	-0.013681476
81	0xbc8bd1b1	-0.017067762
82	0xbcbc8054	-0.02301041
83	0x3d21ba0b	0.039484065
84	0xbd194f3b	-0.037429076
85	0x3c10166e	0.00879441
86	0x3d20d82e	0.039268665
87	0xbd271c49	-0.04079846
88	0x3c80fac4	0.015744574
89	0x3d1d62e9	0.038424406
90	0x3cb5fc74	0.022215106
91	0xbcb0be68	-0.021575168
92	0xbc27c0d6	-0.010238847
93	0xbc08df20	-0.008353978
94	0x3bf64af2	0.0075162584
95	0xbc2efedc	-0.01068088
96	0xbb531ffc	-0.003221511
97	0xbcdb8432	-0.026796434
98	0x3c1e74a5	0.009671365
99	0xbd0951ca	-0.033525266
100	0x3b6a427e	0.00357452
101	0xbb0d3bee	-0.0021550613
102	0xbc111fcb	-0.008857678
103	0xbcda6e12	-0.026663814
104	0xbc834b4a	-0.016027112
105	0xbc93c7bb	-0.018039575
106	0x3c87e3ed	0.016588176
107	0xbbcdcd17	-0.006280552
108	0xbd1fa35c	-0.03897415
109	0x3c9eb971	0.019375535
110	0x3bbde2ef	0.005794875
111	0x3d2a3d11	0.041562144
112	0x3aba89e3	0.0014231767
113	0xbd2581fe	-0.040407173
114	0x3c1715bb	0.00922149
115	0xbcad27ab	-0.02113708
116	0x3d17bbea	0.037044443
117	0xbd0c76a7	-0.034292843
118	0xbbdcb348	-0.006735239
119	0xbbf21bd7	-0.0073885727
120	0xbbdcf151	-0.0067426343
121	0x3cf691b9	0.030098783
122	0xbc4e88d9	-0.012605869
123	0x3d015c6b	0.031582277
124	0xbd054990	-0.032540858
125	0xbd1359af	-0.0359742
126	0xbcf70bea	-0.030157048
127	0xbcf3517c	-0.02970194

weight f4 [1, 128]
0	0xbd224713	-0.039618563
1	0x3c9dc475	0.019258717
2	0xbcca8663	-0.024722284
3	0x3d5aa49f	0.05337965
4	0x3d3c55c7	0.04598024
5	0x3d986740	0.074415684
6	0xbd6433cc	-0.05571346
7	0xbc9291f0	-0.017891854
8	0x3ca0308b	0.019554397
9	0xbca665c6	-0.020312201
10	0x3db28e65	0.08718566
11	0xbda234d1	-0.0792023
12	0xbc9369d3	-0.017994797
13	0xbc87db6a	-0.016584117
14	0x3d50cbfa	0.050975777
15	0x3a1827cf	0.0005804272
16	0x3d7ae31b	0.06125174
17	0xbd98bc62	-0.07457806
18	0xbd85aa93	-0.06526675
19	0xbd9a4619	-0.07532901
20	0xbdb6f629	-0.0893367
21	0x3d26b2c6	0.040697835
22	0xbd933dce	-0.07189523
23	0x3dae2de1	0.085048445
24	0x3cdb9f2a	0.026809294
25	0xbd23fd4a	-0.040036477
26	0x3d5f3bc3	0.054500353
27	0x3d974771	0.07386673
28	0xbd704257	-0.058657017
29	0x3d80c55d	0.06287644
30	0x3da50ead	0.0805944
31	0xbc350760	-0.011049122
32	0x3d056a9b	0.03257237
33	0x3d22c86e	0.039741926
34	0x3ce853d7	0.02836029
35	0xbd4bcecf	-0.049757775
36	0xbbd60f1e	-0.006532564
37	0xbd7ff56a	-0.062489904
38	0xbd2a6e29	-0.041608963
39	0xbd72835d	-0.05920731
40	0x3d9ed029	0.07754547
41	0x3ad55d94	0.0016278499
42	0x3d01d51a	0.03169737
43	0xbd282db8	-0.041059226
44	0x39fc6fc0	0.00048148446
45	0xbd38cfbb	-0.045119982
46	0xbd35b088	-0.044357806
47	0x3d4505ab	0.04810111
48	0x3d97695e	0.07393144
49	0xbdb674b9	-0.08908982
50	0x3cd5ad44	0.026083596
51	0x3d58d1f1	0.05293459
52	0xbd8b124a	-0.06790598
53	0xbc53e9bb	-0.012934144
54	0x3d6c19f5	0.057641942
55	0xbd196642	-0.037451036
56	0xbd033f6d	-0.03204291
57	0x3d959272	0.07303323
58	0x3d73794c	0.05944185
59	0x3bdca09c	0.0067330133
60	0x3cd85ae8	0.026410535
61	0x3a850786	0.0010149337
62	0x3d91f6a2	0.071271196
63	0xbd2ca1a4	-0.04214634
64	0x3da3b35b	0.07993194
65	0x3c0c5018	0.008564018
66	0x3d74189d	0.059593786
67	0x3d2a5d96	0.041593157
68	0x3d863b8c	0.065543264
69	0xbd1f17e1	-0.038841132
70	0x3dacde5e	0.08440851
71	0x3c557d65	0.013030385
72	0x3d6630c2	0.056198843
73	0xbd0ca514	-0.03433712
74	0xbcf0331c	-0.029321246
75	0x3d8ec56a	0.069712475
76	0x3d978e13	0.074001454
77	0x3cdbe325	0.02684171
78	0x3d790e5e	0.060804717
79	0xbca0c94d	-0.019627238
80	0x3b8986b1	0.0041969647
81	0xbd84b83e	-0.06480454
82	0xbcb16dbd	-0.021658773
83	0x3bf47974	0.0074607674
84	0xbd42303e	-0.04740929
85	0x3cfe3669	0.031031804
86	0x3bb3fe50	0.005492963
87	0xbd98bd07	-0.07457929
88	0xbd47a421	-0.04874051
89	0xbc79d49f	-0.015248447
90	0xbc3a0a09	-0.011354932
91	0x3a1eea2b	0.00060621154
92	0x3c824da1	0.015906157
93	0xbd570384	-0.052493587
94	0x3b006adb	0.001959494
95	0xbd627bc7	-0.055293825
96	0x3b0c2826	0.0021386235
97	0xbd0dee9a	-0.034651376
98	0xbcecd937	-0.02891217
99	0xbd361117	-0.044449892
100	0x3d964966	0.073382184
101	0x3cc2c88b	0.023777267
102	0xba861470	-0.001022948
103	0x3d4ae4fe	0.04953479
104	0x3cf8eada	0.030385423
105	0xbd862c63	-0.06551435
106	0xbd121c75	-0.03567167
107	0x3d884ebd	0.06655643
108	0x3cd3c80d	0.025852228
109	0xbd9a1a6b	-0.0752457
110	0x3d820e55	0.0635039
111	0x3cd1aa79	0.025593983
112	0x3c2e11be	0.010624347
113	0xbcf204ae	-0.029543247
114	0x3c77e62a	0.015130559
115	0x3dabe65c	0.08393547
116	0x3d41ce6e	0.047316007
117	0x3cc72f6b	0.024314603
118	0xbd37526e	-0.044756345
119	0x3cd461bc	0.02592551
120	0x3d863388	0.065527976
121	0x3d4c60a2	0.049896844
122	0xbd5ca12f	-0.053864654
123	0xbda6065f	-0.08106684
124	0x3d30b966	0.04314556
125	0xbd080100	-0.03320408
126	0xbdb13252	-0.08652176
127	0x3d975d07	0.073907904
